graph densenet169 (
  %input_12[FLOAT, Nx224x224x3]
) initializers (
  %fc1000_1/kernel:0[FLOAT, 1664x1000]
  %fc1000_1/bias:0[FLOAT, 1000]
  %relu_1/Relu:0_reshape_start[INT64, 2]
  %scale[FLOAT, 1664]
  %bias[FLOAT, 1664]
  %mean[FLOAT, 1664]
  %var[FLOAT, 1664]
  %conv5_block32_2_conv/kernel:0[FLOAT, 32x128x3x3]
  %conv5_block31_2_conv/kernel:0[FLOAT, 32x128x3x3]
  %conv5_block30_2_conv/kernel:0[FLOAT, 32x128x3x3]
  %scale1[FLOAT, 128]
  %bias1[FLOAT, 128]
  %mean1[FLOAT, 128]
  %var1[FLOAT, 128]
  %conv5_block29_2_conv/kernel:0[FLOAT, 32x128x3x3]
  %scale2[FLOAT, 128]
  %bias2[FLOAT, 128]
  %mean2[FLOAT, 128]
  %var2[FLOAT, 128]
  %conv5_block32_1_conv/kernel:0[FLOAT, 128x1632x1x1]
  %conv5_block28_2_conv/kernel:0[FLOAT, 32x128x3x3]
  %scale3[FLOAT, 128]
  %bias3[FLOAT, 128]
  %mean3[FLOAT, 128]
  %var3[FLOAT, 128]
  %conv5_block31_1_conv/kernel:0[FLOAT, 128x1600x1x1]
  %conv5_block27_2_conv/kernel:0[FLOAT, 32x128x3x3]
  %scale4[FLOAT, 128]
  %bias4[FLOAT, 128]
  %mean4[FLOAT, 128]
  %var4[FLOAT, 128]
  %conv5_block30_1_conv/kernel:0[FLOAT, 128x1568x1x1]
  %scale5[FLOAT, 1632]
  %bias5[FLOAT, 1632]
  %mean5[FLOAT, 1632]
  %var5[FLOAT, 1632]
  %conv5_block26_2_conv/kernel:0[FLOAT, 32x128x3x3]
  %scale6[FLOAT, 128]
  %bias6[FLOAT, 128]
  %mean6[FLOAT, 128]
  %var6[FLOAT, 128]
  %conv5_block29_1_conv/kernel:0[FLOAT, 128x1536x1x1]
  %scale7[FLOAT, 1600]
  %bias7[FLOAT, 1600]
  %mean7[FLOAT, 1600]
  %var7[FLOAT, 1600]
  %conv5_block25_2_conv/kernel:0[FLOAT, 32x128x3x3]
  %scale8[FLOAT, 128]
  %bias8[FLOAT, 128]
  %mean8[FLOAT, 128]
  %var8[FLOAT, 128]
  %conv5_block28_1_conv/kernel:0[FLOAT, 128x1504x1x1]
  %scale9[FLOAT, 1568]
  %bias9[FLOAT, 1568]
  %mean9[FLOAT, 1568]
  %var9[FLOAT, 1568]
  %conv5_block24_2_conv/kernel:0[FLOAT, 32x128x3x3]
  %scale10[FLOAT, 128]
  %bias10[FLOAT, 128]
  %mean10[FLOAT, 128]
  %var10[FLOAT, 128]
  %conv5_block27_1_conv/kernel:0[FLOAT, 128x1472x1x1]
  %scale11[FLOAT, 1536]
  %bias11[FLOAT, 1536]
  %mean11[FLOAT, 1536]
  %var11[FLOAT, 1536]
  %conv5_block23_2_conv/kernel:0[FLOAT, 32x128x3x3]
  %scale12[FLOAT, 128]
  %bias12[FLOAT, 128]
  %mean12[FLOAT, 128]
  %var12[FLOAT, 128]
  %conv5_block26_1_conv/kernel:0[FLOAT, 128x1440x1x1]
  %scale13[FLOAT, 1504]
  %bias13[FLOAT, 1504]
  %mean13[FLOAT, 1504]
  %var13[FLOAT, 1504]
  %conv5_block22_2_conv/kernel:0[FLOAT, 32x128x3x3]
  %scale14[FLOAT, 128]
  %bias14[FLOAT, 128]
  %mean14[FLOAT, 128]
  %var14[FLOAT, 128]
  %conv5_block25_1_conv/kernel:0[FLOAT, 128x1408x1x1]
  %scale15[FLOAT, 1472]
  %bias15[FLOAT, 1472]
  %mean15[FLOAT, 1472]
  %var15[FLOAT, 1472]
  %conv5_block21_2_conv/kernel:0[FLOAT, 32x128x3x3]
  %scale16[FLOAT, 128]
  %bias16[FLOAT, 128]
  %mean16[FLOAT, 128]
  %var16[FLOAT, 128]
  %conv5_block24_1_conv/kernel:0[FLOAT, 128x1376x1x1]
  %scale17[FLOAT, 1440]
  %bias17[FLOAT, 1440]
  %mean17[FLOAT, 1440]
  %var17[FLOAT, 1440]
  %conv5_block20_2_conv/kernel:0[FLOAT, 32x128x3x3]
  %scale18[FLOAT, 128]
  %bias18[FLOAT, 128]
  %mean18[FLOAT, 128]
  %var18[FLOAT, 128]
  %conv5_block23_1_conv/kernel:0[FLOAT, 128x1344x1x1]
  %scale19[FLOAT, 1408]
  %bias19[FLOAT, 1408]
  %mean19[FLOAT, 1408]
  %var19[FLOAT, 1408]
  %conv5_block19_2_conv/kernel:0[FLOAT, 32x128x3x3]
  %scale20[FLOAT, 128]
  %bias20[FLOAT, 128]
  %mean20[FLOAT, 128]
  %var20[FLOAT, 128]
  %conv5_block22_1_conv/kernel:0[FLOAT, 128x1312x1x1]
  %scale21[FLOAT, 1376]
  %bias21[FLOAT, 1376]
  %mean21[FLOAT, 1376]
  %var21[FLOAT, 1376]
  %conv5_block18_2_conv/kernel:0[FLOAT, 32x128x3x3]
  %scale22[FLOAT, 128]
  %bias22[FLOAT, 128]
  %mean22[FLOAT, 128]
  %var22[FLOAT, 128]
  %conv5_block21_1_conv/kernel:0[FLOAT, 128x1280x1x1]
  %scale23[FLOAT, 1344]
  %bias23[FLOAT, 1344]
  %mean23[FLOAT, 1344]
  %var23[FLOAT, 1344]
  %conv5_block17_2_conv/kernel:0[FLOAT, 32x128x3x3]
  %scale24[FLOAT, 128]
  %bias24[FLOAT, 128]
  %mean24[FLOAT, 128]
  %var24[FLOAT, 128]
  %conv5_block20_1_conv/kernel:0[FLOAT, 128x1248x1x1]
  %scale25[FLOAT, 1312]
  %bias25[FLOAT, 1312]
  %mean25[FLOAT, 1312]
  %var25[FLOAT, 1312]
  %conv5_block16_2_conv_1/kernel:0[FLOAT, 32x128x3x3]
  %scale26[FLOAT, 128]
  %bias26[FLOAT, 128]
  %mean26[FLOAT, 128]
  %var26[FLOAT, 128]
  %conv5_block19_1_conv/kernel:0[FLOAT, 128x1216x1x1]
  %scale27[FLOAT, 1280]
  %bias27[FLOAT, 1280]
  %mean27[FLOAT, 1280]
  %var27[FLOAT, 1280]
  %conv5_block15_2_conv_1/kernel:0[FLOAT, 32x128x3x3]
  %scale28[FLOAT, 128]
  %bias28[FLOAT, 128]
  %mean28[FLOAT, 128]
  %var28[FLOAT, 128]
  %conv5_block18_1_conv/kernel:0[FLOAT, 128x1184x1x1]
  %scale29[FLOAT, 1248]
  %bias29[FLOAT, 1248]
  %mean29[FLOAT, 1248]
  %var29[FLOAT, 1248]
  %conv5_block14_2_conv_1/kernel:0[FLOAT, 32x128x3x3]
  %scale30[FLOAT, 128]
  %bias30[FLOAT, 128]
  %mean30[FLOAT, 128]
  %var30[FLOAT, 128]
  %conv5_block17_1_conv/kernel:0[FLOAT, 128x1152x1x1]
  %scale31[FLOAT, 1216]
  %bias31[FLOAT, 1216]
  %mean31[FLOAT, 1216]
  %var31[FLOAT, 1216]
  %conv5_block13_2_conv_1/kernel:0[FLOAT, 32x128x3x3]
  %scale32[FLOAT, 128]
  %bias32[FLOAT, 128]
  %mean32[FLOAT, 128]
  %var32[FLOAT, 128]
  %conv5_block16_1_conv_1/kernel:0[FLOAT, 128x1120x1x1]
  %scale33[FLOAT, 1184]
  %bias33[FLOAT, 1184]
  %mean33[FLOAT, 1184]
  %var33[FLOAT, 1184]
  %conv5_block12_2_conv_1/kernel:0[FLOAT, 32x128x3x3]
  %scale34[FLOAT, 128]
  %bias34[FLOAT, 128]
  %mean34[FLOAT, 128]
  %var34[FLOAT, 128]
  %conv5_block15_1_conv_1/kernel:0[FLOAT, 128x1088x1x1]
  %scale35[FLOAT, 1152]
  %bias35[FLOAT, 1152]
  %mean35[FLOAT, 1152]
  %var35[FLOAT, 1152]
  %conv5_block11_2_conv_1/kernel:0[FLOAT, 32x128x3x3]
  %scale36[FLOAT, 128]
  %bias36[FLOAT, 128]
  %mean36[FLOAT, 128]
  %var36[FLOAT, 128]
  %conv5_block14_1_conv_1/kernel:0[FLOAT, 128x1056x1x1]
  %scale37[FLOAT, 1120]
  %bias37[FLOAT, 1120]
  %mean37[FLOAT, 1120]
  %var37[FLOAT, 1120]
  %conv5_block10_2_conv_1/kernel:0[FLOAT, 32x128x3x3]
  %scale38[FLOAT, 128]
  %bias38[FLOAT, 128]
  %mean38[FLOAT, 128]
  %var38[FLOAT, 128]
  %conv5_block13_1_conv_1/kernel:0[FLOAT, 128x1024x1x1]
  %scale39[FLOAT, 1088]
  %bias39[FLOAT, 1088]
  %mean39[FLOAT, 1088]
  %var39[FLOAT, 1088]
  %conv5_block9_2_conv_1/kernel:0[FLOAT, 32x128x3x3]
  %scale40[FLOAT, 128]
  %bias40[FLOAT, 128]
  %mean40[FLOAT, 128]
  %var40[FLOAT, 128]
  %conv5_block12_1_conv_1/kernel:0[FLOAT, 128x992x1x1]
  %scale41[FLOAT, 1056]
  %bias41[FLOAT, 1056]
  %mean41[FLOAT, 1056]
  %var41[FLOAT, 1056]
  %conv5_block8_2_conv_1/kernel:0[FLOAT, 32x128x3x3]
  %scale42[FLOAT, 128]
  %bias42[FLOAT, 128]
  %mean42[FLOAT, 128]
  %var42[FLOAT, 128]
  %conv5_block11_1_conv_1/kernel:0[FLOAT, 128x960x1x1]
  %scale43[FLOAT, 1024]
  %bias43[FLOAT, 1024]
  %mean43[FLOAT, 1024]
  %var43[FLOAT, 1024]
  %conv5_block7_2_conv_1/kernel:0[FLOAT, 32x128x3x3]
  %scale44[FLOAT, 128]
  %bias44[FLOAT, 128]
  %mean44[FLOAT, 128]
  %var44[FLOAT, 128]
  %conv5_block10_1_conv_1/kernel:0[FLOAT, 128x928x1x1]
  %scale45[FLOAT, 992]
  %bias45[FLOAT, 992]
  %mean45[FLOAT, 992]
  %var45[FLOAT, 992]
  %conv5_block6_2_conv_1/kernel:0[FLOAT, 32x128x3x3]
  %scale46[FLOAT, 128]
  %bias46[FLOAT, 128]
  %mean46[FLOAT, 128]
  %var46[FLOAT, 128]
  %conv5_block9_1_conv_1/kernel:0[FLOAT, 128x896x1x1]
  %scale47[FLOAT, 960]
  %bias47[FLOAT, 960]
  %mean47[FLOAT, 960]
  %var47[FLOAT, 960]
  %conv5_block5_2_conv_1/kernel:0[FLOAT, 32x128x3x3]
  %scale48[FLOAT, 128]
  %bias48[FLOAT, 128]
  %mean48[FLOAT, 128]
  %var48[FLOAT, 128]
  %conv5_block8_1_conv_1/kernel:0[FLOAT, 128x864x1x1]
  %scale49[FLOAT, 928]
  %bias49[FLOAT, 928]
  %mean49[FLOAT, 928]
  %var49[FLOAT, 928]
  %conv5_block4_2_conv_1/kernel:0[FLOAT, 32x128x3x3]
  %scale50[FLOAT, 128]
  %bias50[FLOAT, 128]
  %mean50[FLOAT, 128]
  %var50[FLOAT, 128]
  %conv5_block7_1_conv_1/kernel:0[FLOAT, 128x832x1x1]
  %scale51[FLOAT, 896]
  %bias51[FLOAT, 896]
  %mean51[FLOAT, 896]
  %var51[FLOAT, 896]
  %conv5_block3_2_conv_1/kernel:0[FLOAT, 32x128x3x3]
  %scale52[FLOAT, 128]
  %bias52[FLOAT, 128]
  %mean52[FLOAT, 128]
  %var52[FLOAT, 128]
  %conv5_block6_1_conv_1/kernel:0[FLOAT, 128x800x1x1]
  %scale53[FLOAT, 864]
  %bias53[FLOAT, 864]
  %mean53[FLOAT, 864]
  %var53[FLOAT, 864]
  %conv5_block2_2_conv_1/kernel:0[FLOAT, 32x128x3x3]
  %scale54[FLOAT, 128]
  %bias54[FLOAT, 128]
  %mean54[FLOAT, 128]
  %var54[FLOAT, 128]
  %conv5_block5_1_conv_1/kernel:0[FLOAT, 128x768x1x1]
  %scale55[FLOAT, 832]
  %bias55[FLOAT, 832]
  %mean55[FLOAT, 832]
  %var55[FLOAT, 832]
  %conv5_block1_2_conv_1/kernel:0[FLOAT, 32x128x3x3]
  %scale56[FLOAT, 128]
  %bias56[FLOAT, 128]
  %mean56[FLOAT, 128]
  %var56[FLOAT, 128]
  %conv5_block4_1_conv_1/kernel:0[FLOAT, 128x736x1x1]
  %scale57[FLOAT, 800]
  %bias57[FLOAT, 800]
  %mean57[FLOAT, 800]
  %var57[FLOAT, 800]
  %pool4_conv_1/kernel:0[FLOAT, 640x1280x1x1]
  %scale58[FLOAT, 128]
  %bias58[FLOAT, 128]
  %mean58[FLOAT, 128]
  %var58[FLOAT, 128]
  %conv5_block3_1_conv_1/kernel:0[FLOAT, 128x704x1x1]
  %scale59[FLOAT, 768]
  %bias59[FLOAT, 768]
  %mean59[FLOAT, 768]
  %var59[FLOAT, 768]
  %scale60[FLOAT, 128]
  %bias60[FLOAT, 128]
  %mean60[FLOAT, 128]
  %var60[FLOAT, 128]
  %conv5_block2_1_conv_1/kernel:0[FLOAT, 128x672x1x1]
  %scale61[FLOAT, 736]
  %bias61[FLOAT, 736]
  %mean61[FLOAT, 736]
  %var61[FLOAT, 736]
  %scale62[FLOAT, 1280]
  %bias62[FLOAT, 1280]
  %mean62[FLOAT, 1280]
  %var62[FLOAT, 1280]
  %conv5_block1_1_conv_1/kernel:0[FLOAT, 128x640x1x1]
  %scale63[FLOAT, 704]
  %bias63[FLOAT, 704]
  %mean63[FLOAT, 704]
  %var63[FLOAT, 704]
  %scale64[FLOAT, 672]
  %bias64[FLOAT, 672]
  %mean64[FLOAT, 672]
  %var64[FLOAT, 672]
  %conv4_block32_2_conv/kernel:0[FLOAT, 32x128x3x3]
  %scale65[FLOAT, 640]
  %bias65[FLOAT, 640]
  %mean65[FLOAT, 640]
  %var65[FLOAT, 640]
  %conv4_block31_2_conv/kernel:0[FLOAT, 32x128x3x3]
  %conv4_block30_2_conv/kernel:0[FLOAT, 32x128x3x3]
  %scale66[FLOAT, 128]
  %bias66[FLOAT, 128]
  %mean66[FLOAT, 128]
  %var66[FLOAT, 128]
  %conv4_block29_2_conv/kernel:0[FLOAT, 32x128x3x3]
  %scale67[FLOAT, 128]
  %bias67[FLOAT, 128]
  %mean67[FLOAT, 128]
  %var67[FLOAT, 128]
  %conv4_block32_1_conv/kernel:0[FLOAT, 128x1248x1x1]
  %conv4_block28_2_conv/kernel:0[FLOAT, 32x128x3x3]
  %scale68[FLOAT, 128]
  %bias68[FLOAT, 128]
  %mean68[FLOAT, 128]
  %var68[FLOAT, 128]
  %conv4_block31_1_conv/kernel:0[FLOAT, 128x1216x1x1]
  %conv4_block27_2_conv/kernel:0[FLOAT, 32x128x3x3]
  %scale69[FLOAT, 128]
  %bias69[FLOAT, 128]
  %mean69[FLOAT, 128]
  %var69[FLOAT, 128]
  %conv4_block30_1_conv/kernel:0[FLOAT, 128x1184x1x1]
  %scale70[FLOAT, 1248]
  %bias70[FLOAT, 1248]
  %mean70[FLOAT, 1248]
  %var70[FLOAT, 1248]
  %conv4_block26_2_conv/kernel:0[FLOAT, 32x128x3x3]
  %scale71[FLOAT, 128]
  %bias71[FLOAT, 128]
  %mean71[FLOAT, 128]
  %var71[FLOAT, 128]
  %conv4_block29_1_conv/kernel:0[FLOAT, 128x1152x1x1]
  %scale72[FLOAT, 1216]
  %bias72[FLOAT, 1216]
  %mean72[FLOAT, 1216]
  %var72[FLOAT, 1216]
  %conv4_block25_2_conv/kernel:0[FLOAT, 32x128x3x3]
  %scale73[FLOAT, 128]
  %bias73[FLOAT, 128]
  %mean73[FLOAT, 128]
  %var73[FLOAT, 128]
  %conv4_block28_1_conv/kernel:0[FLOAT, 128x1120x1x1]
  %scale74[FLOAT, 1184]
  %bias74[FLOAT, 1184]
  %mean74[FLOAT, 1184]
  %var74[FLOAT, 1184]
  %conv4_block24_2_conv_1/kernel:0[FLOAT, 32x128x3x3]
  %scale75[FLOAT, 128]
  %bias75[FLOAT, 128]
  %mean75[FLOAT, 128]
  %var75[FLOAT, 128]
  %conv4_block27_1_conv/kernel:0[FLOAT, 128x1088x1x1]
  %scale76[FLOAT, 1152]
  %bias76[FLOAT, 1152]
  %mean76[FLOAT, 1152]
  %var76[FLOAT, 1152]
  %conv4_block23_2_conv_1/kernel:0[FLOAT, 32x128x3x3]
  %scale77[FLOAT, 128]
  %bias77[FLOAT, 128]
  %mean77[FLOAT, 128]
  %var77[FLOAT, 128]
  %conv4_block26_1_conv/kernel:0[FLOAT, 128x1056x1x1]
  %scale78[FLOAT, 1120]
  %bias78[FLOAT, 1120]
  %mean78[FLOAT, 1120]
  %var78[FLOAT, 1120]
  %conv4_block22_2_conv_1/kernel:0[FLOAT, 32x128x3x3]
  %scale79[FLOAT, 128]
  %bias79[FLOAT, 128]
  %mean79[FLOAT, 128]
  %var79[FLOAT, 128]
  %conv4_block25_1_conv/kernel:0[FLOAT, 128x1024x1x1]
  %scale80[FLOAT, 1088]
  %bias80[FLOAT, 1088]
  %mean80[FLOAT, 1088]
  %var80[FLOAT, 1088]
  %conv4_block21_2_conv_1/kernel:0[FLOAT, 32x128x3x3]
  %scale81[FLOAT, 128]
  %bias81[FLOAT, 128]
  %mean81[FLOAT, 128]
  %var81[FLOAT, 128]
  %conv4_block24_1_conv_1/kernel:0[FLOAT, 128x992x1x1]
  %scale82[FLOAT, 1056]
  %bias82[FLOAT, 1056]
  %mean82[FLOAT, 1056]
  %var82[FLOAT, 1056]
  %conv4_block20_2_conv_1/kernel:0[FLOAT, 32x128x3x3]
  %scale83[FLOAT, 128]
  %bias83[FLOAT, 128]
  %mean83[FLOAT, 128]
  %var83[FLOAT, 128]
  %conv4_block23_1_conv_1/kernel:0[FLOAT, 128x960x1x1]
  %scale84[FLOAT, 1024]
  %bias84[FLOAT, 1024]
  %mean84[FLOAT, 1024]
  %var84[FLOAT, 1024]
  %conv4_block19_2_conv_1/kernel:0[FLOAT, 32x128x3x3]
  %scale85[FLOAT, 128]
  %bias85[FLOAT, 128]
  %mean85[FLOAT, 128]
  %var85[FLOAT, 128]
  %conv4_block22_1_conv_1/kernel:0[FLOAT, 128x928x1x1]
  %scale86[FLOAT, 992]
  %bias86[FLOAT, 992]
  %mean86[FLOAT, 992]
  %var86[FLOAT, 992]
  %conv4_block18_2_conv_1/kernel:0[FLOAT, 32x128x3x3]
  %scale87[FLOAT, 128]
  %bias87[FLOAT, 128]
  %mean87[FLOAT, 128]
  %var87[FLOAT, 128]
  %conv4_block21_1_conv_1/kernel:0[FLOAT, 128x896x1x1]
  %scale88[FLOAT, 960]
  %bias88[FLOAT, 960]
  %mean88[FLOAT, 960]
  %var88[FLOAT, 960]
  %conv4_block17_2_conv_1/kernel:0[FLOAT, 32x128x3x3]
  %scale89[FLOAT, 128]
  %bias89[FLOAT, 128]
  %mean89[FLOAT, 128]
  %var89[FLOAT, 128]
  %conv4_block20_1_conv_1/kernel:0[FLOAT, 128x864x1x1]
  %scale90[FLOAT, 928]
  %bias90[FLOAT, 928]
  %mean90[FLOAT, 928]
  %var90[FLOAT, 928]
  %conv4_block16_2_conv_1/kernel:0[FLOAT, 32x128x3x3]
  %scale91[FLOAT, 128]
  %bias91[FLOAT, 128]
  %mean91[FLOAT, 128]
  %var91[FLOAT, 128]
  %conv4_block19_1_conv_1/kernel:0[FLOAT, 128x832x1x1]
  %scale92[FLOAT, 896]
  %bias92[FLOAT, 896]
  %mean92[FLOAT, 896]
  %var92[FLOAT, 896]
  %conv4_block15_2_conv_1/kernel:0[FLOAT, 32x128x3x3]
  %scale93[FLOAT, 128]
  %bias93[FLOAT, 128]
  %mean93[FLOAT, 128]
  %var93[FLOAT, 128]
  %conv4_block18_1_conv_1/kernel:0[FLOAT, 128x800x1x1]
  %scale94[FLOAT, 864]
  %bias94[FLOAT, 864]
  %mean94[FLOAT, 864]
  %var94[FLOAT, 864]
  %conv4_block14_2_conv_1/kernel:0[FLOAT, 32x128x3x3]
  %scale95[FLOAT, 128]
  %bias95[FLOAT, 128]
  %mean95[FLOAT, 128]
  %var95[FLOAT, 128]
  %conv4_block17_1_conv_1/kernel:0[FLOAT, 128x768x1x1]
  %scale96[FLOAT, 832]
  %bias96[FLOAT, 832]
  %mean96[FLOAT, 832]
  %var96[FLOAT, 832]
  %conv4_block13_2_conv_1/kernel:0[FLOAT, 32x128x3x3]
  %scale97[FLOAT, 128]
  %bias97[FLOAT, 128]
  %mean97[FLOAT, 128]
  %var97[FLOAT, 128]
  %conv4_block16_1_conv_1/kernel:0[FLOAT, 128x736x1x1]
  %scale98[FLOAT, 800]
  %bias98[FLOAT, 800]
  %mean98[FLOAT, 800]
  %var98[FLOAT, 800]
  %conv4_block12_2_conv_1/kernel:0[FLOAT, 32x128x3x3]
  %scale99[FLOAT, 128]
  %bias99[FLOAT, 128]
  %mean99[FLOAT, 128]
  %var99[FLOAT, 128]
  %conv4_block15_1_conv_1/kernel:0[FLOAT, 128x704x1x1]
  %scale100[FLOAT, 768]
  %bias100[FLOAT, 768]
  %mean100[FLOAT, 768]
  %var100[FLOAT, 768]
  %conv4_block11_2_conv_1/kernel:0[FLOAT, 32x128x3x3]
  %scale101[FLOAT, 128]
  %bias101[FLOAT, 128]
  %mean101[FLOAT, 128]
  %var101[FLOAT, 128]
  %conv4_block14_1_conv_1/kernel:0[FLOAT, 128x672x1x1]
  %scale102[FLOAT, 736]
  %bias102[FLOAT, 736]
  %mean102[FLOAT, 736]
  %var102[FLOAT, 736]
  %conv4_block10_2_conv_1/kernel:0[FLOAT, 32x128x3x3]
  %scale103[FLOAT, 128]
  %bias103[FLOAT, 128]
  %mean103[FLOAT, 128]
  %var103[FLOAT, 128]
  %conv4_block13_1_conv_1/kernel:0[FLOAT, 128x640x1x1]
  %scale104[FLOAT, 704]
  %bias104[FLOAT, 704]
  %mean104[FLOAT, 704]
  %var104[FLOAT, 704]
  %conv4_block9_2_conv_1/kernel:0[FLOAT, 32x128x3x3]
  %scale105[FLOAT, 128]
  %bias105[FLOAT, 128]
  %mean105[FLOAT, 128]
  %var105[FLOAT, 128]
  %conv4_block12_1_conv_1/kernel:0[FLOAT, 128x608x1x1]
  %scale106[FLOAT, 672]
  %bias106[FLOAT, 672]
  %mean106[FLOAT, 672]
  %var106[FLOAT, 672]
  %conv4_block8_2_conv_1/kernel:0[FLOAT, 32x128x3x3]
  %scale107[FLOAT, 128]
  %bias107[FLOAT, 128]
  %mean107[FLOAT, 128]
  %var107[FLOAT, 128]
  %conv4_block11_1_conv_1/kernel:0[FLOAT, 128x576x1x1]
  %scale108[FLOAT, 640]
  %bias108[FLOAT, 640]
  %mean108[FLOAT, 640]
  %var108[FLOAT, 640]
  %conv4_block7_2_conv_1/kernel:0[FLOAT, 32x128x3x3]
  %scale109[FLOAT, 128]
  %bias109[FLOAT, 128]
  %mean109[FLOAT, 128]
  %var109[FLOAT, 128]
  %conv4_block10_1_conv_1/kernel:0[FLOAT, 128x544x1x1]
  %scale110[FLOAT, 608]
  %bias110[FLOAT, 608]
  %mean110[FLOAT, 608]
  %var110[FLOAT, 608]
  %conv4_block6_2_conv_1/kernel:0[FLOAT, 32x128x3x3]
  %scale111[FLOAT, 128]
  %bias111[FLOAT, 128]
  %mean111[FLOAT, 128]
  %var111[FLOAT, 128]
  %conv4_block9_1_conv_1/kernel:0[FLOAT, 128x512x1x1]
  %scale112[FLOAT, 576]
  %bias112[FLOAT, 576]
  %mean112[FLOAT, 576]
  %var112[FLOAT, 576]
  %conv4_block5_2_conv_1/kernel:0[FLOAT, 32x128x3x3]
  %scale113[FLOAT, 128]
  %bias113[FLOAT, 128]
  %mean113[FLOAT, 128]
  %var113[FLOAT, 128]
  %conv4_block8_1_conv_1/kernel:0[FLOAT, 128x480x1x1]
  %scale114[FLOAT, 544]
  %bias114[FLOAT, 544]
  %mean114[FLOAT, 544]
  %var114[FLOAT, 544]
  %conv4_block4_2_conv_1/kernel:0[FLOAT, 32x128x3x3]
  %scale115[FLOAT, 128]
  %bias115[FLOAT, 128]
  %mean115[FLOAT, 128]
  %var115[FLOAT, 128]
  %conv4_block7_1_conv_1/kernel:0[FLOAT, 128x448x1x1]
  %scale116[FLOAT, 512]
  %bias116[FLOAT, 512]
  %mean116[FLOAT, 512]
  %var116[FLOAT, 512]
  %conv4_block3_2_conv_1/kernel:0[FLOAT, 32x128x3x3]
  %scale117[FLOAT, 128]
  %bias117[FLOAT, 128]
  %mean117[FLOAT, 128]
  %var117[FLOAT, 128]
  %conv4_block6_1_conv_1/kernel:0[FLOAT, 128x416x1x1]
  %scale118[FLOAT, 480]
  %bias118[FLOAT, 480]
  %mean118[FLOAT, 480]
  %var118[FLOAT, 480]
  %conv4_block2_2_conv_1/kernel:0[FLOAT, 32x128x3x3]
  %scale119[FLOAT, 128]
  %bias119[FLOAT, 128]
  %mean119[FLOAT, 128]
  %var119[FLOAT, 128]
  %conv4_block5_1_conv_1/kernel:0[FLOAT, 128x384x1x1]
  %scale120[FLOAT, 448]
  %bias120[FLOAT, 448]
  %mean120[FLOAT, 448]
  %var120[FLOAT, 448]
  %conv4_block1_2_conv_1/kernel:0[FLOAT, 32x128x3x3]
  %scale121[FLOAT, 128]
  %bias121[FLOAT, 128]
  %mean121[FLOAT, 128]
  %var121[FLOAT, 128]
  %conv4_block4_1_conv_1/kernel:0[FLOAT, 128x352x1x1]
  %scale122[FLOAT, 416]
  %bias122[FLOAT, 416]
  %mean122[FLOAT, 416]
  %var122[FLOAT, 416]
  %pool3_conv_1/kernel:0[FLOAT, 256x512x1x1]
  %scale123[FLOAT, 128]
  %bias123[FLOAT, 128]
  %mean123[FLOAT, 128]
  %var123[FLOAT, 128]
  %conv4_block3_1_conv_1/kernel:0[FLOAT, 128x320x1x1]
  %scale124[FLOAT, 384]
  %bias124[FLOAT, 384]
  %mean124[FLOAT, 384]
  %var124[FLOAT, 384]
  %scale125[FLOAT, 128]
  %bias125[FLOAT, 128]
  %mean125[FLOAT, 128]
  %var125[FLOAT, 128]
  %conv4_block2_1_conv_1/kernel:0[FLOAT, 128x288x1x1]
  %scale126[FLOAT, 352]
  %bias126[FLOAT, 352]
  %mean126[FLOAT, 352]
  %var126[FLOAT, 352]
  %scale127[FLOAT, 512]
  %bias127[FLOAT, 512]
  %mean127[FLOAT, 512]
  %var127[FLOAT, 512]
  %conv4_block1_1_conv_1/kernel:0[FLOAT, 128x256x1x1]
  %scale128[FLOAT, 320]
  %bias128[FLOAT, 320]
  %mean128[FLOAT, 320]
  %var128[FLOAT, 320]
  %scale129[FLOAT, 288]
  %bias129[FLOAT, 288]
  %mean129[FLOAT, 288]
  %var129[FLOAT, 288]
  %conv3_block12_2_conv_1/kernel:0[FLOAT, 32x128x3x3]
  %scale130[FLOAT, 256]
  %bias130[FLOAT, 256]
  %mean130[FLOAT, 256]
  %var130[FLOAT, 256]
  %conv3_block11_2_conv_1/kernel:0[FLOAT, 32x128x3x3]
  %conv3_block10_2_conv_1/kernel:0[FLOAT, 32x128x3x3]
  %scale131[FLOAT, 128]
  %bias131[FLOAT, 128]
  %mean131[FLOAT, 128]
  %var131[FLOAT, 128]
  %conv3_block9_2_conv_1/kernel:0[FLOAT, 32x128x3x3]
  %scale132[FLOAT, 128]
  %bias132[FLOAT, 128]
  %mean132[FLOAT, 128]
  %var132[FLOAT, 128]
  %conv3_block12_1_conv_1/kernel:0[FLOAT, 128x480x1x1]
  %conv3_block8_2_conv_1/kernel:0[FLOAT, 32x128x3x3]
  %scale133[FLOAT, 128]
  %bias133[FLOAT, 128]
  %mean133[FLOAT, 128]
  %var133[FLOAT, 128]
  %conv3_block11_1_conv_1/kernel:0[FLOAT, 128x448x1x1]
  %conv3_block7_2_conv_1/kernel:0[FLOAT, 32x128x3x3]
  %scale134[FLOAT, 128]
  %bias134[FLOAT, 128]
  %mean134[FLOAT, 128]
  %var134[FLOAT, 128]
  %conv3_block10_1_conv_1/kernel:0[FLOAT, 128x416x1x1]
  %scale135[FLOAT, 480]
  %bias135[FLOAT, 480]
  %mean135[FLOAT, 480]
  %var135[FLOAT, 480]
  %conv3_block6_2_conv_1/kernel:0[FLOAT, 32x128x3x3]
  %scale136[FLOAT, 128]
  %bias136[FLOAT, 128]
  %mean136[FLOAT, 128]
  %var136[FLOAT, 128]
  %conv3_block9_1_conv_1/kernel:0[FLOAT, 128x384x1x1]
  %scale137[FLOAT, 448]
  %bias137[FLOAT, 448]
  %mean137[FLOAT, 448]
  %var137[FLOAT, 448]
  %conv3_block5_2_conv_1/kernel:0[FLOAT, 32x128x3x3]
  %scale138[FLOAT, 128]
  %bias138[FLOAT, 128]
  %mean138[FLOAT, 128]
  %var138[FLOAT, 128]
  %conv3_block8_1_conv_1/kernel:0[FLOAT, 128x352x1x1]
  %scale139[FLOAT, 416]
  %bias139[FLOAT, 416]
  %mean139[FLOAT, 416]
  %var139[FLOAT, 416]
  %conv3_block4_2_conv_1/kernel:0[FLOAT, 32x128x3x3]
  %scale140[FLOAT, 128]
  %bias140[FLOAT, 128]
  %mean140[FLOAT, 128]
  %var140[FLOAT, 128]
  %conv3_block7_1_conv_1/kernel:0[FLOAT, 128x320x1x1]
  %scale141[FLOAT, 384]
  %bias141[FLOAT, 384]
  %mean141[FLOAT, 384]
  %var141[FLOAT, 384]
  %conv3_block3_2_conv_1/kernel:0[FLOAT, 32x128x3x3]
  %scale142[FLOAT, 128]
  %bias142[FLOAT, 128]
  %mean142[FLOAT, 128]
  %var142[FLOAT, 128]
  %conv3_block6_1_conv_1/kernel:0[FLOAT, 128x288x1x1]
  %scale143[FLOAT, 352]
  %bias143[FLOAT, 352]
  %mean143[FLOAT, 352]
  %var143[FLOAT, 352]
  %conv3_block2_2_conv_1/kernel:0[FLOAT, 32x128x3x3]
  %scale144[FLOAT, 128]
  %bias144[FLOAT, 128]
  %mean144[FLOAT, 128]
  %var144[FLOAT, 128]
  %conv3_block5_1_conv_1/kernel:0[FLOAT, 128x256x1x1]
  %scale145[FLOAT, 320]
  %bias145[FLOAT, 320]
  %mean145[FLOAT, 320]
  %var145[FLOAT, 320]
  %conv3_block1_2_conv_1/kernel:0[FLOAT, 32x128x3x3]
  %scale146[FLOAT, 128]
  %bias146[FLOAT, 128]
  %mean146[FLOAT, 128]
  %var146[FLOAT, 128]
  %conv3_block4_1_conv_1/kernel:0[FLOAT, 128x224x1x1]
  %scale147[FLOAT, 288]
  %bias147[FLOAT, 288]
  %mean147[FLOAT, 288]
  %var147[FLOAT, 288]
  %pool2_conv_1/kernel:0[FLOAT, 128x256x1x1]
  %scale148[FLOAT, 128]
  %bias148[FLOAT, 128]
  %mean148[FLOAT, 128]
  %var148[FLOAT, 128]
  %conv3_block3_1_conv_1/kernel:0[FLOAT, 128x192x1x1]
  %scale149[FLOAT, 256]
  %bias149[FLOAT, 256]
  %mean149[FLOAT, 256]
  %var149[FLOAT, 256]
  %scale150[FLOAT, 128]
  %bias150[FLOAT, 128]
  %mean150[FLOAT, 128]
  %var150[FLOAT, 128]
  %conv3_block2_1_conv_1/kernel:0[FLOAT, 128x160x1x1]
  %scale151[FLOAT, 224]
  %bias151[FLOAT, 224]
  %mean151[FLOAT, 224]
  %var151[FLOAT, 224]
  %scale152[FLOAT, 256]
  %bias152[FLOAT, 256]
  %mean152[FLOAT, 256]
  %var152[FLOAT, 256]
  %conv3_block1_1_conv_1/kernel:0[FLOAT, 128x128x1x1]
  %scale153[FLOAT, 192]
  %bias153[FLOAT, 192]
  %mean153[FLOAT, 192]
  %var153[FLOAT, 192]
  %scale154[FLOAT, 160]
  %bias154[FLOAT, 160]
  %mean154[FLOAT, 160]
  %var154[FLOAT, 160]
  %conv2_block6_2_conv_1/kernel:0[FLOAT, 32x128x3x3]
  %scale155[FLOAT, 128]
  %bias155[FLOAT, 128]
  %mean155[FLOAT, 128]
  %var155[FLOAT, 128]
  %conv2_block5_2_conv_1/kernel:0[FLOAT, 32x128x3x3]
  %conv2_block4_2_conv_1/kernel:0[FLOAT, 32x128x3x3]
  %scale156[FLOAT, 128]
  %bias156[FLOAT, 128]
  %mean156[FLOAT, 128]
  %var156[FLOAT, 128]
  %conv2_block3_2_conv_1/kernel:0[FLOAT, 32x128x3x3]
  %scale157[FLOAT, 128]
  %bias157[FLOAT, 128]
  %mean157[FLOAT, 128]
  %var157[FLOAT, 128]
  %conv2_block6_1_conv_1/kernel:0[FLOAT, 128x224x1x1]
  %conv2_block2_2_conv_1/kernel:0[FLOAT, 32x128x3x3]
  %scale158[FLOAT, 128]
  %bias158[FLOAT, 128]
  %mean158[FLOAT, 128]
  %var158[FLOAT, 128]
  %conv2_block5_1_conv_1/kernel:0[FLOAT, 128x192x1x1]
  %conv2_block1_2_conv_1/kernel:0[FLOAT, 32x128x3x3]
  %scale159[FLOAT, 128]
  %bias159[FLOAT, 128]
  %mean159[FLOAT, 128]
  %var159[FLOAT, 128]
  %conv2_block4_1_conv_1/kernel:0[FLOAT, 128x160x1x1]
  %scale160[FLOAT, 224]
  %bias160[FLOAT, 224]
  %mean160[FLOAT, 224]
  %var160[FLOAT, 224]
  %Pad_pads[INT64, 8]
  %Pad_value[FLOAT, scalar]
  %scale161[FLOAT, 128]
  %bias161[FLOAT, 128]
  %mean161[FLOAT, 128]
  %var161[FLOAT, 128]
  %conv2_block3_1_conv_1/kernel:0[FLOAT, 128x128x1x1]
  %scale162[FLOAT, 192]
  %bias162[FLOAT, 192]
  %mean162[FLOAT, 192]
  %var162[FLOAT, 192]
  %scale163[FLOAT, 128]
  %bias163[FLOAT, 128]
  %mean163[FLOAT, 128]
  %var163[FLOAT, 128]
  %conv2_block2_1_conv_1/kernel:0[FLOAT, 128x96x1x1]
  %scale164[FLOAT, 160]
  %bias164[FLOAT, 160]
  %mean164[FLOAT, 160]
  %var164[FLOAT, 160]
  %scale165[FLOAT, 64]
  %bias165[FLOAT, 64]
  %mean165[FLOAT, 64]
  %var165[FLOAT, 64]
  %conv2_block1_1_conv_1/kernel:0[FLOAT, 128x64x1x1]
  %scale166[FLOAT, 128]
  %bias166[FLOAT, 128]
  %mean166[FLOAT, 128]
  %var166[FLOAT, 128]
  %conv1/conv_1/kernel:0[FLOAT, 64x3x7x7]
  %scale167[FLOAT, 96]
  %bias167[FLOAT, 96]
  %mean167[FLOAT, 96]
  %var167[FLOAT, 96]
  %Pad1_pads[INT64, 8]
  %Pad1_value[FLOAT, scalar]
  %scale168[FLOAT, 64]
  %bias168[FLOAT, 64]
  %mean168[FLOAT, 64]
  %var168[FLOAT, 64]
) {
  %input_12:01_permuted = Transpose[perm = [0, 3, 1, 2]](%input_12)
  %input_12:01_permuted_padded = Pad[mode = 'constant'](%input_12:01_permuted, %Pad1_pads, %Pad1_value)
  %convolution_output167 = Conv[auto_pad = 'VALID', dilations = [1, 1], group = 1, kernel_shape = [7, 7], strides = [2, 2]](%input_12:01_permuted_padded, %conv1/conv_1/kernel:0)
  %batch_norm_output_buffer165 = BatchNormalization[epsilon = 1.00099999400527e-08, momentum = 0.990000009536743](%convolution_output167, %scale165, %bias165, %mean165, %var165)
  %conv1/relu_1/Relu:0 = Relu(%batch_norm_output_buffer165)
  %conv1/relu_1/Relu:0_permuted_padded = Pad[mode = 'constant'](%conv1/relu_1/Relu:0, %Pad_pads, %Pad_value)
  %zero_padding2d_4/Pad:0_pooling0 = MaxPool[auto_pad = 'VALID', ceil_mode = 0, kernel_shape = [3, 3], strides = [2, 2]](%conv1/relu_1/Relu:0_permuted_padded)
  %pool1_1/MaxPool:0 = Identity(%zero_padding2d_4/Pad:0_pooling0)
  %batch_norm_output_buffer168 = BatchNormalization[epsilon = 1.00099999400527e-08, momentum = 0.990000009536743](%pool1_1/MaxPool:0, %scale168, %bias168, %mean168, %var168)
  %conv2_block1_0_relu_1/Relu:0 = Relu(%batch_norm_output_buffer168)
  %convolution_output166 = Conv[auto_pad = 'VALID', dilations = [1, 1], group = 1, kernel_shape = [1, 1], strides = [1, 1]](%conv2_block1_0_relu_1/Relu:0, %conv2_block1_1_conv_1/kernel:0)
  %batch_norm_output_buffer163 = BatchNormalization[epsilon = 1.00099999400527e-08, momentum = 0.990000009536743](%convolution_output166, %scale163, %bias163, %mean163, %var163)
  %conv2_block1_1_relu_1/Relu:0 = Relu(%batch_norm_output_buffer163)
  %convolution_output162 = Conv[auto_pad = 'NOTSET', dilations = [1, 1], group = 1, kernel_shape = [3, 3], pads = [1, 1, 1, 1], strides = [1, 1]](%conv2_block1_1_relu_1/Relu:0, %conv2_block1_2_conv_1/kernel:0)
  %conv2_block1_concat_1/concat:0 = Concat[axis = 1](%pool1_1/MaxPool:0, %convolution_output162)
  %batch_norm_output_buffer167 = BatchNormalization[epsilon = 1.00099999400527e-08, momentum = 0.990000009536743](%conv2_block1_concat_1/concat:0, %scale167, %bias167, %mean167, %var167)
  %conv2_block2_0_relu_1/Relu:0 = Relu(%batch_norm_output_buffer167)
  %convolution_output165 = Conv[auto_pad = 'VALID', dilations = [1, 1], group = 1, kernel_shape = [1, 1], strides = [1, 1]](%conv2_block2_0_relu_1/Relu:0, %conv2_block2_1_conv_1/kernel:0)
  %batch_norm_output_buffer161 = BatchNormalization[epsilon = 1.00099999400527e-08, momentum = 0.990000009536743](%convolution_output165, %scale161, %bias161, %mean161, %var161)
  %conv2_block2_1_relu_1/Relu:0 = Relu(%batch_norm_output_buffer161)
  %convolution_output160 = Conv[auto_pad = 'NOTSET', dilations = [1, 1], group = 1, kernel_shape = [3, 3], pads = [1, 1, 1, 1], strides = [1, 1]](%conv2_block2_1_relu_1/Relu:0, %conv2_block2_2_conv_1/kernel:0)
  %conv2_block2_concat_1/concat:0 = Concat[axis = 1](%conv2_block1_concat_1/concat:0, %convolution_output160)
  %batch_norm_output_buffer166 = BatchNormalization[epsilon = 1.00099999400527e-08, momentum = 0.990000009536743](%conv2_block2_concat_1/concat:0, %scale166, %bias166, %mean166, %var166)
  %conv2_block3_0_relu_1/Relu:0 = Relu(%batch_norm_output_buffer166)
  %convolution_output164 = Conv[auto_pad = 'VALID', dilations = [1, 1], group = 1, kernel_shape = [1, 1], strides = [1, 1]](%conv2_block3_0_relu_1/Relu:0, %conv2_block3_1_conv_1/kernel:0)
  %batch_norm_output_buffer159 = BatchNormalization[epsilon = 1.00099999400527e-08, momentum = 0.990000009536743](%convolution_output164, %scale159, %bias159, %mean159, %var159)
  %conv2_block3_1_relu_1/Relu:0 = Relu(%batch_norm_output_buffer159)
  %convolution_output158 = Conv[auto_pad = 'NOTSET', dilations = [1, 1], group = 1, kernel_shape = [3, 3], pads = [1, 1, 1, 1], strides = [1, 1]](%conv2_block3_1_relu_1/Relu:0, %conv2_block3_2_conv_1/kernel:0)
  %conv2_block3_concat_1/concat:0 = Concat[axis = 1](%conv2_block2_concat_1/concat:0, %convolution_output158)
  %batch_norm_output_buffer164 = BatchNormalization[epsilon = 1.00099999400527e-08, momentum = 0.990000009536743](%conv2_block3_concat_1/concat:0, %scale164, %bias164, %mean164, %var164)
  %conv2_block4_0_relu_1/Relu:0 = Relu(%batch_norm_output_buffer164)
  %convolution_output163 = Conv[auto_pad = 'VALID', dilations = [1, 1], group = 1, kernel_shape = [1, 1], strides = [1, 1]](%conv2_block4_0_relu_1/Relu:0, %conv2_block4_1_conv_1/kernel:0)
  %batch_norm_output_buffer158 = BatchNormalization[epsilon = 1.00099999400527e-08, momentum = 0.990000009536743](%convolution_output163, %scale158, %bias158, %mean158, %var158)
  %conv2_block4_1_relu_1/Relu:0 = Relu(%batch_norm_output_buffer158)
  %convolution_output157 = Conv[auto_pad = 'NOTSET', dilations = [1, 1], group = 1, kernel_shape = [3, 3], pads = [1, 1, 1, 1], strides = [1, 1]](%conv2_block4_1_relu_1/Relu:0, %conv2_block4_2_conv_1/kernel:0)
  %conv2_block4_concat_1/concat:0 = Concat[axis = 1](%conv2_block3_concat_1/concat:0, %convolution_output157)
  %batch_norm_output_buffer162 = BatchNormalization[epsilon = 1.00099999400527e-08, momentum = 0.990000009536743](%conv2_block4_concat_1/concat:0, %scale162, %bias162, %mean162, %var162)
  %conv2_block5_0_relu_1/Relu:0 = Relu(%batch_norm_output_buffer162)
  %convolution_output161 = Conv[auto_pad = 'VALID', dilations = [1, 1], group = 1, kernel_shape = [1, 1], strides = [1, 1]](%conv2_block5_0_relu_1/Relu:0, %conv2_block5_1_conv_1/kernel:0)
  %batch_norm_output_buffer157 = BatchNormalization[epsilon = 1.00099999400527e-08, momentum = 0.990000009536743](%convolution_output161, %scale157, %bias157, %mean157, %var157)
  %conv2_block5_1_relu_1/Relu:0 = Relu(%batch_norm_output_buffer157)
  %convolution_output156 = Conv[auto_pad = 'NOTSET', dilations = [1, 1], group = 1, kernel_shape = [3, 3], pads = [1, 1, 1, 1], strides = [1, 1]](%conv2_block5_1_relu_1/Relu:0, %conv2_block5_2_conv_1/kernel:0)
  %conv2_block5_concat_1/concat:0 = Concat[axis = 1](%conv2_block4_concat_1/concat:0, %convolution_output156)
  %batch_norm_output_buffer160 = BatchNormalization[epsilon = 1.00099999400527e-08, momentum = 0.990000009536743](%conv2_block5_concat_1/concat:0, %scale160, %bias160, %mean160, %var160)
  %conv2_block6_0_relu_1/Relu:0 = Relu(%batch_norm_output_buffer160)
  %convolution_output159 = Conv[auto_pad = 'VALID', dilations = [1, 1], group = 1, kernel_shape = [1, 1], strides = [1, 1]](%conv2_block6_0_relu_1/Relu:0, %conv2_block6_1_conv_1/kernel:0)
  %batch_norm_output_buffer156 = BatchNormalization[epsilon = 1.00099999400527e-08, momentum = 0.990000009536743](%convolution_output159, %scale156, %bias156, %mean156, %var156)
  %conv2_block6_1_relu_1/Relu:0 = Relu(%batch_norm_output_buffer156)
  %convolution_output155 = Conv[auto_pad = 'NOTSET', dilations = [1, 1], group = 1, kernel_shape = [3, 3], pads = [1, 1, 1, 1], strides = [1, 1]](%conv2_block6_1_relu_1/Relu:0, %conv2_block6_2_conv_1/kernel:0)
  %conv2_block6_concat_1/concat:0 = Concat[axis = 1](%conv2_block5_concat_1/concat:0, %convolution_output155)
  %batch_norm_output_buffer152 = BatchNormalization[epsilon = 1.00099999400527e-08, momentum = 0.990000009536743](%conv2_block6_concat_1/concat:0, %scale152, %bias152, %mean152, %var152)
  %pool2_relu_1/Relu:0 = Relu(%batch_norm_output_buffer152)
  %convolution_output151 = Conv[auto_pad = 'VALID', dilations = [1, 1], group = 1, kernel_shape = [1, 1], strides = [1, 1]](%pool2_relu_1/Relu:0, %pool2_conv_1/kernel:0)
  %pool2_conv_1/convolution:0_pooling0 = AveragePool[auto_pad = 'VALID', ceil_mode = 0, kernel_shape = [2, 2], strides = [2, 2]](%convolution_output151)
  %pool2_pool_1/AvgPool:0 = Identity(%pool2_conv_1/convolution:0_pooling0)
  %batch_norm_output_buffer155 = BatchNormalization[epsilon = 1.00099999400527e-08, momentum = 0.990000009536743](%pool2_pool_1/AvgPool:0, %scale155, %bias155, %mean155, %var155)
  %conv3_block1_0_relu_1/Relu:0 = Relu(%batch_norm_output_buffer155)
  %convolution_output154 = Conv[auto_pad = 'VALID', dilations = [1, 1], group = 1, kernel_shape = [1, 1], strides = [1, 1]](%conv3_block1_0_relu_1/Relu:0, %conv3_block1_1_conv_1/kernel:0)
  %batch_norm_output_buffer150 = BatchNormalization[epsilon = 1.00099999400527e-08, momentum = 0.990000009536743](%convolution_output154, %scale150, %bias150, %mean150, %var150)
  %conv3_block1_1_relu_1/Relu:0 = Relu(%batch_norm_output_buffer150)
  %convolution_output149 = Conv[auto_pad = 'NOTSET', dilations = [1, 1], group = 1, kernel_shape = [3, 3], pads = [1, 1, 1, 1], strides = [1, 1]](%conv3_block1_1_relu_1/Relu:0, %conv3_block1_2_conv_1/kernel:0)
  %conv3_block1_concat_1/concat:0 = Concat[axis = 1](%pool2_pool_1/AvgPool:0, %convolution_output149)
  %batch_norm_output_buffer154 = BatchNormalization[epsilon = 1.00099999400527e-08, momentum = 0.990000009536743](%conv3_block1_concat_1/concat:0, %scale154, %bias154, %mean154, %var154)
  %conv3_block2_0_relu_1/Relu:0 = Relu(%batch_norm_output_buffer154)
  %convolution_output153 = Conv[auto_pad = 'VALID', dilations = [1, 1], group = 1, kernel_shape = [1, 1], strides = [1, 1]](%conv3_block2_0_relu_1/Relu:0, %conv3_block2_1_conv_1/kernel:0)
  %batch_norm_output_buffer148 = BatchNormalization[epsilon = 1.00099999400527e-08, momentum = 0.990000009536743](%convolution_output153, %scale148, %bias148, %mean148, %var148)
  %conv3_block2_1_relu_1/Relu:0 = Relu(%batch_norm_output_buffer148)
  %convolution_output147 = Conv[auto_pad = 'NOTSET', dilations = [1, 1], group = 1, kernel_shape = [3, 3], pads = [1, 1, 1, 1], strides = [1, 1]](%conv3_block2_1_relu_1/Relu:0, %conv3_block2_2_conv_1/kernel:0)
  %conv3_block2_concat_1/concat:0 = Concat[axis = 1](%conv3_block1_concat_1/concat:0, %convolution_output147)
  %batch_norm_output_buffer153 = BatchNormalization[epsilon = 1.00099999400527e-08, momentum = 0.990000009536743](%conv3_block2_concat_1/concat:0, %scale153, %bias153, %mean153, %var153)
  %conv3_block3_0_relu_1/Relu:0 = Relu(%batch_norm_output_buffer153)
  %convolution_output152 = Conv[auto_pad = 'VALID', dilations = [1, 1], group = 1, kernel_shape = [1, 1], strides = [1, 1]](%conv3_block3_0_relu_1/Relu:0, %conv3_block3_1_conv_1/kernel:0)
  %batch_norm_output_buffer146 = BatchNormalization[epsilon = 1.00099999400527e-08, momentum = 0.990000009536743](%convolution_output152, %scale146, %bias146, %mean146, %var146)
  %conv3_block3_1_relu_1/Relu:0 = Relu(%batch_norm_output_buffer146)
  %convolution_output145 = Conv[auto_pad = 'NOTSET', dilations = [1, 1], group = 1, kernel_shape = [3, 3], pads = [1, 1, 1, 1], strides = [1, 1]](%conv3_block3_1_relu_1/Relu:0, %conv3_block3_2_conv_1/kernel:0)
  %conv3_block3_concat_1/concat:0 = Concat[axis = 1](%conv3_block2_concat_1/concat:0, %convolution_output145)
  %batch_norm_output_buffer151 = BatchNormalization[epsilon = 1.00099999400527e-08, momentum = 0.990000009536743](%conv3_block3_concat_1/concat:0, %scale151, %bias151, %mean151, %var151)
  %conv3_block4_0_relu_1/Relu:0 = Relu(%batch_norm_output_buffer151)
  %convolution_output150 = Conv[auto_pad = 'VALID', dilations = [1, 1], group = 1, kernel_shape = [1, 1], strides = [1, 1]](%conv3_block4_0_relu_1/Relu:0, %conv3_block4_1_conv_1/kernel:0)
  %batch_norm_output_buffer144 = BatchNormalization[epsilon = 1.00099999400527e-08, momentum = 0.990000009536743](%convolution_output150, %scale144, %bias144, %mean144, %var144)
  %conv3_block4_1_relu_1/Relu:0 = Relu(%batch_norm_output_buffer144)
  %convolution_output143 = Conv[auto_pad = 'NOTSET', dilations = [1, 1], group = 1, kernel_shape = [3, 3], pads = [1, 1, 1, 1], strides = [1, 1]](%conv3_block4_1_relu_1/Relu:0, %conv3_block4_2_conv_1/kernel:0)
  %conv3_block4_concat_1/concat:0 = Concat[axis = 1](%conv3_block3_concat_1/concat:0, %convolution_output143)
  %batch_norm_output_buffer149 = BatchNormalization[epsilon = 1.00099999400527e-08, momentum = 0.990000009536743](%conv3_block4_concat_1/concat:0, %scale149, %bias149, %mean149, %var149)
  %conv3_block5_0_relu_1/Relu:0 = Relu(%batch_norm_output_buffer149)
  %convolution_output148 = Conv[auto_pad = 'VALID', dilations = [1, 1], group = 1, kernel_shape = [1, 1], strides = [1, 1]](%conv3_block5_0_relu_1/Relu:0, %conv3_block5_1_conv_1/kernel:0)
  %batch_norm_output_buffer142 = BatchNormalization[epsilon = 1.00099999400527e-08, momentum = 0.990000009536743](%convolution_output148, %scale142, %bias142, %mean142, %var142)
  %conv3_block5_1_relu_1/Relu:0 = Relu(%batch_norm_output_buffer142)
  %convolution_output141 = Conv[auto_pad = 'NOTSET', dilations = [1, 1], group = 1, kernel_shape = [3, 3], pads = [1, 1, 1, 1], strides = [1, 1]](%conv3_block5_1_relu_1/Relu:0, %conv3_block5_2_conv_1/kernel:0)
  %conv3_block5_concat_1/concat:0 = Concat[axis = 1](%conv3_block4_concat_1/concat:0, %convolution_output141)
  %batch_norm_output_buffer147 = BatchNormalization[epsilon = 1.00099999400527e-08, momentum = 0.990000009536743](%conv3_block5_concat_1/concat:0, %scale147, %bias147, %mean147, %var147)
  %conv3_block6_0_relu_1/Relu:0 = Relu(%batch_norm_output_buffer147)
  %convolution_output146 = Conv[auto_pad = 'VALID', dilations = [1, 1], group = 1, kernel_shape = [1, 1], strides = [1, 1]](%conv3_block6_0_relu_1/Relu:0, %conv3_block6_1_conv_1/kernel:0)
  %batch_norm_output_buffer140 = BatchNormalization[epsilon = 1.00099999400527e-08, momentum = 0.990000009536743](%convolution_output146, %scale140, %bias140, %mean140, %var140)
  %conv3_block6_1_relu_1/Relu:0 = Relu(%batch_norm_output_buffer140)
  %convolution_output139 = Conv[auto_pad = 'NOTSET', dilations = [1, 1], group = 1, kernel_shape = [3, 3], pads = [1, 1, 1, 1], strides = [1, 1]](%conv3_block6_1_relu_1/Relu:0, %conv3_block6_2_conv_1/kernel:0)
  %conv3_block6_concat_1/concat:0 = Concat[axis = 1](%conv3_block5_concat_1/concat:0, %convolution_output139)
  %batch_norm_output_buffer145 = BatchNormalization[epsilon = 1.00099999400527e-08, momentum = 0.990000009536743](%conv3_block6_concat_1/concat:0, %scale145, %bias145, %mean145, %var145)
  %conv3_block7_0_relu_1/Relu:0 = Relu(%batch_norm_output_buffer145)
  %convolution_output144 = Conv[auto_pad = 'VALID', dilations = [1, 1], group = 1, kernel_shape = [1, 1], strides = [1, 1]](%conv3_block7_0_relu_1/Relu:0, %conv3_block7_1_conv_1/kernel:0)
  %batch_norm_output_buffer138 = BatchNormalization[epsilon = 1.00099999400527e-08, momentum = 0.990000009536743](%convolution_output144, %scale138, %bias138, %mean138, %var138)
  %conv3_block7_1_relu_1/Relu:0 = Relu(%batch_norm_output_buffer138)
  %convolution_output137 = Conv[auto_pad = 'NOTSET', dilations = [1, 1], group = 1, kernel_shape = [3, 3], pads = [1, 1, 1, 1], strides = [1, 1]](%conv3_block7_1_relu_1/Relu:0, %conv3_block7_2_conv_1/kernel:0)
  %conv3_block7_concat_1/concat:0 = Concat[axis = 1](%conv3_block6_concat_1/concat:0, %convolution_output137)
  %batch_norm_output_buffer143 = BatchNormalization[epsilon = 1.00099999400527e-08, momentum = 0.990000009536743](%conv3_block7_concat_1/concat:0, %scale143, %bias143, %mean143, %var143)
  %conv3_block8_0_relu_1/Relu:0 = Relu(%batch_norm_output_buffer143)
  %convolution_output142 = Conv[auto_pad = 'VALID', dilations = [1, 1], group = 1, kernel_shape = [1, 1], strides = [1, 1]](%conv3_block8_0_relu_1/Relu:0, %conv3_block8_1_conv_1/kernel:0)
  %batch_norm_output_buffer136 = BatchNormalization[epsilon = 1.00099999400527e-08, momentum = 0.990000009536743](%convolution_output142, %scale136, %bias136, %mean136, %var136)
  %conv3_block8_1_relu_1/Relu:0 = Relu(%batch_norm_output_buffer136)
  %convolution_output135 = Conv[auto_pad = 'NOTSET', dilations = [1, 1], group = 1, kernel_shape = [3, 3], pads = [1, 1, 1, 1], strides = [1, 1]](%conv3_block8_1_relu_1/Relu:0, %conv3_block8_2_conv_1/kernel:0)
  %conv3_block8_concat_1/concat:0 = Concat[axis = 1](%conv3_block7_concat_1/concat:0, %convolution_output135)
  %batch_norm_output_buffer141 = BatchNormalization[epsilon = 1.00099999400527e-08, momentum = 0.990000009536743](%conv3_block8_concat_1/concat:0, %scale141, %bias141, %mean141, %var141)
  %conv3_block9_0_relu_1/Relu:0 = Relu(%batch_norm_output_buffer141)
  %convolution_output140 = Conv[auto_pad = 'VALID', dilations = [1, 1], group = 1, kernel_shape = [1, 1], strides = [1, 1]](%conv3_block9_0_relu_1/Relu:0, %conv3_block9_1_conv_1/kernel:0)
  %batch_norm_output_buffer134 = BatchNormalization[epsilon = 1.00099999400527e-08, momentum = 0.990000009536743](%convolution_output140, %scale134, %bias134, %mean134, %var134)
  %conv3_block9_1_relu_1/Relu:0 = Relu(%batch_norm_output_buffer134)
  %convolution_output133 = Conv[auto_pad = 'NOTSET', dilations = [1, 1], group = 1, kernel_shape = [3, 3], pads = [1, 1, 1, 1], strides = [1, 1]](%conv3_block9_1_relu_1/Relu:0, %conv3_block9_2_conv_1/kernel:0)
  %conv3_block9_concat_1/concat:0 = Concat[axis = 1](%conv3_block8_concat_1/concat:0, %convolution_output133)
  %batch_norm_output_buffer139 = BatchNormalization[epsilon = 1.00099999400527e-08, momentum = 0.990000009536743](%conv3_block9_concat_1/concat:0, %scale139, %bias139, %mean139, %var139)
  %conv3_block10_0_relu_1/Relu:0 = Relu(%batch_norm_output_buffer139)
  %convolution_output138 = Conv[auto_pad = 'VALID', dilations = [1, 1], group = 1, kernel_shape = [1, 1], strides = [1, 1]](%conv3_block10_0_relu_1/Relu:0, %conv3_block10_1_conv_1/kernel:0)
  %batch_norm_output_buffer133 = BatchNormalization[epsilon = 1.00099999400527e-08, momentum = 0.990000009536743](%convolution_output138, %scale133, %bias133, %mean133, %var133)
  %conv3_block10_1_relu_1/Relu:0 = Relu(%batch_norm_output_buffer133)
  %convolution_output132 = Conv[auto_pad = 'NOTSET', dilations = [1, 1], group = 1, kernel_shape = [3, 3], pads = [1, 1, 1, 1], strides = [1, 1]](%conv3_block10_1_relu_1/Relu:0, %conv3_block10_2_conv_1/kernel:0)
  %conv3_block10_concat_1/concat:0 = Concat[axis = 1](%conv3_block9_concat_1/concat:0, %convolution_output132)
  %batch_norm_output_buffer137 = BatchNormalization[epsilon = 1.00099999400527e-08, momentum = 0.990000009536743](%conv3_block10_concat_1/concat:0, %scale137, %bias137, %mean137, %var137)
  %conv3_block11_0_relu_1/Relu:0 = Relu(%batch_norm_output_buffer137)
  %convolution_output136 = Conv[auto_pad = 'VALID', dilations = [1, 1], group = 1, kernel_shape = [1, 1], strides = [1, 1]](%conv3_block11_0_relu_1/Relu:0, %conv3_block11_1_conv_1/kernel:0)
  %batch_norm_output_buffer132 = BatchNormalization[epsilon = 1.00099999400527e-08, momentum = 0.990000009536743](%convolution_output136, %scale132, %bias132, %mean132, %var132)
  %conv3_block11_1_relu_1/Relu:0 = Relu(%batch_norm_output_buffer132)
  %convolution_output131 = Conv[auto_pad = 'NOTSET', dilations = [1, 1], group = 1, kernel_shape = [3, 3], pads = [1, 1, 1, 1], strides = [1, 1]](%conv3_block11_1_relu_1/Relu:0, %conv3_block11_2_conv_1/kernel:0)
  %conv3_block11_concat_1/concat:0 = Concat[axis = 1](%conv3_block10_concat_1/concat:0, %convolution_output131)
  %batch_norm_output_buffer135 = BatchNormalization[epsilon = 1.00099999400527e-08, momentum = 0.990000009536743](%conv3_block11_concat_1/concat:0, %scale135, %bias135, %mean135, %var135)
  %conv3_block12_0_relu_1/Relu:0 = Relu(%batch_norm_output_buffer135)
  %convolution_output134 = Conv[auto_pad = 'VALID', dilations = [1, 1], group = 1, kernel_shape = [1, 1], strides = [1, 1]](%conv3_block12_0_relu_1/Relu:0, %conv3_block12_1_conv_1/kernel:0)
  %batch_norm_output_buffer131 = BatchNormalization[epsilon = 1.00099999400527e-08, momentum = 0.990000009536743](%convolution_output134, %scale131, %bias131, %mean131, %var131)
  %conv3_block12_1_relu_1/Relu:0 = Relu(%batch_norm_output_buffer131)
  %convolution_output130 = Conv[auto_pad = 'NOTSET', dilations = [1, 1], group = 1, kernel_shape = [3, 3], pads = [1, 1, 1, 1], strides = [1, 1]](%conv3_block12_1_relu_1/Relu:0, %conv3_block12_2_conv_1/kernel:0)
  %conv3_block12_concat_1/concat:0 = Concat[axis = 1](%conv3_block11_concat_1/concat:0, %convolution_output130)
  %batch_norm_output_buffer127 = BatchNormalization[epsilon = 1.00099999400527e-08, momentum = 0.990000009536743](%conv3_block12_concat_1/concat:0, %scale127, %bias127, %mean127, %var127)
  %pool3_relu_1/Relu:0 = Relu(%batch_norm_output_buffer127)
  %convolution_output126 = Conv[auto_pad = 'VALID', dilations = [1, 1], group = 1, kernel_shape = [1, 1], strides = [1, 1]](%pool3_relu_1/Relu:0, %pool3_conv_1/kernel:0)
  %pool3_conv_1/convolution:0_pooling0 = AveragePool[auto_pad = 'VALID', ceil_mode = 0, kernel_shape = [2, 2], strides = [2, 2]](%convolution_output126)
  %pool3_pool_1/AvgPool:0 = Identity(%pool3_conv_1/convolution:0_pooling0)
  %batch_norm_output_buffer130 = BatchNormalization[epsilon = 1.00099999400527e-08, momentum = 0.990000009536743](%pool3_pool_1/AvgPool:0, %scale130, %bias130, %mean130, %var130)
  %conv4_block1_0_relu_1/Relu:0 = Relu(%batch_norm_output_buffer130)
  %convolution_output129 = Conv[auto_pad = 'VALID', dilations = [1, 1], group = 1, kernel_shape = [1, 1], strides = [1, 1]](%conv4_block1_0_relu_1/Relu:0, %conv4_block1_1_conv_1/kernel:0)
  %batch_norm_output_buffer125 = BatchNormalization[epsilon = 1.00099999400527e-08, momentum = 0.990000009536743](%convolution_output129, %scale125, %bias125, %mean125, %var125)
  %conv4_block1_1_relu_1/Relu:0 = Relu(%batch_norm_output_buffer125)
  %convolution_output124 = Conv[auto_pad = 'NOTSET', dilations = [1, 1], group = 1, kernel_shape = [3, 3], pads = [1, 1, 1, 1], strides = [1, 1]](%conv4_block1_1_relu_1/Relu:0, %conv4_block1_2_conv_1/kernel:0)
  %conv4_block1_concat_1/concat:0 = Concat[axis = 1](%pool3_pool_1/AvgPool:0, %convolution_output124)
  %batch_norm_output_buffer129 = BatchNormalization[epsilon = 1.00099999400527e-08, momentum = 0.990000009536743](%conv4_block1_concat_1/concat:0, %scale129, %bias129, %mean129, %var129)
  %conv4_block2_0_relu_1/Relu:0 = Relu(%batch_norm_output_buffer129)
  %convolution_output128 = Conv[auto_pad = 'VALID', dilations = [1, 1], group = 1, kernel_shape = [1, 1], strides = [1, 1]](%conv4_block2_0_relu_1/Relu:0, %conv4_block2_1_conv_1/kernel:0)
  %batch_norm_output_buffer123 = BatchNormalization[epsilon = 1.00099999400527e-08, momentum = 0.990000009536743](%convolution_output128, %scale123, %bias123, %mean123, %var123)
  %conv4_block2_1_relu_1/Relu:0 = Relu(%batch_norm_output_buffer123)
  %convolution_output122 = Conv[auto_pad = 'NOTSET', dilations = [1, 1], group = 1, kernel_shape = [3, 3], pads = [1, 1, 1, 1], strides = [1, 1]](%conv4_block2_1_relu_1/Relu:0, %conv4_block2_2_conv_1/kernel:0)
  %conv4_block2_concat_1/concat:0 = Concat[axis = 1](%conv4_block1_concat_1/concat:0, %convolution_output122)
  %batch_norm_output_buffer128 = BatchNormalization[epsilon = 1.00099999400527e-08, momentum = 0.990000009536743](%conv4_block2_concat_1/concat:0, %scale128, %bias128, %mean128, %var128)
  %conv4_block3_0_relu_1/Relu:0 = Relu(%batch_norm_output_buffer128)
  %convolution_output127 = Conv[auto_pad = 'VALID', dilations = [1, 1], group = 1, kernel_shape = [1, 1], strides = [1, 1]](%conv4_block3_0_relu_1/Relu:0, %conv4_block3_1_conv_1/kernel:0)
  %batch_norm_output_buffer121 = BatchNormalization[epsilon = 1.00099999400527e-08, momentum = 0.990000009536743](%convolution_output127, %scale121, %bias121, %mean121, %var121)
  %conv4_block3_1_relu_1/Relu:0 = Relu(%batch_norm_output_buffer121)
  %convolution_output120 = Conv[auto_pad = 'NOTSET', dilations = [1, 1], group = 1, kernel_shape = [3, 3], pads = [1, 1, 1, 1], strides = [1, 1]](%conv4_block3_1_relu_1/Relu:0, %conv4_block3_2_conv_1/kernel:0)
  %conv4_block3_concat_1/concat:0 = Concat[axis = 1](%conv4_block2_concat_1/concat:0, %convolution_output120)
  %batch_norm_output_buffer126 = BatchNormalization[epsilon = 1.00099999400527e-08, momentum = 0.990000009536743](%conv4_block3_concat_1/concat:0, %scale126, %bias126, %mean126, %var126)
  %conv4_block4_0_relu_1/Relu:0 = Relu(%batch_norm_output_buffer126)
  %convolution_output125 = Conv[auto_pad = 'VALID', dilations = [1, 1], group = 1, kernel_shape = [1, 1], strides = [1, 1]](%conv4_block4_0_relu_1/Relu:0, %conv4_block4_1_conv_1/kernel:0)
  %batch_norm_output_buffer119 = BatchNormalization[epsilon = 1.00099999400527e-08, momentum = 0.990000009536743](%convolution_output125, %scale119, %bias119, %mean119, %var119)
  %conv4_block4_1_relu_1/Relu:0 = Relu(%batch_norm_output_buffer119)
  %convolution_output118 = Conv[auto_pad = 'NOTSET', dilations = [1, 1], group = 1, kernel_shape = [3, 3], pads = [1, 1, 1, 1], strides = [1, 1]](%conv4_block4_1_relu_1/Relu:0, %conv4_block4_2_conv_1/kernel:0)
  %conv4_block4_concat_1/concat:0 = Concat[axis = 1](%conv4_block3_concat_1/concat:0, %convolution_output118)
  %batch_norm_output_buffer124 = BatchNormalization[epsilon = 1.00099999400527e-08, momentum = 0.990000009536743](%conv4_block4_concat_1/concat:0, %scale124, %bias124, %mean124, %var124)
  %conv4_block5_0_relu_1/Relu:0 = Relu(%batch_norm_output_buffer124)
  %convolution_output123 = Conv[auto_pad = 'VALID', dilations = [1, 1], group = 1, kernel_shape = [1, 1], strides = [1, 1]](%conv4_block5_0_relu_1/Relu:0, %conv4_block5_1_conv_1/kernel:0)
  %batch_norm_output_buffer117 = BatchNormalization[epsilon = 1.00099999400527e-08, momentum = 0.990000009536743](%convolution_output123, %scale117, %bias117, %mean117, %var117)
  %conv4_block5_1_relu_1/Relu:0 = Relu(%batch_norm_output_buffer117)
  %convolution_output116 = Conv[auto_pad = 'NOTSET', dilations = [1, 1], group = 1, kernel_shape = [3, 3], pads = [1, 1, 1, 1], strides = [1, 1]](%conv4_block5_1_relu_1/Relu:0, %conv4_block5_2_conv_1/kernel:0)
  %conv4_block5_concat_1/concat:0 = Concat[axis = 1](%conv4_block4_concat_1/concat:0, %convolution_output116)
  %batch_norm_output_buffer122 = BatchNormalization[epsilon = 1.00099999400527e-08, momentum = 0.990000009536743](%conv4_block5_concat_1/concat:0, %scale122, %bias122, %mean122, %var122)
  %conv4_block6_0_relu_1/Relu:0 = Relu(%batch_norm_output_buffer122)
  %convolution_output121 = Conv[auto_pad = 'VALID', dilations = [1, 1], group = 1, kernel_shape = [1, 1], strides = [1, 1]](%conv4_block6_0_relu_1/Relu:0, %conv4_block6_1_conv_1/kernel:0)
  %batch_norm_output_buffer115 = BatchNormalization[epsilon = 1.00099999400527e-08, momentum = 0.990000009536743](%convolution_output121, %scale115, %bias115, %mean115, %var115)
  %conv4_block6_1_relu_1/Relu:0 = Relu(%batch_norm_output_buffer115)
  %convolution_output114 = Conv[auto_pad = 'NOTSET', dilations = [1, 1], group = 1, kernel_shape = [3, 3], pads = [1, 1, 1, 1], strides = [1, 1]](%conv4_block6_1_relu_1/Relu:0, %conv4_block6_2_conv_1/kernel:0)
  %conv4_block6_concat_1/concat:0 = Concat[axis = 1](%conv4_block5_concat_1/concat:0, %convolution_output114)
  %batch_norm_output_buffer120 = BatchNormalization[epsilon = 1.00099999400527e-08, momentum = 0.990000009536743](%conv4_block6_concat_1/concat:0, %scale120, %bias120, %mean120, %var120)
  %conv4_block7_0_relu_1/Relu:0 = Relu(%batch_norm_output_buffer120)
  %convolution_output119 = Conv[auto_pad = 'VALID', dilations = [1, 1], group = 1, kernel_shape = [1, 1], strides = [1, 1]](%conv4_block7_0_relu_1/Relu:0, %conv4_block7_1_conv_1/kernel:0)
  %batch_norm_output_buffer113 = BatchNormalization[epsilon = 1.00099999400527e-08, momentum = 0.990000009536743](%convolution_output119, %scale113, %bias113, %mean113, %var113)
  %conv4_block7_1_relu_1/Relu:0 = Relu(%batch_norm_output_buffer113)
  %convolution_output112 = Conv[auto_pad = 'NOTSET', dilations = [1, 1], group = 1, kernel_shape = [3, 3], pads = [1, 1, 1, 1], strides = [1, 1]](%conv4_block7_1_relu_1/Relu:0, %conv4_block7_2_conv_1/kernel:0)
  %conv4_block7_concat_1/concat:0 = Concat[axis = 1](%conv4_block6_concat_1/concat:0, %convolution_output112)
  %batch_norm_output_buffer118 = BatchNormalization[epsilon = 1.00099999400527e-08, momentum = 0.990000009536743](%conv4_block7_concat_1/concat:0, %scale118, %bias118, %mean118, %var118)
  %conv4_block8_0_relu_1/Relu:0 = Relu(%batch_norm_output_buffer118)
  %convolution_output117 = Conv[auto_pad = 'VALID', dilations = [1, 1], group = 1, kernel_shape = [1, 1], strides = [1, 1]](%conv4_block8_0_relu_1/Relu:0, %conv4_block8_1_conv_1/kernel:0)
  %batch_norm_output_buffer111 = BatchNormalization[epsilon = 1.00099999400527e-08, momentum = 0.990000009536743](%convolution_output117, %scale111, %bias111, %mean111, %var111)
  %conv4_block8_1_relu_1/Relu:0 = Relu(%batch_norm_output_buffer111)
  %convolution_output110 = Conv[auto_pad = 'NOTSET', dilations = [1, 1], group = 1, kernel_shape = [3, 3], pads = [1, 1, 1, 1], strides = [1, 1]](%conv4_block8_1_relu_1/Relu:0, %conv4_block8_2_conv_1/kernel:0)
  %conv4_block8_concat_1/concat:0 = Concat[axis = 1](%conv4_block7_concat_1/concat:0, %convolution_output110)
  %batch_norm_output_buffer116 = BatchNormalization[epsilon = 1.00099999400527e-08, momentum = 0.990000009536743](%conv4_block8_concat_1/concat:0, %scale116, %bias116, %mean116, %var116)
  %conv4_block9_0_relu_1/Relu:0 = Relu(%batch_norm_output_buffer116)
  %convolution_output115 = Conv[auto_pad = 'VALID', dilations = [1, 1], group = 1, kernel_shape = [1, 1], strides = [1, 1]](%conv4_block9_0_relu_1/Relu:0, %conv4_block9_1_conv_1/kernel:0)
  %batch_norm_output_buffer109 = BatchNormalization[epsilon = 1.00099999400527e-08, momentum = 0.990000009536743](%convolution_output115, %scale109, %bias109, %mean109, %var109)
  %conv4_block9_1_relu_1/Relu:0 = Relu(%batch_norm_output_buffer109)
  %convolution_output108 = Conv[auto_pad = 'NOTSET', dilations = [1, 1], group = 1, kernel_shape = [3, 3], pads = [1, 1, 1, 1], strides = [1, 1]](%conv4_block9_1_relu_1/Relu:0, %conv4_block9_2_conv_1/kernel:0)
  %conv4_block9_concat_1/concat:0 = Concat[axis = 1](%conv4_block8_concat_1/concat:0, %convolution_output108)
  %batch_norm_output_buffer114 = BatchNormalization[epsilon = 1.00099999400527e-08, momentum = 0.990000009536743](%conv4_block9_concat_1/concat:0, %scale114, %bias114, %mean114, %var114)
  %conv4_block10_0_relu_1/Relu:0 = Relu(%batch_norm_output_buffer114)
  %convolution_output113 = Conv[auto_pad = 'VALID', dilations = [1, 1], group = 1, kernel_shape = [1, 1], strides = [1, 1]](%conv4_block10_0_relu_1/Relu:0, %conv4_block10_1_conv_1/kernel:0)
  %batch_norm_output_buffer107 = BatchNormalization[epsilon = 1.00099999400527e-08, momentum = 0.990000009536743](%convolution_output113, %scale107, %bias107, %mean107, %var107)
  %conv4_block10_1_relu_1/Relu:0 = Relu(%batch_norm_output_buffer107)
  %convolution_output106 = Conv[auto_pad = 'NOTSET', dilations = [1, 1], group = 1, kernel_shape = [3, 3], pads = [1, 1, 1, 1], strides = [1, 1]](%conv4_block10_1_relu_1/Relu:0, %conv4_block10_2_conv_1/kernel:0)
  %conv4_block10_concat_1/concat:0 = Concat[axis = 1](%conv4_block9_concat_1/concat:0, %convolution_output106)
  %batch_norm_output_buffer112 = BatchNormalization[epsilon = 1.00099999400527e-08, momentum = 0.990000009536743](%conv4_block10_concat_1/concat:0, %scale112, %bias112, %mean112, %var112)
  %conv4_block11_0_relu_1/Relu:0 = Relu(%batch_norm_output_buffer112)
  %convolution_output111 = Conv[auto_pad = 'VALID', dilations = [1, 1], group = 1, kernel_shape = [1, 1], strides = [1, 1]](%conv4_block11_0_relu_1/Relu:0, %conv4_block11_1_conv_1/kernel:0)
  %batch_norm_output_buffer105 = BatchNormalization[epsilon = 1.00099999400527e-08, momentum = 0.990000009536743](%convolution_output111, %scale105, %bias105, %mean105, %var105)
  %conv4_block11_1_relu_1/Relu:0 = Relu(%batch_norm_output_buffer105)
  %convolution_output104 = Conv[auto_pad = 'NOTSET', dilations = [1, 1], group = 1, kernel_shape = [3, 3], pads = [1, 1, 1, 1], strides = [1, 1]](%conv4_block11_1_relu_1/Relu:0, %conv4_block11_2_conv_1/kernel:0)
  %conv4_block11_concat_1/concat:0 = Concat[axis = 1](%conv4_block10_concat_1/concat:0, %convolution_output104)
  %batch_norm_output_buffer110 = BatchNormalization[epsilon = 1.00099999400527e-08, momentum = 0.990000009536743](%conv4_block11_concat_1/concat:0, %scale110, %bias110, %mean110, %var110)
  %conv4_block12_0_relu_1/Relu:0 = Relu(%batch_norm_output_buffer110)
  %convolution_output109 = Conv[auto_pad = 'VALID', dilations = [1, 1], group = 1, kernel_shape = [1, 1], strides = [1, 1]](%conv4_block12_0_relu_1/Relu:0, %conv4_block12_1_conv_1/kernel:0)
  %batch_norm_output_buffer103 = BatchNormalization[epsilon = 1.00099999400527e-08, momentum = 0.990000009536743](%convolution_output109, %scale103, %bias103, %mean103, %var103)
  %conv4_block12_1_relu_1/Relu:0 = Relu(%batch_norm_output_buffer103)
  %convolution_output102 = Conv[auto_pad = 'NOTSET', dilations = [1, 1], group = 1, kernel_shape = [3, 3], pads = [1, 1, 1, 1], strides = [1, 1]](%conv4_block12_1_relu_1/Relu:0, %conv4_block12_2_conv_1/kernel:0)
  %conv4_block12_concat_1/concat:0 = Concat[axis = 1](%conv4_block11_concat_1/concat:0, %convolution_output102)
  %batch_norm_output_buffer108 = BatchNormalization[epsilon = 1.00099999400527e-08, momentum = 0.990000009536743](%conv4_block12_concat_1/concat:0, %scale108, %bias108, %mean108, %var108)
  %conv4_block13_0_relu_1/Relu:0 = Relu(%batch_norm_output_buffer108)
  %convolution_output107 = Conv[auto_pad = 'VALID', dilations = [1, 1], group = 1, kernel_shape = [1, 1], strides = [1, 1]](%conv4_block13_0_relu_1/Relu:0, %conv4_block13_1_conv_1/kernel:0)
  %batch_norm_output_buffer101 = BatchNormalization[epsilon = 1.00099999400527e-08, momentum = 0.990000009536743](%convolution_output107, %scale101, %bias101, %mean101, %var101)
  %conv4_block13_1_relu_1/Relu:0 = Relu(%batch_norm_output_buffer101)
  %convolution_output100 = Conv[auto_pad = 'NOTSET', dilations = [1, 1], group = 1, kernel_shape = [3, 3], pads = [1, 1, 1, 1], strides = [1, 1]](%conv4_block13_1_relu_1/Relu:0, %conv4_block13_2_conv_1/kernel:0)
  %conv4_block13_concat_1/concat:0 = Concat[axis = 1](%conv4_block12_concat_1/concat:0, %convolution_output100)
  %batch_norm_output_buffer106 = BatchNormalization[epsilon = 1.00099999400527e-08, momentum = 0.990000009536743](%conv4_block13_concat_1/concat:0, %scale106, %bias106, %mean106, %var106)
  %conv4_block14_0_relu_1/Relu:0 = Relu(%batch_norm_output_buffer106)
  %convolution_output105 = Conv[auto_pad = 'VALID', dilations = [1, 1], group = 1, kernel_shape = [1, 1], strides = [1, 1]](%conv4_block14_0_relu_1/Relu:0, %conv4_block14_1_conv_1/kernel:0)
  %batch_norm_output_buffer99 = BatchNormalization[epsilon = 1.00099999400527e-08, momentum = 0.990000009536743](%convolution_output105, %scale99, %bias99, %mean99, %var99)
  %conv4_block14_1_relu_1/Relu:0 = Relu(%batch_norm_output_buffer99)
  %convolution_output98 = Conv[auto_pad = 'NOTSET', dilations = [1, 1], group = 1, kernel_shape = [3, 3], pads = [1, 1, 1, 1], strides = [1, 1]](%conv4_block14_1_relu_1/Relu:0, %conv4_block14_2_conv_1/kernel:0)
  %conv4_block14_concat_1/concat:0 = Concat[axis = 1](%conv4_block13_concat_1/concat:0, %convolution_output98)
  %batch_norm_output_buffer104 = BatchNormalization[epsilon = 1.00099999400527e-08, momentum = 0.990000009536743](%conv4_block14_concat_1/concat:0, %scale104, %bias104, %mean104, %var104)
  %conv4_block15_0_relu_1/Relu:0 = Relu(%batch_norm_output_buffer104)
  %convolution_output103 = Conv[auto_pad = 'VALID', dilations = [1, 1], group = 1, kernel_shape = [1, 1], strides = [1, 1]](%conv4_block15_0_relu_1/Relu:0, %conv4_block15_1_conv_1/kernel:0)
  %batch_norm_output_buffer97 = BatchNormalization[epsilon = 1.00099999400527e-08, momentum = 0.990000009536743](%convolution_output103, %scale97, %bias97, %mean97, %var97)
  %conv4_block15_1_relu_1/Relu:0 = Relu(%batch_norm_output_buffer97)
  %convolution_output96 = Conv[auto_pad = 'NOTSET', dilations = [1, 1], group = 1, kernel_shape = [3, 3], pads = [1, 1, 1, 1], strides = [1, 1]](%conv4_block15_1_relu_1/Relu:0, %conv4_block15_2_conv_1/kernel:0)
  %conv4_block15_concat_1/concat:0 = Concat[axis = 1](%conv4_block14_concat_1/concat:0, %convolution_output96)
  %batch_norm_output_buffer102 = BatchNormalization[epsilon = 1.00099999400527e-08, momentum = 0.990000009536743](%conv4_block15_concat_1/concat:0, %scale102, %bias102, %mean102, %var102)
  %conv4_block16_0_relu_1/Relu:0 = Relu(%batch_norm_output_buffer102)
  %convolution_output101 = Conv[auto_pad = 'VALID', dilations = [1, 1], group = 1, kernel_shape = [1, 1], strides = [1, 1]](%conv4_block16_0_relu_1/Relu:0, %conv4_block16_1_conv_1/kernel:0)
  %batch_norm_output_buffer95 = BatchNormalization[epsilon = 1.00099999400527e-08, momentum = 0.990000009536743](%convolution_output101, %scale95, %bias95, %mean95, %var95)
  %conv4_block16_1_relu_1/Relu:0 = Relu(%batch_norm_output_buffer95)
  %convolution_output94 = Conv[auto_pad = 'NOTSET', dilations = [1, 1], group = 1, kernel_shape = [3, 3], pads = [1, 1, 1, 1], strides = [1, 1]](%conv4_block16_1_relu_1/Relu:0, %conv4_block16_2_conv_1/kernel:0)
  %conv4_block16_concat_1/concat:0 = Concat[axis = 1](%conv4_block15_concat_1/concat:0, %convolution_output94)
  %batch_norm_output_buffer100 = BatchNormalization[epsilon = 1.00099999400527e-08, momentum = 0.990000009536743](%conv4_block16_concat_1/concat:0, %scale100, %bias100, %mean100, %var100)
  %conv4_block17_0_relu_1/Relu:0 = Relu(%batch_norm_output_buffer100)
  %convolution_output99 = Conv[auto_pad = 'VALID', dilations = [1, 1], group = 1, kernel_shape = [1, 1], strides = [1, 1]](%conv4_block17_0_relu_1/Relu:0, %conv4_block17_1_conv_1/kernel:0)
  %batch_norm_output_buffer93 = BatchNormalization[epsilon = 1.00099999400527e-08, momentum = 0.990000009536743](%convolution_output99, %scale93, %bias93, %mean93, %var93)
  %conv4_block17_1_relu_1/Relu:0 = Relu(%batch_norm_output_buffer93)
  %convolution_output92 = Conv[auto_pad = 'NOTSET', dilations = [1, 1], group = 1, kernel_shape = [3, 3], pads = [1, 1, 1, 1], strides = [1, 1]](%conv4_block17_1_relu_1/Relu:0, %conv4_block17_2_conv_1/kernel:0)
  %conv4_block17_concat_1/concat:0 = Concat[axis = 1](%conv4_block16_concat_1/concat:0, %convolution_output92)
  %batch_norm_output_buffer98 = BatchNormalization[epsilon = 1.00099999400527e-08, momentum = 0.990000009536743](%conv4_block17_concat_1/concat:0, %scale98, %bias98, %mean98, %var98)
  %conv4_block18_0_relu_1/Relu:0 = Relu(%batch_norm_output_buffer98)
  %convolution_output97 = Conv[auto_pad = 'VALID', dilations = [1, 1], group = 1, kernel_shape = [1, 1], strides = [1, 1]](%conv4_block18_0_relu_1/Relu:0, %conv4_block18_1_conv_1/kernel:0)
  %batch_norm_output_buffer91 = BatchNormalization[epsilon = 1.00099999400527e-08, momentum = 0.990000009536743](%convolution_output97, %scale91, %bias91, %mean91, %var91)
  %conv4_block18_1_relu_1/Relu:0 = Relu(%batch_norm_output_buffer91)
  %convolution_output90 = Conv[auto_pad = 'NOTSET', dilations = [1, 1], group = 1, kernel_shape = [3, 3], pads = [1, 1, 1, 1], strides = [1, 1]](%conv4_block18_1_relu_1/Relu:0, %conv4_block18_2_conv_1/kernel:0)
  %conv4_block18_concat_1/concat:0 = Concat[axis = 1](%conv4_block17_concat_1/concat:0, %convolution_output90)
  %batch_norm_output_buffer96 = BatchNormalization[epsilon = 1.00099999400527e-08, momentum = 0.990000009536743](%conv4_block18_concat_1/concat:0, %scale96, %bias96, %mean96, %var96)
  %conv4_block19_0_relu_1/Relu:0 = Relu(%batch_norm_output_buffer96)
  %convolution_output95 = Conv[auto_pad = 'VALID', dilations = [1, 1], group = 1, kernel_shape = [1, 1], strides = [1, 1]](%conv4_block19_0_relu_1/Relu:0, %conv4_block19_1_conv_1/kernel:0)
  %batch_norm_output_buffer89 = BatchNormalization[epsilon = 1.00099999400527e-08, momentum = 0.990000009536743](%convolution_output95, %scale89, %bias89, %mean89, %var89)
  %conv4_block19_1_relu_1/Relu:0 = Relu(%batch_norm_output_buffer89)
  %convolution_output88 = Conv[auto_pad = 'NOTSET', dilations = [1, 1], group = 1, kernel_shape = [3, 3], pads = [1, 1, 1, 1], strides = [1, 1]](%conv4_block19_1_relu_1/Relu:0, %conv4_block19_2_conv_1/kernel:0)
  %conv4_block19_concat_1/concat:0 = Concat[axis = 1](%conv4_block18_concat_1/concat:0, %convolution_output88)
  %batch_norm_output_buffer94 = BatchNormalization[epsilon = 1.00099999400527e-08, momentum = 0.990000009536743](%conv4_block19_concat_1/concat:0, %scale94, %bias94, %mean94, %var94)
  %conv4_block20_0_relu_1/Relu:0 = Relu(%batch_norm_output_buffer94)
  %convolution_output93 = Conv[auto_pad = 'VALID', dilations = [1, 1], group = 1, kernel_shape = [1, 1], strides = [1, 1]](%conv4_block20_0_relu_1/Relu:0, %conv4_block20_1_conv_1/kernel:0)
  %batch_norm_output_buffer87 = BatchNormalization[epsilon = 1.00099999400527e-08, momentum = 0.990000009536743](%convolution_output93, %scale87, %bias87, %mean87, %var87)
  %conv4_block20_1_relu_1/Relu:0 = Relu(%batch_norm_output_buffer87)
  %convolution_output86 = Conv[auto_pad = 'NOTSET', dilations = [1, 1], group = 1, kernel_shape = [3, 3], pads = [1, 1, 1, 1], strides = [1, 1]](%conv4_block20_1_relu_1/Relu:0, %conv4_block20_2_conv_1/kernel:0)
  %conv4_block20_concat_1/concat:0 = Concat[axis = 1](%conv4_block19_concat_1/concat:0, %convolution_output86)
  %batch_norm_output_buffer92 = BatchNormalization[epsilon = 1.00099999400527e-08, momentum = 0.990000009536743](%conv4_block20_concat_1/concat:0, %scale92, %bias92, %mean92, %var92)
  %conv4_block21_0_relu_1/Relu:0 = Relu(%batch_norm_output_buffer92)
  %convolution_output91 = Conv[auto_pad = 'VALID', dilations = [1, 1], group = 1, kernel_shape = [1, 1], strides = [1, 1]](%conv4_block21_0_relu_1/Relu:0, %conv4_block21_1_conv_1/kernel:0)
  %batch_norm_output_buffer85 = BatchNormalization[epsilon = 1.00099999400527e-08, momentum = 0.990000009536743](%convolution_output91, %scale85, %bias85, %mean85, %var85)
  %conv4_block21_1_relu_1/Relu:0 = Relu(%batch_norm_output_buffer85)
  %convolution_output84 = Conv[auto_pad = 'NOTSET', dilations = [1, 1], group = 1, kernel_shape = [3, 3], pads = [1, 1, 1, 1], strides = [1, 1]](%conv4_block21_1_relu_1/Relu:0, %conv4_block21_2_conv_1/kernel:0)
  %conv4_block21_concat_1/concat:0 = Concat[axis = 1](%conv4_block20_concat_1/concat:0, %convolution_output84)
  %batch_norm_output_buffer90 = BatchNormalization[epsilon = 1.00099999400527e-08, momentum = 0.990000009536743](%conv4_block21_concat_1/concat:0, %scale90, %bias90, %mean90, %var90)
  %conv4_block22_0_relu_1/Relu:0 = Relu(%batch_norm_output_buffer90)
  %convolution_output89 = Conv[auto_pad = 'VALID', dilations = [1, 1], group = 1, kernel_shape = [1, 1], strides = [1, 1]](%conv4_block22_0_relu_1/Relu:0, %conv4_block22_1_conv_1/kernel:0)
  %batch_norm_output_buffer83 = BatchNormalization[epsilon = 1.00099999400527e-08, momentum = 0.990000009536743](%convolution_output89, %scale83, %bias83, %mean83, %var83)
  %conv4_block22_1_relu_1/Relu:0 = Relu(%batch_norm_output_buffer83)
  %convolution_output82 = Conv[auto_pad = 'NOTSET', dilations = [1, 1], group = 1, kernel_shape = [3, 3], pads = [1, 1, 1, 1], strides = [1, 1]](%conv4_block22_1_relu_1/Relu:0, %conv4_block22_2_conv_1/kernel:0)
  %conv4_block22_concat_1/concat:0 = Concat[axis = 1](%conv4_block21_concat_1/concat:0, %convolution_output82)
  %batch_norm_output_buffer88 = BatchNormalization[epsilon = 1.00099999400527e-08, momentum = 0.990000009536743](%conv4_block22_concat_1/concat:0, %scale88, %bias88, %mean88, %var88)
  %conv4_block23_0_relu_1/Relu:0 = Relu(%batch_norm_output_buffer88)
  %convolution_output87 = Conv[auto_pad = 'VALID', dilations = [1, 1], group = 1, kernel_shape = [1, 1], strides = [1, 1]](%conv4_block23_0_relu_1/Relu:0, %conv4_block23_1_conv_1/kernel:0)
  %batch_norm_output_buffer81 = BatchNormalization[epsilon = 1.00099999400527e-08, momentum = 0.990000009536743](%convolution_output87, %scale81, %bias81, %mean81, %var81)
  %conv4_block23_1_relu_1/Relu:0 = Relu(%batch_norm_output_buffer81)
  %convolution_output80 = Conv[auto_pad = 'NOTSET', dilations = [1, 1], group = 1, kernel_shape = [3, 3], pads = [1, 1, 1, 1], strides = [1, 1]](%conv4_block23_1_relu_1/Relu:0, %conv4_block23_2_conv_1/kernel:0)
  %conv4_block23_concat_1/concat:0 = Concat[axis = 1](%conv4_block22_concat_1/concat:0, %convolution_output80)
  %batch_norm_output_buffer86 = BatchNormalization[epsilon = 1.00099999400527e-08, momentum = 0.990000009536743](%conv4_block23_concat_1/concat:0, %scale86, %bias86, %mean86, %var86)
  %conv4_block24_0_relu_1/Relu:0 = Relu(%batch_norm_output_buffer86)
  %convolution_output85 = Conv[auto_pad = 'VALID', dilations = [1, 1], group = 1, kernel_shape = [1, 1], strides = [1, 1]](%conv4_block24_0_relu_1/Relu:0, %conv4_block24_1_conv_1/kernel:0)
  %batch_norm_output_buffer79 = BatchNormalization[epsilon = 1.00099999400527e-08, momentum = 0.990000009536743](%convolution_output85, %scale79, %bias79, %mean79, %var79)
  %conv4_block24_1_relu_1/Relu:0 = Relu(%batch_norm_output_buffer79)
  %convolution_output78 = Conv[auto_pad = 'NOTSET', dilations = [1, 1], group = 1, kernel_shape = [3, 3], pads = [1, 1, 1, 1], strides = [1, 1]](%conv4_block24_1_relu_1/Relu:0, %conv4_block24_2_conv_1/kernel:0)
  %conv4_block24_concat_1/concat:0 = Concat[axis = 1](%conv4_block23_concat_1/concat:0, %convolution_output78)
  %batch_norm_output_buffer84 = BatchNormalization[epsilon = 1.00099999400527e-08, momentum = 0.990000009536743](%conv4_block24_concat_1/concat:0, %scale84, %bias84, %mean84, %var84)
  %conv4_block25_0_relu/Relu:0 = Relu(%batch_norm_output_buffer84)
  %convolution_output83 = Conv[auto_pad = 'VALID', dilations = [1, 1], group = 1, kernel_shape = [1, 1], strides = [1, 1]](%conv4_block25_0_relu/Relu:0, %conv4_block25_1_conv/kernel:0)
  %batch_norm_output_buffer77 = BatchNormalization[epsilon = 1.00099999400527e-08, momentum = 0.990000009536743](%convolution_output83, %scale77, %bias77, %mean77, %var77)
  %conv4_block25_1_relu/Relu:0 = Relu(%batch_norm_output_buffer77)
  %convolution_output76 = Conv[auto_pad = 'NOTSET', dilations = [1, 1], group = 1, kernel_shape = [3, 3], pads = [1, 1, 1, 1], strides = [1, 1]](%conv4_block25_1_relu/Relu:0, %conv4_block25_2_conv/kernel:0)
  %conv4_block25_concat/concat:0 = Concat[axis = 1](%conv4_block24_concat_1/concat:0, %convolution_output76)
  %batch_norm_output_buffer82 = BatchNormalization[epsilon = 1.00099999400527e-08, momentum = 0.990000009536743](%conv4_block25_concat/concat:0, %scale82, %bias82, %mean82, %var82)
  %conv4_block26_0_relu/Relu:0 = Relu(%batch_norm_output_buffer82)
  %convolution_output81 = Conv[auto_pad = 'VALID', dilations = [1, 1], group = 1, kernel_shape = [1, 1], strides = [1, 1]](%conv4_block26_0_relu/Relu:0, %conv4_block26_1_conv/kernel:0)
  %batch_norm_output_buffer75 = BatchNormalization[epsilon = 1.00099999400527e-08, momentum = 0.990000009536743](%convolution_output81, %scale75, %bias75, %mean75, %var75)
  %conv4_block26_1_relu/Relu:0 = Relu(%batch_norm_output_buffer75)
  %convolution_output74 = Conv[auto_pad = 'NOTSET', dilations = [1, 1], group = 1, kernel_shape = [3, 3], pads = [1, 1, 1, 1], strides = [1, 1]](%conv4_block26_1_relu/Relu:0, %conv4_block26_2_conv/kernel:0)
  %conv4_block26_concat/concat:0 = Concat[axis = 1](%conv4_block25_concat/concat:0, %convolution_output74)
  %batch_norm_output_buffer80 = BatchNormalization[epsilon = 1.00099999400527e-08, momentum = 0.990000009536743](%conv4_block26_concat/concat:0, %scale80, %bias80, %mean80, %var80)
  %conv4_block27_0_relu/Relu:0 = Relu(%batch_norm_output_buffer80)
  %convolution_output79 = Conv[auto_pad = 'VALID', dilations = [1, 1], group = 1, kernel_shape = [1, 1], strides = [1, 1]](%conv4_block27_0_relu/Relu:0, %conv4_block27_1_conv/kernel:0)
  %batch_norm_output_buffer73 = BatchNormalization[epsilon = 1.00099999400527e-08, momentum = 0.990000009536743](%convolution_output79, %scale73, %bias73, %mean73, %var73)
  %conv4_block27_1_relu/Relu:0 = Relu(%batch_norm_output_buffer73)
  %convolution_output72 = Conv[auto_pad = 'NOTSET', dilations = [1, 1], group = 1, kernel_shape = [3, 3], pads = [1, 1, 1, 1], strides = [1, 1]](%conv4_block27_1_relu/Relu:0, %conv4_block27_2_conv/kernel:0)
  %conv4_block27_concat/concat:0 = Concat[axis = 1](%conv4_block26_concat/concat:0, %convolution_output72)
  %batch_norm_output_buffer78 = BatchNormalization[epsilon = 1.00099999400527e-08, momentum = 0.990000009536743](%conv4_block27_concat/concat:0, %scale78, %bias78, %mean78, %var78)
  %conv4_block28_0_relu/Relu:0 = Relu(%batch_norm_output_buffer78)
  %convolution_output77 = Conv[auto_pad = 'VALID', dilations = [1, 1], group = 1, kernel_shape = [1, 1], strides = [1, 1]](%conv4_block28_0_relu/Relu:0, %conv4_block28_1_conv/kernel:0)
  %batch_norm_output_buffer71 = BatchNormalization[epsilon = 1.00099999400527e-08, momentum = 0.990000009536743](%convolution_output77, %scale71, %bias71, %mean71, %var71)
  %conv4_block28_1_relu/Relu:0 = Relu(%batch_norm_output_buffer71)
  %convolution_output70 = Conv[auto_pad = 'NOTSET', dilations = [1, 1], group = 1, kernel_shape = [3, 3], pads = [1, 1, 1, 1], strides = [1, 1]](%conv4_block28_1_relu/Relu:0, %conv4_block28_2_conv/kernel:0)
  %conv4_block28_concat/concat:0 = Concat[axis = 1](%conv4_block27_concat/concat:0, %convolution_output70)
  %batch_norm_output_buffer76 = BatchNormalization[epsilon = 1.00099999400527e-08, momentum = 0.990000009536743](%conv4_block28_concat/concat:0, %scale76, %bias76, %mean76, %var76)
  %conv4_block29_0_relu/Relu:0 = Relu(%batch_norm_output_buffer76)
  %convolution_output75 = Conv[auto_pad = 'VALID', dilations = [1, 1], group = 1, kernel_shape = [1, 1], strides = [1, 1]](%conv4_block29_0_relu/Relu:0, %conv4_block29_1_conv/kernel:0)
  %batch_norm_output_buffer69 = BatchNormalization[epsilon = 1.00099999400527e-08, momentum = 0.990000009536743](%convolution_output75, %scale69, %bias69, %mean69, %var69)
  %conv4_block29_1_relu/Relu:0 = Relu(%batch_norm_output_buffer69)
  %convolution_output68 = Conv[auto_pad = 'NOTSET', dilations = [1, 1], group = 1, kernel_shape = [3, 3], pads = [1, 1, 1, 1], strides = [1, 1]](%conv4_block29_1_relu/Relu:0, %conv4_block29_2_conv/kernel:0)
  %conv4_block29_concat/concat:0 = Concat[axis = 1](%conv4_block28_concat/concat:0, %convolution_output68)
  %batch_norm_output_buffer74 = BatchNormalization[epsilon = 1.00099999400527e-08, momentum = 0.990000009536743](%conv4_block29_concat/concat:0, %scale74, %bias74, %mean74, %var74)
  %conv4_block30_0_relu/Relu:0 = Relu(%batch_norm_output_buffer74)
  %convolution_output73 = Conv[auto_pad = 'VALID', dilations = [1, 1], group = 1, kernel_shape = [1, 1], strides = [1, 1]](%conv4_block30_0_relu/Relu:0, %conv4_block30_1_conv/kernel:0)
  %batch_norm_output_buffer68 = BatchNormalization[epsilon = 1.00099999400527e-08, momentum = 0.990000009536743](%convolution_output73, %scale68, %bias68, %mean68, %var68)
  %conv4_block30_1_relu/Relu:0 = Relu(%batch_norm_output_buffer68)
  %convolution_output67 = Conv[auto_pad = 'NOTSET', dilations = [1, 1], group = 1, kernel_shape = [3, 3], pads = [1, 1, 1, 1], strides = [1, 1]](%conv4_block30_1_relu/Relu:0, %conv4_block30_2_conv/kernel:0)
  %conv4_block30_concat/concat:0 = Concat[axis = 1](%conv4_block29_concat/concat:0, %convolution_output67)
  %batch_norm_output_buffer72 = BatchNormalization[epsilon = 1.00099999400527e-08, momentum = 0.990000009536743](%conv4_block30_concat/concat:0, %scale72, %bias72, %mean72, %var72)
  %conv4_block31_0_relu/Relu:0 = Relu(%batch_norm_output_buffer72)
  %convolution_output71 = Conv[auto_pad = 'VALID', dilations = [1, 1], group = 1, kernel_shape = [1, 1], strides = [1, 1]](%conv4_block31_0_relu/Relu:0, %conv4_block31_1_conv/kernel:0)
  %batch_norm_output_buffer67 = BatchNormalization[epsilon = 1.00099999400527e-08, momentum = 0.990000009536743](%convolution_output71, %scale67, %bias67, %mean67, %var67)
  %conv4_block31_1_relu/Relu:0 = Relu(%batch_norm_output_buffer67)
  %convolution_output66 = Conv[auto_pad = 'NOTSET', dilations = [1, 1], group = 1, kernel_shape = [3, 3], pads = [1, 1, 1, 1], strides = [1, 1]](%conv4_block31_1_relu/Relu:0, %conv4_block31_2_conv/kernel:0)
  %conv4_block31_concat/concat:0 = Concat[axis = 1](%conv4_block30_concat/concat:0, %convolution_output66)
  %batch_norm_output_buffer70 = BatchNormalization[epsilon = 1.00099999400527e-08, momentum = 0.990000009536743](%conv4_block31_concat/concat:0, %scale70, %bias70, %mean70, %var70)
  %conv4_block32_0_relu/Relu:0 = Relu(%batch_norm_output_buffer70)
  %convolution_output69 = Conv[auto_pad = 'VALID', dilations = [1, 1], group = 1, kernel_shape = [1, 1], strides = [1, 1]](%conv4_block32_0_relu/Relu:0, %conv4_block32_1_conv/kernel:0)
  %batch_norm_output_buffer66 = BatchNormalization[epsilon = 1.00099999400527e-08, momentum = 0.990000009536743](%convolution_output69, %scale66, %bias66, %mean66, %var66)
  %conv4_block32_1_relu/Relu:0 = Relu(%batch_norm_output_buffer66)
  %convolution_output65 = Conv[auto_pad = 'NOTSET', dilations = [1, 1], group = 1, kernel_shape = [3, 3], pads = [1, 1, 1, 1], strides = [1, 1]](%conv4_block32_1_relu/Relu:0, %conv4_block32_2_conv/kernel:0)
  %conv4_block32_concat/concat:0 = Concat[axis = 1](%conv4_block31_concat/concat:0, %convolution_output65)
  %batch_norm_output_buffer62 = BatchNormalization[epsilon = 1.00099999400527e-08, momentum = 0.990000009536743](%conv4_block32_concat/concat:0, %scale62, %bias62, %mean62, %var62)
  %pool4_relu_1/Relu:0 = Relu(%batch_norm_output_buffer62)
  %convolution_output61 = Conv[auto_pad = 'VALID', dilations = [1, 1], group = 1, kernel_shape = [1, 1], strides = [1, 1]](%pool4_relu_1/Relu:0, %pool4_conv_1/kernel:0)
  %pool4_conv_1/convolution:0_pooling0 = AveragePool[auto_pad = 'VALID', ceil_mode = 0, kernel_shape = [2, 2], strides = [2, 2]](%convolution_output61)
  %pool4_pool_1/AvgPool:0 = Identity(%pool4_conv_1/convolution:0_pooling0)
  %batch_norm_output_buffer65 = BatchNormalization[epsilon = 1.00099999400527e-08, momentum = 0.990000009536743](%pool4_pool_1/AvgPool:0, %scale65, %bias65, %mean65, %var65)
  %conv5_block1_0_relu_1/Relu:0 = Relu(%batch_norm_output_buffer65)
  %convolution_output64 = Conv[auto_pad = 'VALID', dilations = [1, 1], group = 1, kernel_shape = [1, 1], strides = [1, 1]](%conv5_block1_0_relu_1/Relu:0, %conv5_block1_1_conv_1/kernel:0)
  %batch_norm_output_buffer60 = BatchNormalization[epsilon = 1.00099999400527e-08, momentum = 0.990000009536743](%convolution_output64, %scale60, %bias60, %mean60, %var60)
  %conv5_block1_1_relu_1/Relu:0 = Relu(%batch_norm_output_buffer60)
  %convolution_output59 = Conv[auto_pad = 'NOTSET', dilations = [1, 1], group = 1, kernel_shape = [3, 3], pads = [1, 1, 1, 1], strides = [1, 1]](%conv5_block1_1_relu_1/Relu:0, %conv5_block1_2_conv_1/kernel:0)
  %conv5_block1_concat_1/concat:0 = Concat[axis = 1](%pool4_pool_1/AvgPool:0, %convolution_output59)
  %batch_norm_output_buffer64 = BatchNormalization[epsilon = 1.00099999400527e-08, momentum = 0.990000009536743](%conv5_block1_concat_1/concat:0, %scale64, %bias64, %mean64, %var64)
  %conv5_block2_0_relu_1/Relu:0 = Relu(%batch_norm_output_buffer64)
  %convolution_output63 = Conv[auto_pad = 'VALID', dilations = [1, 1], group = 1, kernel_shape = [1, 1], strides = [1, 1]](%conv5_block2_0_relu_1/Relu:0, %conv5_block2_1_conv_1/kernel:0)
  %batch_norm_output_buffer58 = BatchNormalization[epsilon = 1.00099999400527e-08, momentum = 0.990000009536743](%convolution_output63, %scale58, %bias58, %mean58, %var58)
  %conv5_block2_1_relu_1/Relu:0 = Relu(%batch_norm_output_buffer58)
  %convolution_output57 = Conv[auto_pad = 'NOTSET', dilations = [1, 1], group = 1, kernel_shape = [3, 3], pads = [1, 1, 1, 1], strides = [1, 1]](%conv5_block2_1_relu_1/Relu:0, %conv5_block2_2_conv_1/kernel:0)
  %conv5_block2_concat_1/concat:0 = Concat[axis = 1](%conv5_block1_concat_1/concat:0, %convolution_output57)
  %batch_norm_output_buffer63 = BatchNormalization[epsilon = 1.00099999400527e-08, momentum = 0.990000009536743](%conv5_block2_concat_1/concat:0, %scale63, %bias63, %mean63, %var63)
  %conv5_block3_0_relu_1/Relu:0 = Relu(%batch_norm_output_buffer63)
  %convolution_output62 = Conv[auto_pad = 'VALID', dilations = [1, 1], group = 1, kernel_shape = [1, 1], strides = [1, 1]](%conv5_block3_0_relu_1/Relu:0, %conv5_block3_1_conv_1/kernel:0)
  %batch_norm_output_buffer56 = BatchNormalization[epsilon = 1.00099999400527e-08, momentum = 0.990000009536743](%convolution_output62, %scale56, %bias56, %mean56, %var56)
  %conv5_block3_1_relu_1/Relu:0 = Relu(%batch_norm_output_buffer56)
  %convolution_output55 = Conv[auto_pad = 'NOTSET', dilations = [1, 1], group = 1, kernel_shape = [3, 3], pads = [1, 1, 1, 1], strides = [1, 1]](%conv5_block3_1_relu_1/Relu:0, %conv5_block3_2_conv_1/kernel:0)
  %conv5_block3_concat_1/concat:0 = Concat[axis = 1](%conv5_block2_concat_1/concat:0, %convolution_output55)
  %batch_norm_output_buffer61 = BatchNormalization[epsilon = 1.00099999400527e-08, momentum = 0.990000009536743](%conv5_block3_concat_1/concat:0, %scale61, %bias61, %mean61, %var61)
  %conv5_block4_0_relu_1/Relu:0 = Relu(%batch_norm_output_buffer61)
  %convolution_output60 = Conv[auto_pad = 'VALID', dilations = [1, 1], group = 1, kernel_shape = [1, 1], strides = [1, 1]](%conv5_block4_0_relu_1/Relu:0, %conv5_block4_1_conv_1/kernel:0)
  %batch_norm_output_buffer54 = BatchNormalization[epsilon = 1.00099999400527e-08, momentum = 0.990000009536743](%convolution_output60, %scale54, %bias54, %mean54, %var54)
  %conv5_block4_1_relu_1/Relu:0 = Relu(%batch_norm_output_buffer54)
  %convolution_output53 = Conv[auto_pad = 'NOTSET', dilations = [1, 1], group = 1, kernel_shape = [3, 3], pads = [1, 1, 1, 1], strides = [1, 1]](%conv5_block4_1_relu_1/Relu:0, %conv5_block4_2_conv_1/kernel:0)
  %conv5_block4_concat_1/concat:0 = Concat[axis = 1](%conv5_block3_concat_1/concat:0, %convolution_output53)
  %batch_norm_output_buffer59 = BatchNormalization[epsilon = 1.00099999400527e-08, momentum = 0.990000009536743](%conv5_block4_concat_1/concat:0, %scale59, %bias59, %mean59, %var59)
  %conv5_block5_0_relu_1/Relu:0 = Relu(%batch_norm_output_buffer59)
  %convolution_output58 = Conv[auto_pad = 'VALID', dilations = [1, 1], group = 1, kernel_shape = [1, 1], strides = [1, 1]](%conv5_block5_0_relu_1/Relu:0, %conv5_block5_1_conv_1/kernel:0)
  %batch_norm_output_buffer52 = BatchNormalization[epsilon = 1.00099999400527e-08, momentum = 0.990000009536743](%convolution_output58, %scale52, %bias52, %mean52, %var52)
  %conv5_block5_1_relu_1/Relu:0 = Relu(%batch_norm_output_buffer52)
  %convolution_output51 = Conv[auto_pad = 'NOTSET', dilations = [1, 1], group = 1, kernel_shape = [3, 3], pads = [1, 1, 1, 1], strides = [1, 1]](%conv5_block5_1_relu_1/Relu:0, %conv5_block5_2_conv_1/kernel:0)
  %conv5_block5_concat_1/concat:0 = Concat[axis = 1](%conv5_block4_concat_1/concat:0, %convolution_output51)
  %batch_norm_output_buffer57 = BatchNormalization[epsilon = 1.00099999400527e-08, momentum = 0.990000009536743](%conv5_block5_concat_1/concat:0, %scale57, %bias57, %mean57, %var57)
  %conv5_block6_0_relu_1/Relu:0 = Relu(%batch_norm_output_buffer57)
  %convolution_output56 = Conv[auto_pad = 'VALID', dilations = [1, 1], group = 1, kernel_shape = [1, 1], strides = [1, 1]](%conv5_block6_0_relu_1/Relu:0, %conv5_block6_1_conv_1/kernel:0)
  %batch_norm_output_buffer50 = BatchNormalization[epsilon = 1.00099999400527e-08, momentum = 0.990000009536743](%convolution_output56, %scale50, %bias50, %mean50, %var50)
  %conv5_block6_1_relu_1/Relu:0 = Relu(%batch_norm_output_buffer50)
  %convolution_output49 = Conv[auto_pad = 'NOTSET', dilations = [1, 1], group = 1, kernel_shape = [3, 3], pads = [1, 1, 1, 1], strides = [1, 1]](%conv5_block6_1_relu_1/Relu:0, %conv5_block6_2_conv_1/kernel:0)
  %conv5_block6_concat_1/concat:0 = Concat[axis = 1](%conv5_block5_concat_1/concat:0, %convolution_output49)
  %batch_norm_output_buffer55 = BatchNormalization[epsilon = 1.00099999400527e-08, momentum = 0.990000009536743](%conv5_block6_concat_1/concat:0, %scale55, %bias55, %mean55, %var55)
  %conv5_block7_0_relu_1/Relu:0 = Relu(%batch_norm_output_buffer55)
  %convolution_output54 = Conv[auto_pad = 'VALID', dilations = [1, 1], group = 1, kernel_shape = [1, 1], strides = [1, 1]](%conv5_block7_0_relu_1/Relu:0, %conv5_block7_1_conv_1/kernel:0)
  %batch_norm_output_buffer48 = BatchNormalization[epsilon = 1.00099999400527e-08, momentum = 0.990000009536743](%convolution_output54, %scale48, %bias48, %mean48, %var48)
  %conv5_block7_1_relu_1/Relu:0 = Relu(%batch_norm_output_buffer48)
  %convolution_output47 = Conv[auto_pad = 'NOTSET', dilations = [1, 1], group = 1, kernel_shape = [3, 3], pads = [1, 1, 1, 1], strides = [1, 1]](%conv5_block7_1_relu_1/Relu:0, %conv5_block7_2_conv_1/kernel:0)
  %conv5_block7_concat_1/concat:0 = Concat[axis = 1](%conv5_block6_concat_1/concat:0, %convolution_output47)
  %batch_norm_output_buffer53 = BatchNormalization[epsilon = 1.00099999400527e-08, momentum = 0.990000009536743](%conv5_block7_concat_1/concat:0, %scale53, %bias53, %mean53, %var53)
  %conv5_block8_0_relu_1/Relu:0 = Relu(%batch_norm_output_buffer53)
  %convolution_output52 = Conv[auto_pad = 'VALID', dilations = [1, 1], group = 1, kernel_shape = [1, 1], strides = [1, 1]](%conv5_block8_0_relu_1/Relu:0, %conv5_block8_1_conv_1/kernel:0)
  %batch_norm_output_buffer46 = BatchNormalization[epsilon = 1.00099999400527e-08, momentum = 0.990000009536743](%convolution_output52, %scale46, %bias46, %mean46, %var46)
  %conv5_block8_1_relu_1/Relu:0 = Relu(%batch_norm_output_buffer46)
  %convolution_output45 = Conv[auto_pad = 'NOTSET', dilations = [1, 1], group = 1, kernel_shape = [3, 3], pads = [1, 1, 1, 1], strides = [1, 1]](%conv5_block8_1_relu_1/Relu:0, %conv5_block8_2_conv_1/kernel:0)
  %conv5_block8_concat_1/concat:0 = Concat[axis = 1](%conv5_block7_concat_1/concat:0, %convolution_output45)
  %batch_norm_output_buffer51 = BatchNormalization[epsilon = 1.00099999400527e-08, momentum = 0.990000009536743](%conv5_block8_concat_1/concat:0, %scale51, %bias51, %mean51, %var51)
  %conv5_block9_0_relu_1/Relu:0 = Relu(%batch_norm_output_buffer51)
  %convolution_output50 = Conv[auto_pad = 'VALID', dilations = [1, 1], group = 1, kernel_shape = [1, 1], strides = [1, 1]](%conv5_block9_0_relu_1/Relu:0, %conv5_block9_1_conv_1/kernel:0)
  %batch_norm_output_buffer44 = BatchNormalization[epsilon = 1.00099999400527e-08, momentum = 0.990000009536743](%convolution_output50, %scale44, %bias44, %mean44, %var44)
  %conv5_block9_1_relu_1/Relu:0 = Relu(%batch_norm_output_buffer44)
  %convolution_output43 = Conv[auto_pad = 'NOTSET', dilations = [1, 1], group = 1, kernel_shape = [3, 3], pads = [1, 1, 1, 1], strides = [1, 1]](%conv5_block9_1_relu_1/Relu:0, %conv5_block9_2_conv_1/kernel:0)
  %conv5_block9_concat_1/concat:0 = Concat[axis = 1](%conv5_block8_concat_1/concat:0, %convolution_output43)
  %batch_norm_output_buffer49 = BatchNormalization[epsilon = 1.00099999400527e-08, momentum = 0.990000009536743](%conv5_block9_concat_1/concat:0, %scale49, %bias49, %mean49, %var49)
  %conv5_block10_0_relu_1/Relu:0 = Relu(%batch_norm_output_buffer49)
  %convolution_output48 = Conv[auto_pad = 'VALID', dilations = [1, 1], group = 1, kernel_shape = [1, 1], strides = [1, 1]](%conv5_block10_0_relu_1/Relu:0, %conv5_block10_1_conv_1/kernel:0)
  %batch_norm_output_buffer42 = BatchNormalization[epsilon = 1.00099999400527e-08, momentum = 0.990000009536743](%convolution_output48, %scale42, %bias42, %mean42, %var42)
  %conv5_block10_1_relu_1/Relu:0 = Relu(%batch_norm_output_buffer42)
  %convolution_output41 = Conv[auto_pad = 'NOTSET', dilations = [1, 1], group = 1, kernel_shape = [3, 3], pads = [1, 1, 1, 1], strides = [1, 1]](%conv5_block10_1_relu_1/Relu:0, %conv5_block10_2_conv_1/kernel:0)
  %conv5_block10_concat_1/concat:0 = Concat[axis = 1](%conv5_block9_concat_1/concat:0, %convolution_output41)
  %batch_norm_output_buffer47 = BatchNormalization[epsilon = 1.00099999400527e-08, momentum = 0.990000009536743](%conv5_block10_concat_1/concat:0, %scale47, %bias47, %mean47, %var47)
  %conv5_block11_0_relu_1/Relu:0 = Relu(%batch_norm_output_buffer47)
  %convolution_output46 = Conv[auto_pad = 'VALID', dilations = [1, 1], group = 1, kernel_shape = [1, 1], strides = [1, 1]](%conv5_block11_0_relu_1/Relu:0, %conv5_block11_1_conv_1/kernel:0)
  %batch_norm_output_buffer40 = BatchNormalization[epsilon = 1.00099999400527e-08, momentum = 0.990000009536743](%convolution_output46, %scale40, %bias40, %mean40, %var40)
  %conv5_block11_1_relu_1/Relu:0 = Relu(%batch_norm_output_buffer40)
  %convolution_output39 = Conv[auto_pad = 'NOTSET', dilations = [1, 1], group = 1, kernel_shape = [3, 3], pads = [1, 1, 1, 1], strides = [1, 1]](%conv5_block11_1_relu_1/Relu:0, %conv5_block11_2_conv_1/kernel:0)
  %conv5_block11_concat_1/concat:0 = Concat[axis = 1](%conv5_block10_concat_1/concat:0, %convolution_output39)
  %batch_norm_output_buffer45 = BatchNormalization[epsilon = 1.00099999400527e-08, momentum = 0.990000009536743](%conv5_block11_concat_1/concat:0, %scale45, %bias45, %mean45, %var45)
  %conv5_block12_0_relu_1/Relu:0 = Relu(%batch_norm_output_buffer45)
  %convolution_output44 = Conv[auto_pad = 'VALID', dilations = [1, 1], group = 1, kernel_shape = [1, 1], strides = [1, 1]](%conv5_block12_0_relu_1/Relu:0, %conv5_block12_1_conv_1/kernel:0)
  %batch_norm_output_buffer38 = BatchNormalization[epsilon = 1.00099999400527e-08, momentum = 0.990000009536743](%convolution_output44, %scale38, %bias38, %mean38, %var38)
  %conv5_block12_1_relu_1/Relu:0 = Relu(%batch_norm_output_buffer38)
  %convolution_output37 = Conv[auto_pad = 'NOTSET', dilations = [1, 1], group = 1, kernel_shape = [3, 3], pads = [1, 1, 1, 1], strides = [1, 1]](%conv5_block12_1_relu_1/Relu:0, %conv5_block12_2_conv_1/kernel:0)
  %conv5_block12_concat_1/concat:0 = Concat[axis = 1](%conv5_block11_concat_1/concat:0, %convolution_output37)
  %batch_norm_output_buffer43 = BatchNormalization[epsilon = 1.00099999400527e-08, momentum = 0.990000009536743](%conv5_block12_concat_1/concat:0, %scale43, %bias43, %mean43, %var43)
  %conv5_block13_0_relu_1/Relu:0 = Relu(%batch_norm_output_buffer43)
  %convolution_output42 = Conv[auto_pad = 'VALID', dilations = [1, 1], group = 1, kernel_shape = [1, 1], strides = [1, 1]](%conv5_block13_0_relu_1/Relu:0, %conv5_block13_1_conv_1/kernel:0)
  %batch_norm_output_buffer36 = BatchNormalization[epsilon = 1.00099999400527e-08, momentum = 0.990000009536743](%convolution_output42, %scale36, %bias36, %mean36, %var36)
  %conv5_block13_1_relu_1/Relu:0 = Relu(%batch_norm_output_buffer36)
  %convolution_output35 = Conv[auto_pad = 'NOTSET', dilations = [1, 1], group = 1, kernel_shape = [3, 3], pads = [1, 1, 1, 1], strides = [1, 1]](%conv5_block13_1_relu_1/Relu:0, %conv5_block13_2_conv_1/kernel:0)
  %conv5_block13_concat_1/concat:0 = Concat[axis = 1](%conv5_block12_concat_1/concat:0, %convolution_output35)
  %batch_norm_output_buffer41 = BatchNormalization[epsilon = 1.00099999400527e-08, momentum = 0.990000009536743](%conv5_block13_concat_1/concat:0, %scale41, %bias41, %mean41, %var41)
  %conv5_block14_0_relu_1/Relu:0 = Relu(%batch_norm_output_buffer41)
  %convolution_output40 = Conv[auto_pad = 'VALID', dilations = [1, 1], group = 1, kernel_shape = [1, 1], strides = [1, 1]](%conv5_block14_0_relu_1/Relu:0, %conv5_block14_1_conv_1/kernel:0)
  %batch_norm_output_buffer34 = BatchNormalization[epsilon = 1.00099999400527e-08, momentum = 0.990000009536743](%convolution_output40, %scale34, %bias34, %mean34, %var34)
  %conv5_block14_1_relu_1/Relu:0 = Relu(%batch_norm_output_buffer34)
  %convolution_output33 = Conv[auto_pad = 'NOTSET', dilations = [1, 1], group = 1, kernel_shape = [3, 3], pads = [1, 1, 1, 1], strides = [1, 1]](%conv5_block14_1_relu_1/Relu:0, %conv5_block14_2_conv_1/kernel:0)
  %conv5_block14_concat_1/concat:0 = Concat[axis = 1](%conv5_block13_concat_1/concat:0, %convolution_output33)
  %batch_norm_output_buffer39 = BatchNormalization[epsilon = 1.00099999400527e-08, momentum = 0.990000009536743](%conv5_block14_concat_1/concat:0, %scale39, %bias39, %mean39, %var39)
  %conv5_block15_0_relu_1/Relu:0 = Relu(%batch_norm_output_buffer39)
  %convolution_output38 = Conv[auto_pad = 'VALID', dilations = [1, 1], group = 1, kernel_shape = [1, 1], strides = [1, 1]](%conv5_block15_0_relu_1/Relu:0, %conv5_block15_1_conv_1/kernel:0)
  %batch_norm_output_buffer32 = BatchNormalization[epsilon = 1.00099999400527e-08, momentum = 0.990000009536743](%convolution_output38, %scale32, %bias32, %mean32, %var32)
  %conv5_block15_1_relu_1/Relu:0 = Relu(%batch_norm_output_buffer32)
  %convolution_output31 = Conv[auto_pad = 'NOTSET', dilations = [1, 1], group = 1, kernel_shape = [3, 3], pads = [1, 1, 1, 1], strides = [1, 1]](%conv5_block15_1_relu_1/Relu:0, %conv5_block15_2_conv_1/kernel:0)
  %conv5_block15_concat_1/concat:0 = Concat[axis = 1](%conv5_block14_concat_1/concat:0, %convolution_output31)
  %batch_norm_output_buffer37 = BatchNormalization[epsilon = 1.00099999400527e-08, momentum = 0.990000009536743](%conv5_block15_concat_1/concat:0, %scale37, %bias37, %mean37, %var37)
  %conv5_block16_0_relu_1/Relu:0 = Relu(%batch_norm_output_buffer37)
  %convolution_output36 = Conv[auto_pad = 'VALID', dilations = [1, 1], group = 1, kernel_shape = [1, 1], strides = [1, 1]](%conv5_block16_0_relu_1/Relu:0, %conv5_block16_1_conv_1/kernel:0)
  %batch_norm_output_buffer30 = BatchNormalization[epsilon = 1.00099999400527e-08, momentum = 0.990000009536743](%convolution_output36, %scale30, %bias30, %mean30, %var30)
  %conv5_block16_1_relu_1/Relu:0 = Relu(%batch_norm_output_buffer30)
  %convolution_output29 = Conv[auto_pad = 'NOTSET', dilations = [1, 1], group = 1, kernel_shape = [3, 3], pads = [1, 1, 1, 1], strides = [1, 1]](%conv5_block16_1_relu_1/Relu:0, %conv5_block16_2_conv_1/kernel:0)
  %conv5_block16_concat_1/concat:0 = Concat[axis = 1](%conv5_block15_concat_1/concat:0, %convolution_output29)
  %batch_norm_output_buffer35 = BatchNormalization[epsilon = 1.00099999400527e-08, momentum = 0.990000009536743](%conv5_block16_concat_1/concat:0, %scale35, %bias35, %mean35, %var35)
  %conv5_block17_0_relu/Relu:0 = Relu(%batch_norm_output_buffer35)
  %convolution_output34 = Conv[auto_pad = 'VALID', dilations = [1, 1], group = 1, kernel_shape = [1, 1], strides = [1, 1]](%conv5_block17_0_relu/Relu:0, %conv5_block17_1_conv/kernel:0)
  %batch_norm_output_buffer28 = BatchNormalization[epsilon = 1.00099999400527e-08, momentum = 0.990000009536743](%convolution_output34, %scale28, %bias28, %mean28, %var28)
  %conv5_block17_1_relu/Relu:0 = Relu(%batch_norm_output_buffer28)
  %convolution_output27 = Conv[auto_pad = 'NOTSET', dilations = [1, 1], group = 1, kernel_shape = [3, 3], pads = [1, 1, 1, 1], strides = [1, 1]](%conv5_block17_1_relu/Relu:0, %conv5_block17_2_conv/kernel:0)
  %conv5_block17_concat/concat:0 = Concat[axis = 1](%conv5_block16_concat_1/concat:0, %convolution_output27)
  %batch_norm_output_buffer33 = BatchNormalization[epsilon = 1.00099999400527e-08, momentum = 0.990000009536743](%conv5_block17_concat/concat:0, %scale33, %bias33, %mean33, %var33)
  %conv5_block18_0_relu/Relu:0 = Relu(%batch_norm_output_buffer33)
  %convolution_output32 = Conv[auto_pad = 'VALID', dilations = [1, 1], group = 1, kernel_shape = [1, 1], strides = [1, 1]](%conv5_block18_0_relu/Relu:0, %conv5_block18_1_conv/kernel:0)
  %batch_norm_output_buffer26 = BatchNormalization[epsilon = 1.00099999400527e-08, momentum = 0.990000009536743](%convolution_output32, %scale26, %bias26, %mean26, %var26)
  %conv5_block18_1_relu/Relu:0 = Relu(%batch_norm_output_buffer26)
  %convolution_output25 = Conv[auto_pad = 'NOTSET', dilations = [1, 1], group = 1, kernel_shape = [3, 3], pads = [1, 1, 1, 1], strides = [1, 1]](%conv5_block18_1_relu/Relu:0, %conv5_block18_2_conv/kernel:0)
  %conv5_block18_concat/concat:0 = Concat[axis = 1](%conv5_block17_concat/concat:0, %convolution_output25)
  %batch_norm_output_buffer31 = BatchNormalization[epsilon = 1.00099999400527e-08, momentum = 0.990000009536743](%conv5_block18_concat/concat:0, %scale31, %bias31, %mean31, %var31)
  %conv5_block19_0_relu/Relu:0 = Relu(%batch_norm_output_buffer31)
  %convolution_output30 = Conv[auto_pad = 'VALID', dilations = [1, 1], group = 1, kernel_shape = [1, 1], strides = [1, 1]](%conv5_block19_0_relu/Relu:0, %conv5_block19_1_conv/kernel:0)
  %batch_norm_output_buffer24 = BatchNormalization[epsilon = 1.00099999400527e-08, momentum = 0.990000009536743](%convolution_output30, %scale24, %bias24, %mean24, %var24)
  %conv5_block19_1_relu/Relu:0 = Relu(%batch_norm_output_buffer24)
  %convolution_output23 = Conv[auto_pad = 'NOTSET', dilations = [1, 1], group = 1, kernel_shape = [3, 3], pads = [1, 1, 1, 1], strides = [1, 1]](%conv5_block19_1_relu/Relu:0, %conv5_block19_2_conv/kernel:0)
  %conv5_block19_concat/concat:0 = Concat[axis = 1](%conv5_block18_concat/concat:0, %convolution_output23)
  %batch_norm_output_buffer29 = BatchNormalization[epsilon = 1.00099999400527e-08, momentum = 0.990000009536743](%conv5_block19_concat/concat:0, %scale29, %bias29, %mean29, %var29)
  %conv5_block20_0_relu/Relu:0 = Relu(%batch_norm_output_buffer29)
  %convolution_output28 = Conv[auto_pad = 'VALID', dilations = [1, 1], group = 1, kernel_shape = [1, 1], strides = [1, 1]](%conv5_block20_0_relu/Relu:0, %conv5_block20_1_conv/kernel:0)
  %batch_norm_output_buffer22 = BatchNormalization[epsilon = 1.00099999400527e-08, momentum = 0.990000009536743](%convolution_output28, %scale22, %bias22, %mean22, %var22)
  %conv5_block20_1_relu/Relu:0 = Relu(%batch_norm_output_buffer22)
  %convolution_output21 = Conv[auto_pad = 'NOTSET', dilations = [1, 1], group = 1, kernel_shape = [3, 3], pads = [1, 1, 1, 1], strides = [1, 1]](%conv5_block20_1_relu/Relu:0, %conv5_block20_2_conv/kernel:0)
  %conv5_block20_concat/concat:0 = Concat[axis = 1](%conv5_block19_concat/concat:0, %convolution_output21)
  %batch_norm_output_buffer27 = BatchNormalization[epsilon = 1.00099999400527e-08, momentum = 0.990000009536743](%conv5_block20_concat/concat:0, %scale27, %bias27, %mean27, %var27)
  %conv5_block21_0_relu/Relu:0 = Relu(%batch_norm_output_buffer27)
  %convolution_output26 = Conv[auto_pad = 'VALID', dilations = [1, 1], group = 1, kernel_shape = [1, 1], strides = [1, 1]](%conv5_block21_0_relu/Relu:0, %conv5_block21_1_conv/kernel:0)
  %batch_norm_output_buffer20 = BatchNormalization[epsilon = 1.00099999400527e-08, momentum = 0.990000009536743](%convolution_output26, %scale20, %bias20, %mean20, %var20)
  %conv5_block21_1_relu/Relu:0 = Relu(%batch_norm_output_buffer20)
  %convolution_output19 = Conv[auto_pad = 'NOTSET', dilations = [1, 1], group = 1, kernel_shape = [3, 3], pads = [1, 1, 1, 1], strides = [1, 1]](%conv5_block21_1_relu/Relu:0, %conv5_block21_2_conv/kernel:0)
  %conv5_block21_concat/concat:0 = Concat[axis = 1](%conv5_block20_concat/concat:0, %convolution_output19)
  %batch_norm_output_buffer25 = BatchNormalization[epsilon = 1.00099999400527e-08, momentum = 0.990000009536743](%conv5_block21_concat/concat:0, %scale25, %bias25, %mean25, %var25)
  %conv5_block22_0_relu/Relu:0 = Relu(%batch_norm_output_buffer25)
  %convolution_output24 = Conv[auto_pad = 'VALID', dilations = [1, 1], group = 1, kernel_shape = [1, 1], strides = [1, 1]](%conv5_block22_0_relu/Relu:0, %conv5_block22_1_conv/kernel:0)
  %batch_norm_output_buffer18 = BatchNormalization[epsilon = 1.00099999400527e-08, momentum = 0.990000009536743](%convolution_output24, %scale18, %bias18, %mean18, %var18)
  %conv5_block22_1_relu/Relu:0 = Relu(%batch_norm_output_buffer18)
  %convolution_output17 = Conv[auto_pad = 'NOTSET', dilations = [1, 1], group = 1, kernel_shape = [3, 3], pads = [1, 1, 1, 1], strides = [1, 1]](%conv5_block22_1_relu/Relu:0, %conv5_block22_2_conv/kernel:0)
  %conv5_block22_concat/concat:0 = Concat[axis = 1](%conv5_block21_concat/concat:0, %convolution_output17)
  %batch_norm_output_buffer23 = BatchNormalization[epsilon = 1.00099999400527e-08, momentum = 0.990000009536743](%conv5_block22_concat/concat:0, %scale23, %bias23, %mean23, %var23)
  %conv5_block23_0_relu/Relu:0 = Relu(%batch_norm_output_buffer23)
  %convolution_output22 = Conv[auto_pad = 'VALID', dilations = [1, 1], group = 1, kernel_shape = [1, 1], strides = [1, 1]](%conv5_block23_0_relu/Relu:0, %conv5_block23_1_conv/kernel:0)
  %batch_norm_output_buffer16 = BatchNormalization[epsilon = 1.00099999400527e-08, momentum = 0.990000009536743](%convolution_output22, %scale16, %bias16, %mean16, %var16)
  %conv5_block23_1_relu/Relu:0 = Relu(%batch_norm_output_buffer16)
  %convolution_output15 = Conv[auto_pad = 'NOTSET', dilations = [1, 1], group = 1, kernel_shape = [3, 3], pads = [1, 1, 1, 1], strides = [1, 1]](%conv5_block23_1_relu/Relu:0, %conv5_block23_2_conv/kernel:0)
  %conv5_block23_concat/concat:0 = Concat[axis = 1](%conv5_block22_concat/concat:0, %convolution_output15)
  %batch_norm_output_buffer21 = BatchNormalization[epsilon = 1.00099999400527e-08, momentum = 0.990000009536743](%conv5_block23_concat/concat:0, %scale21, %bias21, %mean21, %var21)
  %conv5_block24_0_relu/Relu:0 = Relu(%batch_norm_output_buffer21)
  %convolution_output20 = Conv[auto_pad = 'VALID', dilations = [1, 1], group = 1, kernel_shape = [1, 1], strides = [1, 1]](%conv5_block24_0_relu/Relu:0, %conv5_block24_1_conv/kernel:0)
  %batch_norm_output_buffer14 = BatchNormalization[epsilon = 1.00099999400527e-08, momentum = 0.990000009536743](%convolution_output20, %scale14, %bias14, %mean14, %var14)
  %conv5_block24_1_relu/Relu:0 = Relu(%batch_norm_output_buffer14)
  %convolution_output13 = Conv[auto_pad = 'NOTSET', dilations = [1, 1], group = 1, kernel_shape = [3, 3], pads = [1, 1, 1, 1], strides = [1, 1]](%conv5_block24_1_relu/Relu:0, %conv5_block24_2_conv/kernel:0)
  %conv5_block24_concat/concat:0 = Concat[axis = 1](%conv5_block23_concat/concat:0, %convolution_output13)
  %batch_norm_output_buffer19 = BatchNormalization[epsilon = 1.00099999400527e-08, momentum = 0.990000009536743](%conv5_block24_concat/concat:0, %scale19, %bias19, %mean19, %var19)
  %conv5_block25_0_relu/Relu:0 = Relu(%batch_norm_output_buffer19)
  %convolution_output18 = Conv[auto_pad = 'VALID', dilations = [1, 1], group = 1, kernel_shape = [1, 1], strides = [1, 1]](%conv5_block25_0_relu/Relu:0, %conv5_block25_1_conv/kernel:0)
  %batch_norm_output_buffer12 = BatchNormalization[epsilon = 1.00099999400527e-08, momentum = 0.990000009536743](%convolution_output18, %scale12, %bias12, %mean12, %var12)
  %conv5_block25_1_relu/Relu:0 = Relu(%batch_norm_output_buffer12)
  %convolution_output11 = Conv[auto_pad = 'NOTSET', dilations = [1, 1], group = 1, kernel_shape = [3, 3], pads = [1, 1, 1, 1], strides = [1, 1]](%conv5_block25_1_relu/Relu:0, %conv5_block25_2_conv/kernel:0)
  %conv5_block25_concat/concat:0 = Concat[axis = 1](%conv5_block24_concat/concat:0, %convolution_output11)
  %batch_norm_output_buffer17 = BatchNormalization[epsilon = 1.00099999400527e-08, momentum = 0.990000009536743](%conv5_block25_concat/concat:0, %scale17, %bias17, %mean17, %var17)
  %conv5_block26_0_relu/Relu:0 = Relu(%batch_norm_output_buffer17)
  %convolution_output16 = Conv[auto_pad = 'VALID', dilations = [1, 1], group = 1, kernel_shape = [1, 1], strides = [1, 1]](%conv5_block26_0_relu/Relu:0, %conv5_block26_1_conv/kernel:0)
  %batch_norm_output_buffer10 = BatchNormalization[epsilon = 1.00099999400527e-08, momentum = 0.990000009536743](%convolution_output16, %scale10, %bias10, %mean10, %var10)
  %conv5_block26_1_relu/Relu:0 = Relu(%batch_norm_output_buffer10)
  %convolution_output9 = Conv[auto_pad = 'NOTSET', dilations = [1, 1], group = 1, kernel_shape = [3, 3], pads = [1, 1, 1, 1], strides = [1, 1]](%conv5_block26_1_relu/Relu:0, %conv5_block26_2_conv/kernel:0)
  %conv5_block26_concat/concat:0 = Concat[axis = 1](%conv5_block25_concat/concat:0, %convolution_output9)
  %batch_norm_output_buffer15 = BatchNormalization[epsilon = 1.00099999400527e-08, momentum = 0.990000009536743](%conv5_block26_concat/concat:0, %scale15, %bias15, %mean15, %var15)
  %conv5_block27_0_relu/Relu:0 = Relu(%batch_norm_output_buffer15)
  %convolution_output14 = Conv[auto_pad = 'VALID', dilations = [1, 1], group = 1, kernel_shape = [1, 1], strides = [1, 1]](%conv5_block27_0_relu/Relu:0, %conv5_block27_1_conv/kernel:0)
  %batch_norm_output_buffer8 = BatchNormalization[epsilon = 1.00099999400527e-08, momentum = 0.990000009536743](%convolution_output14, %scale8, %bias8, %mean8, %var8)
  %conv5_block27_1_relu/Relu:0 = Relu(%batch_norm_output_buffer8)
  %convolution_output7 = Conv[auto_pad = 'NOTSET', dilations = [1, 1], group = 1, kernel_shape = [3, 3], pads = [1, 1, 1, 1], strides = [1, 1]](%conv5_block27_1_relu/Relu:0, %conv5_block27_2_conv/kernel:0)
  %conv5_block27_concat/concat:0 = Concat[axis = 1](%conv5_block26_concat/concat:0, %convolution_output7)
  %batch_norm_output_buffer13 = BatchNormalization[epsilon = 1.00099999400527e-08, momentum = 0.990000009536743](%conv5_block27_concat/concat:0, %scale13, %bias13, %mean13, %var13)
  %conv5_block28_0_relu/Relu:0 = Relu(%batch_norm_output_buffer13)
  %convolution_output12 = Conv[auto_pad = 'VALID', dilations = [1, 1], group = 1, kernel_shape = [1, 1], strides = [1, 1]](%conv5_block28_0_relu/Relu:0, %conv5_block28_1_conv/kernel:0)
  %batch_norm_output_buffer6 = BatchNormalization[epsilon = 1.00099999400527e-08, momentum = 0.990000009536743](%convolution_output12, %scale6, %bias6, %mean6, %var6)
  %conv5_block28_1_relu/Relu:0 = Relu(%batch_norm_output_buffer6)
  %convolution_output5 = Conv[auto_pad = 'NOTSET', dilations = [1, 1], group = 1, kernel_shape = [3, 3], pads = [1, 1, 1, 1], strides = [1, 1]](%conv5_block28_1_relu/Relu:0, %conv5_block28_2_conv/kernel:0)
  %conv5_block28_concat/concat:0 = Concat[axis = 1](%conv5_block27_concat/concat:0, %convolution_output5)
  %batch_norm_output_buffer11 = BatchNormalization[epsilon = 1.00099999400527e-08, momentum = 0.990000009536743](%conv5_block28_concat/concat:0, %scale11, %bias11, %mean11, %var11)
  %conv5_block29_0_relu/Relu:0 = Relu(%batch_norm_output_buffer11)
  %convolution_output10 = Conv[auto_pad = 'VALID', dilations = [1, 1], group = 1, kernel_shape = [1, 1], strides = [1, 1]](%conv5_block29_0_relu/Relu:0, %conv5_block29_1_conv/kernel:0)
  %batch_norm_output_buffer4 = BatchNormalization[epsilon = 1.00099999400527e-08, momentum = 0.990000009536743](%convolution_output10, %scale4, %bias4, %mean4, %var4)
  %conv5_block29_1_relu/Relu:0 = Relu(%batch_norm_output_buffer4)
  %convolution_output3 = Conv[auto_pad = 'NOTSET', dilations = [1, 1], group = 1, kernel_shape = [3, 3], pads = [1, 1, 1, 1], strides = [1, 1]](%conv5_block29_1_relu/Relu:0, %conv5_block29_2_conv/kernel:0)
  %conv5_block29_concat/concat:0 = Concat[axis = 1](%conv5_block28_concat/concat:0, %convolution_output3)
  %batch_norm_output_buffer9 = BatchNormalization[epsilon = 1.00099999400527e-08, momentum = 0.990000009536743](%conv5_block29_concat/concat:0, %scale9, %bias9, %mean9, %var9)
  %conv5_block30_0_relu/Relu:0 = Relu(%batch_norm_output_buffer9)
  %convolution_output8 = Conv[auto_pad = 'VALID', dilations = [1, 1], group = 1, kernel_shape = [1, 1], strides = [1, 1]](%conv5_block30_0_relu/Relu:0, %conv5_block30_1_conv/kernel:0)
  %batch_norm_output_buffer3 = BatchNormalization[epsilon = 1.00099999400527e-08, momentum = 0.990000009536743](%convolution_output8, %scale3, %bias3, %mean3, %var3)
  %conv5_block30_1_relu/Relu:0 = Relu(%batch_norm_output_buffer3)
  %convolution_output2 = Conv[auto_pad = 'NOTSET', dilations = [1, 1], group = 1, kernel_shape = [3, 3], pads = [1, 1, 1, 1], strides = [1, 1]](%conv5_block30_1_relu/Relu:0, %conv5_block30_2_conv/kernel:0)
  %conv5_block30_concat/concat:0 = Concat[axis = 1](%conv5_block29_concat/concat:0, %convolution_output2)
  %batch_norm_output_buffer7 = BatchNormalization[epsilon = 1.00099999400527e-08, momentum = 0.990000009536743](%conv5_block30_concat/concat:0, %scale7, %bias7, %mean7, %var7)
  %conv5_block31_0_relu/Relu:0 = Relu(%batch_norm_output_buffer7)
  %convolution_output6 = Conv[auto_pad = 'VALID', dilations = [1, 1], group = 1, kernel_shape = [1, 1], strides = [1, 1]](%conv5_block31_0_relu/Relu:0, %conv5_block31_1_conv/kernel:0)
  %batch_norm_output_buffer2 = BatchNormalization[epsilon = 1.00099999400527e-08, momentum = 0.990000009536743](%convolution_output6, %scale2, %bias2, %mean2, %var2)
  %conv5_block31_1_relu/Relu:0 = Relu(%batch_norm_output_buffer2)
  %convolution_output1 = Conv[auto_pad = 'NOTSET', dilations = [1, 1], group = 1, kernel_shape = [3, 3], pads = [1, 1, 1, 1], strides = [1, 1]](%conv5_block31_1_relu/Relu:0, %conv5_block31_2_conv/kernel:0)
  %conv5_block31_concat/concat:0 = Concat[axis = 1](%conv5_block30_concat/concat:0, %convolution_output1)
  %batch_norm_output_buffer5 = BatchNormalization[epsilon = 1.00099999400527e-08, momentum = 0.990000009536743](%conv5_block31_concat/concat:0, %scale5, %bias5, %mean5, %var5)
  %conv5_block32_0_relu/Relu:0 = Relu(%batch_norm_output_buffer5)
  %convolution_output4 = Conv[auto_pad = 'VALID', dilations = [1, 1], group = 1, kernel_shape = [1, 1], strides = [1, 1]](%conv5_block32_0_relu/Relu:0, %conv5_block32_1_conv/kernel:0)
  %batch_norm_output_buffer1 = BatchNormalization[epsilon = 1.00099999400527e-08, momentum = 0.990000009536743](%convolution_output4, %scale1, %bias1, %mean1, %var1)
  %conv5_block32_1_relu/Relu:0 = Relu(%batch_norm_output_buffer1)
  %convolution_output = Conv[auto_pad = 'NOTSET', dilations = [1, 1], group = 1, kernel_shape = [3, 3], pads = [1, 1, 1, 1], strides = [1, 1]](%conv5_block32_1_relu/Relu:0, %conv5_block32_2_conv/kernel:0)
  %conv5_block32_concat/concat:0 = Concat[axis = 1](%conv5_block31_concat/concat:0, %convolution_output)
  %batch_norm_output_buffer = BatchNormalization[epsilon = 1.00099999400527e-08, momentum = 0.990000009536743](%conv5_block32_concat/concat:0, %scale, %bias, %mean, %var)
  %relu_1/Relu:0 = Relu(%batch_norm_output_buffer)
  %relu_1/Relu:0_pooling0 = GlobalAveragePool(%relu_1/Relu:0)
  %relu_1/Relu:0_transpose0 = Transpose[perm = [0, 2, 3, 1]](%relu_1/Relu:0_pooling0)
  %relu_1/Relu:0_reshape0 = Reshape(%relu_1/Relu:0_transpose0, %relu_1/Relu:0_reshape_start)
  %transformed_tensor = MatMul(%relu_1/Relu:0_reshape0, %fc1000_1/kernel:0)
  %biased_tensor_name = Add(%transformed_tensor, %fc1000_1/bias:0)
  %fc1000_1/Softmax:01 = Softmax[axis = -1](%biased_tensor_name)
  %fc1000 = Identity(%fc1000_1/Softmax:01)
  return %fc1000
}