graph nasnet_mobile (
  %input_15[FLOAT, Nx224x224x3]
) initializers (
  %predictions_1/kernel:0[FLOAT, 1056x1000]
  %predictions_1/bias:0[FLOAT, 1000]
  %activation_376/Relu:0_reshape_start[INT64, 2]
  %scale[FLOAT, 176]
  %bias[FLOAT, 176]
  %mean[FLOAT, 176]
  %var[FLOAT, 176]
  %normal_A_block_12_1/adjust_block/adjust_projection_block_12/adjust_conv_projection_12/kernel:0[FLOAT, 176x1056x1x1]
  %scale1[FLOAT, 176]
  %bias1[FLOAT, 176]
  %mean1[FLOAT, 176]
  %var1[FLOAT, 176]
  %scale2[FLOAT, 176]
  %bias2[FLOAT, 176]
  %mean2[FLOAT, 176]
  %var2[FLOAT, 176]
  %scale3[FLOAT, 176]
  %bias3[FLOAT, 176]
  %mean3[FLOAT, 176]
  %var3[FLOAT, 176]
  %scale4[FLOAT, 176]
  %bias4[FLOAT, 176]
  %mean4[FLOAT, 176]
  %var4[FLOAT, 176]
  %scale5[FLOAT, 176]
  %bias5[FLOAT, 176]
  %mean5[FLOAT, 176]
  %var5[FLOAT, 176]
  %scale6[FLOAT, 176]
  %bias6[FLOAT, 176]
  %mean6[FLOAT, 176]
  %var6[FLOAT, 176]
  %normal_A_block_12_1/block_1/separable_conv_block_normal_left1_12/separable_conv_2_normal_left1_12/depthwise_kernel:0[FLOAT, 176x1x5x5]
  %W[FLOAT, 176x176x1x1]
  %normal_A_block_12_1/block_1/separable_conv_block_normal_right1_12/separable_conv_2_normal_right1_12/depthwise_kernel:0[FLOAT, 176x1x3x3]
  %W1[FLOAT, 176x176x1x1]
  %normal_A_block_12_1/block_2/separable_conv_block_normal_left2_12/separable_conv_2_normal_left2_12/depthwise_kernel:0[FLOAT, 176x1x5x5]
  %W2[FLOAT, 176x176x1x1]
  %normal_A_block_12_1/block_2/separable_conv_block_normal_right2_12/separable_conv_2_normal_right2_12/depthwise_kernel:0[FLOAT, 176x1x3x3]
  %W3[FLOAT, 176x176x1x1]
  %normal_A_block_12_1/block_5/separable_conv_block_normal_left5_12/separable_conv_2_normal_left5_12/depthwise_kernel:0[FLOAT, 176x1x3x3]
  %W4[FLOAT, 176x176x1x1]
  %normal_A_block_12_1/normal_conv_1_12/kernel:0[FLOAT, 176x1056x1x1]
  %scale7[FLOAT, 176]
  %bias7[FLOAT, 176]
  %mean7[FLOAT, 176]
  %var7[FLOAT, 176]
  %scale8[FLOAT, 176]
  %bias8[FLOAT, 176]
  %mean8[FLOAT, 176]
  %var8[FLOAT, 176]
  %scale9[FLOAT, 176]
  %bias9[FLOAT, 176]
  %mean9[FLOAT, 176]
  %var9[FLOAT, 176]
  %scale10[FLOAT, 176]
  %bias10[FLOAT, 176]
  %mean10[FLOAT, 176]
  %var10[FLOAT, 176]
  %scale11[FLOAT, 176]
  %bias11[FLOAT, 176]
  %mean11[FLOAT, 176]
  %var11[FLOAT, 176]
  %scale12[FLOAT, 176]
  %bias12[FLOAT, 176]
  %mean12[FLOAT, 176]
  %var12[FLOAT, 176]
  %normal_A_block_10_1/adjust_block/adjust_projection_block_10/adjust_conv_projection_10/kernel:0[FLOAT, 176x704x1x1]
  %scale13[FLOAT, 176]
  %bias13[FLOAT, 176]
  %mean13[FLOAT, 176]
  %var13[FLOAT, 176]
  %scale14[FLOAT, 176]
  %bias14[FLOAT, 176]
  %mean14[FLOAT, 176]
  %var14[FLOAT, 176]
  %scale15[FLOAT, 176]
  %bias15[FLOAT, 176]
  %mean15[FLOAT, 176]
  %var15[FLOAT, 176]
  %scale16[FLOAT, 176]
  %bias16[FLOAT, 176]
  %mean16[FLOAT, 176]
  %var16[FLOAT, 176]
  %scale17[FLOAT, 176]
  %bias17[FLOAT, 176]
  %mean17[FLOAT, 176]
  %var17[FLOAT, 176]
  %scale18[FLOAT, 176]
  %bias18[FLOAT, 176]
  %mean18[FLOAT, 176]
  %var18[FLOAT, 176]
  %normal_A_block_12_1/block_1/separable_conv_block_normal_left1_12/separable_conv_1_normal_left1_12/depthwise_kernel:0[FLOAT, 176x1x5x5]
  %W5[FLOAT, 176x176x1x1]
  %normal_A_block_12_1/block_1/separable_conv_block_normal_right1_12/separable_conv_1_normal_right1_12/depthwise_kernel:0[FLOAT, 176x1x3x3]
  %W6[FLOAT, 176x176x1x1]
  %normal_A_block_12_1/block_2/separable_conv_block_normal_left2_12/separable_conv_1_normal_left2_12/depthwise_kernel:0[FLOAT, 176x1x5x5]
  %W7[FLOAT, 176x176x1x1]
  %normal_A_block_12_1/block_2/separable_conv_block_normal_right2_12/separable_conv_1_normal_right2_12/depthwise_kernel:0[FLOAT, 176x1x3x3]
  %W8[FLOAT, 176x176x1x1]
  %normal_A_block_12_1/block_5/separable_conv_block_normal_left5_12/separable_conv_1_normal_left5_12/depthwise_kernel:0[FLOAT, 176x1x3x3]
  %W9[FLOAT, 176x176x1x1]
  %scale19[FLOAT, 176]
  %bias19[FLOAT, 176]
  %mean19[FLOAT, 176]
  %var19[FLOAT, 176]
  %normal_A_block_10_1/block_1/separable_conv_block_normal_left1_10/separable_conv_2_normal_left1_10/depthwise_kernel:0[FLOAT, 176x1x5x5]
  %W10[FLOAT, 176x176x1x1]
  %normal_A_block_10_1/block_1/separable_conv_block_normal_right1_10/separable_conv_2_normal_right1_10/depthwise_kernel:0[FLOAT, 176x1x3x3]
  %W11[FLOAT, 176x176x1x1]
  %normal_A_block_10_1/block_2/separable_conv_block_normal_left2_10/separable_conv_2_normal_left2_10/depthwise_kernel:0[FLOAT, 176x1x5x5]
  %W12[FLOAT, 176x176x1x1]
  %normal_A_block_10_1/block_2/separable_conv_block_normal_right2_10/separable_conv_2_normal_right2_10/depthwise_kernel:0[FLOAT, 176x1x3x3]
  %W13[FLOAT, 176x176x1x1]
  %normal_A_block_10_1/block_5/separable_conv_block_normal_left5_10/separable_conv_2_normal_left5_10/depthwise_kernel:0[FLOAT, 176x1x3x3]
  %W14[FLOAT, 176x176x1x1]
  %normal_A_block_10_1/normal_conv_1_10/kernel:0[FLOAT, 176x1056x1x1]
  %normal_A_block_11_1/adjust_block/adjust_projection_block_11/adjust_conv_projection_11/kernel:0[FLOAT, 176x1056x1x1]
  %scale20[FLOAT, 176]
  %bias20[FLOAT, 176]
  %mean20[FLOAT, 176]
  %var20[FLOAT, 176]
  %scale21[FLOAT, 176]
  %bias21[FLOAT, 176]
  %mean21[FLOAT, 176]
  %var21[FLOAT, 176]
  %scale22[FLOAT, 176]
  %bias22[FLOAT, 176]
  %mean22[FLOAT, 176]
  %var22[FLOAT, 176]
  %scale23[FLOAT, 176]
  %bias23[FLOAT, 176]
  %mean23[FLOAT, 176]
  %var23[FLOAT, 176]
  %scale24[FLOAT, 176]
  %bias24[FLOAT, 176]
  %mean24[FLOAT, 176]
  %var24[FLOAT, 176]
  %scale25[FLOAT, 176]
  %bias25[FLOAT, 176]
  %mean25[FLOAT, 176]
  %var25[FLOAT, 176]
  %normal_A_block_11_1/block_1/separable_conv_block_normal_left1_11/separable_conv_2_normal_left1_11/depthwise_kernel:0[FLOAT, 176x1x5x5]
  %W15[FLOAT, 176x176x1x1]
  %normal_A_block_11_1/block_1/separable_conv_block_normal_right1_11/separable_conv_2_normal_right1_11/depthwise_kernel:0[FLOAT, 176x1x3x3]
  %W16[FLOAT, 176x176x1x1]
  %normal_A_block_11_1/block_2/separable_conv_block_normal_left2_11/separable_conv_2_normal_left2_11/depthwise_kernel:0[FLOAT, 176x1x5x5]
  %W17[FLOAT, 176x176x1x1]
  %normal_A_block_11_1/block_2/separable_conv_block_normal_right2_11/separable_conv_2_normal_right2_11/depthwise_kernel:0[FLOAT, 176x1x3x3]
  %W18[FLOAT, 176x176x1x1]
  %normal_A_block_11_1/block_5/separable_conv_block_normal_left5_11/separable_conv_2_normal_left5_11/depthwise_kernel:0[FLOAT, 176x1x3x3]
  %W19[FLOAT, 176x176x1x1]
  %normal_A_block_11_1/normal_conv_1_11/kernel:0[FLOAT, 176x1056x1x1]
  %scale26[FLOAT, 176]
  %bias26[FLOAT, 176]
  %mean26[FLOAT, 176]
  %var26[FLOAT, 176]
  %scale27[FLOAT, 176]
  %bias27[FLOAT, 176]
  %mean27[FLOAT, 176]
  %var27[FLOAT, 176]
  %scale28[FLOAT, 176]
  %bias28[FLOAT, 176]
  %mean28[FLOAT, 176]
  %var28[FLOAT, 176]
  %scale29[FLOAT, 176]
  %bias29[FLOAT, 176]
  %mean29[FLOAT, 176]
  %var29[FLOAT, 176]
  %scale30[FLOAT, 176]
  %bias30[FLOAT, 176]
  %mean30[FLOAT, 176]
  %var30[FLOAT, 176]
  %scale31[FLOAT, 176]
  %bias31[FLOAT, 176]
  %mean31[FLOAT, 176]
  %var31[FLOAT, 176]
  %scale32[FLOAT, 176]
  %bias32[FLOAT, 176]
  %mean32[FLOAT, 176]
  %var32[FLOAT, 176]
  %scale33[FLOAT, 176]
  %bias33[FLOAT, 176]
  %mean33[FLOAT, 176]
  %var33[FLOAT, 176]
  %normal_A_block_10_1/block_1/separable_conv_block_normal_left1_10/separable_conv_1_normal_left1_10/depthwise_kernel:0[FLOAT, 176x1x5x5]
  %W20[FLOAT, 176x176x1x1]
  %normal_A_block_10_1/block_1/separable_conv_block_normal_right1_10/separable_conv_1_normal_right1_10/depthwise_kernel:0[FLOAT, 176x1x3x3]
  %W21[FLOAT, 176x176x1x1]
  %normal_A_block_10_1/block_2/separable_conv_block_normal_left2_10/separable_conv_1_normal_left2_10/depthwise_kernel:0[FLOAT, 176x1x5x5]
  %W22[FLOAT, 176x176x1x1]
  %normal_A_block_10_1/block_2/separable_conv_block_normal_right2_10/separable_conv_1_normal_right2_10/depthwise_kernel:0[FLOAT, 176x1x3x3]
  %W23[FLOAT, 176x176x1x1]
  %normal_A_block_10_1/block_5/separable_conv_block_normal_left5_10/separable_conv_1_normal_left5_10/depthwise_kernel:0[FLOAT, 176x1x3x3]
  %W24[FLOAT, 176x176x1x1]
  %scale34[FLOAT, 176]
  %bias34[FLOAT, 176]
  %mean34[FLOAT, 176]
  %var34[FLOAT, 176]
  %scale35[FLOAT, 176]
  %bias35[FLOAT, 176]
  %mean35[FLOAT, 176]
  %var35[FLOAT, 176]
  %scale36[FLOAT, 176]
  %bias36[FLOAT, 176]
  %mean36[FLOAT, 176]
  %var36[FLOAT, 176]
  %scale37[FLOAT, 176]
  %bias37[FLOAT, 176]
  %mean37[FLOAT, 176]
  %var37[FLOAT, 176]
  %scale38[FLOAT, 176]
  %bias38[FLOAT, 176]
  %mean38[FLOAT, 176]
  %var38[FLOAT, 176]
  %scale39[FLOAT, 176]
  %bias39[FLOAT, 176]
  %mean39[FLOAT, 176]
  %var39[FLOAT, 176]
  %Pad_pads[INT64, 8]
  %Pad_value[FLOAT, scalar]
  %reduction_A_block_reduce_8_1/block_2/separable_conv_block_reduction_right2_reduce_8/separable_conv_2_reduction_right2_reduce_8/depthwise_kernel:0[FLOAT, 176x1x7x7]
  %W25[FLOAT, 176x176x1x1]
  %reduction_A_block_reduce_8_1/block_3/separable_conv_block_reduction_right3_reduce_8/separable_conv_2_reduction_right3_reduce_8/depthwise_kernel:0[FLOAT, 176x1x5x5]
  %W26[FLOAT, 176x176x1x1]
  %reduction_A_block_reduce_8_1/block_5/separable_conv_block_reduction_left4_reduce_8/separable_conv_2_reduction_left4_reduce_8/depthwise_kernel:0[FLOAT, 176x1x3x3]
  %W27[FLOAT, 176x176x1x1]
  %scale40[FLOAT, 176]
  %bias40[FLOAT, 176]
  %mean40[FLOAT, 176]
  %var40[FLOAT, 176]
  %scale41[FLOAT, 176]
  %bias41[FLOAT, 176]
  %mean41[FLOAT, 176]
  %var41[FLOAT, 176]
  %scale42[FLOAT, 176]
  %bias42[FLOAT, 176]
  %mean42[FLOAT, 176]
  %var42[FLOAT, 176]
  %scale43[FLOAT, 176]
  %bias43[FLOAT, 176]
  %mean43[FLOAT, 176]
  %var43[FLOAT, 176]
  %scale44[FLOAT, 176]
  %bias44[FLOAT, 176]
  %mean44[FLOAT, 176]
  %var44[FLOAT, 176]
  %scale45[FLOAT, 176]
  %bias45[FLOAT, 176]
  %mean45[FLOAT, 176]
  %var45[FLOAT, 176]
  %normal_A_block_11_1/block_1/separable_conv_block_normal_left1_11/separable_conv_1_normal_left1_11/depthwise_kernel:0[FLOAT, 176x1x5x5]
  %W28[FLOAT, 176x176x1x1]
  %normal_A_block_11_1/block_1/separable_conv_block_normal_right1_11/separable_conv_1_normal_right1_11/depthwise_kernel:0[FLOAT, 176x1x3x3]
  %W29[FLOAT, 176x176x1x1]
  %normal_A_block_11_1/block_2/separable_conv_block_normal_left2_11/separable_conv_1_normal_left2_11/depthwise_kernel:0[FLOAT, 176x1x5x5]
  %W30[FLOAT, 176x176x1x1]
  %normal_A_block_11_1/block_2/separable_conv_block_normal_right2_11/separable_conv_1_normal_right2_11/depthwise_kernel:0[FLOAT, 176x1x3x3]
  %W31[FLOAT, 176x176x1x1]
  %normal_A_block_11_1/block_5/separable_conv_block_normal_left5_11/separable_conv_1_normal_left5_11/depthwise_kernel:0[FLOAT, 176x1x3x3]
  %W32[FLOAT, 176x176x1x1]
  %scale46[FLOAT, 176]
  %bias46[FLOAT, 176]
  %mean46[FLOAT, 176]
  %var46[FLOAT, 176]
  %scale47[FLOAT, 176]
  %bias47[FLOAT, 176]
  %mean47[FLOAT, 176]
  %var47[FLOAT, 176]
  %scale48[FLOAT, 176]
  %bias48[FLOAT, 176]
  %mean48[FLOAT, 176]
  %var48[FLOAT, 176]
  %normal_A_block_9_1/adjust_block/adjust_reduction_block_9/adjust_conv_1_9/kernel:0[FLOAT, 88x528x1x1]
  %normal_A_block_9_1/adjust_block/adjust_reduction_block_9/adjust_conv_2_9/kernel:0[FLOAT, 88x528x1x1]
  %normal_A_block_9_1/block_1/separable_conv_block_normal_left1_9/separable_conv_2_normal_left1_9/depthwise_kernel:0[FLOAT, 176x1x5x5]
  %W33[FLOAT, 176x176x1x1]
  %normal_A_block_9_1/block_1/separable_conv_block_normal_right1_9/separable_conv_2_normal_right1_9/depthwise_kernel:0[FLOAT, 176x1x3x3]
  %W34[FLOAT, 176x176x1x1]
  %normal_A_block_9_1/block_2/separable_conv_block_normal_left2_9/separable_conv_2_normal_left2_9/depthwise_kernel:0[FLOAT, 176x1x5x5]
  %W35[FLOAT, 176x176x1x1]
  %normal_A_block_9_1/block_2/separable_conv_block_normal_right2_9/separable_conv_2_normal_right2_9/depthwise_kernel:0[FLOAT, 176x1x3x3]
  %W36[FLOAT, 176x176x1x1]
  %normal_A_block_9_1/block_5/separable_conv_block_normal_left5_9/separable_conv_2_normal_left5_9/depthwise_kernel:0[FLOAT, 176x1x3x3]
  %W37[FLOAT, 176x176x1x1]
  %normal_A_block_9_1/normal_conv_1_9/kernel:0[FLOAT, 176x704x1x1]
  %reduction_A_block_reduce_8_1/reduction_conv_1_reduce_8/kernel:0[FLOAT, 176x528x1x1]
  %scale49[FLOAT, 176]
  %bias49[FLOAT, 176]
  %mean49[FLOAT, 176]
  %var49[FLOAT, 176]
  %scale50[FLOAT, 176]
  %bias50[FLOAT, 176]
  %mean50[FLOAT, 176]
  %var50[FLOAT, 176]
  %reduction_A_block_reduce_8_1/block_1/separable_conv_block_reduction_left1_reduce_8/separable_conv_2_reduction_left1_reduce_8/depthwise_kernel:0[FLOAT, 176x1x5x5]
  %W38[FLOAT, 176x176x1x1]
  %reduction_A_block_reduce_8_1/block_1/separable_conv_block_reduction_right1_reduce_8/separable_conv_2_reduction_right1_reduce_8/depthwise_kernel:0[FLOAT, 176x1x7x7]
  %W39[FLOAT, 176x176x1x1]
  %scale51[FLOAT, 176]
  %bias51[FLOAT, 176]
  %mean51[FLOAT, 176]
  %var51[FLOAT, 176]
  %reduction_A_block_reduce_8_1/block_2/separable_conv_block_reduction_right2_reduce_8/separable_conv_1_reduction_right2_reduce_8/depthwise_kernel:0[FLOAT, 176x1x7x7]
  %W40[FLOAT, 176x176x1x1]
  %reduction_A_block_reduce_8_1/block_3/separable_conv_block_reduction_right3_reduce_8/separable_conv_1_reduction_right3_reduce_8/depthwise_kernel:0[FLOAT, 176x1x5x5]
  %W41[FLOAT, 176x176x1x1]
  %reduction_A_block_reduce_8_1/block_5/separable_conv_block_reduction_left4_reduce_8/separable_conv_1_reduction_left4_reduce_8/depthwise_kernel:0[FLOAT, 176x1x3x3]
  %W42[FLOAT, 176x176x1x1]
  %normal_A_block_9_1/adjust_block/adjust_reduction_block_9/zero_padding2d_14/Pad:0_cropping_start[INT64, 4]
  %normal_A_block_9_1/adjust_block/adjust_reduction_block_9/zero_padding2d_14/Pad:0_cropping_end[INT64, 4]
  %normal_A_block_9_1/adjust_block/adjust_reduction_block_9/zero_padding2d_14/Pad:0_cropping_axes[INT64, 4]
  %scale52[FLOAT, 176]
  %bias52[FLOAT, 176]
  %mean52[FLOAT, 176]
  %var52[FLOAT, 176]
  %scale53[FLOAT, 176]
  %bias53[FLOAT, 176]
  %mean53[FLOAT, 176]
  %var53[FLOAT, 176]
  %scale54[FLOAT, 176]
  %bias54[FLOAT, 176]
  %mean54[FLOAT, 176]
  %var54[FLOAT, 176]
  %scale55[FLOAT, 176]
  %bias55[FLOAT, 176]
  %mean55[FLOAT, 176]
  %var55[FLOAT, 176]
  %scale56[FLOAT, 176]
  %bias56[FLOAT, 176]
  %mean56[FLOAT, 176]
  %var56[FLOAT, 176]
  %Pad1_pads[INT64, 8]
  %Pad1_value[FLOAT, scalar]
  %Pad2_pads[INT64, 8]
  %Pad2_value[FLOAT, scalar]
  %scale57[FLOAT, 176]
  %bias57[FLOAT, 176]
  %mean57[FLOAT, 176]
  %var57[FLOAT, 176]
  %scale58[FLOAT, 176]
  %bias58[FLOAT, 176]
  %mean58[FLOAT, 176]
  %var58[FLOAT, 176]
  %Pad3_pads[INT64, 8]
  %Pad3_value[FLOAT, scalar]
  %normal_A_block_9_1/block_1/separable_conv_block_normal_left1_9/separable_conv_1_normal_left1_9/depthwise_kernel:0[FLOAT, 176x1x5x5]
  %W43[FLOAT, 176x176x1x1]
  %normal_A_block_9_1/block_1/separable_conv_block_normal_right1_9/separable_conv_1_normal_right1_9/depthwise_kernel:0[FLOAT, 176x1x3x3]
  %W44[FLOAT, 176x176x1x1]
  %normal_A_block_9_1/block_2/separable_conv_block_normal_left2_9/separable_conv_1_normal_left2_9/depthwise_kernel:0[FLOAT, 176x1x5x5]
  %W45[FLOAT, 176x176x1x1]
  %normal_A_block_9_1/block_2/separable_conv_block_normal_right2_9/separable_conv_1_normal_right2_9/depthwise_kernel:0[FLOAT, 176x1x3x3]
  %W46[FLOAT, 176x176x1x1]
  %normal_A_block_9_1/block_5/separable_conv_block_normal_left5_9/separable_conv_1_normal_left5_9/depthwise_kernel:0[FLOAT, 176x1x3x3]
  %W47[FLOAT, 176x176x1x1]
  %scale59[FLOAT, 88]
  %bias59[FLOAT, 88]
  %mean59[FLOAT, 88]
  %var59[FLOAT, 88]
  %reduction_A_block_reduce_8_1/block_1/separable_conv_block_reduction_left1_reduce_8/separable_conv_1_reduction_left1_reduce_8/depthwise_kernel:0[FLOAT, 176x1x5x5]
  %W48[FLOAT, 176x176x1x1]
  %reduction_A_block_reduce_8_1/block_1/separable_conv_block_reduction_right1_reduce_8/separable_conv_1_reduction_right1_reduce_8/depthwise_kernel:0[FLOAT, 176x1x7x7]
  %W49[FLOAT, 176x176x1x1]
  %normal_A_block_8_1/adjust_block/adjust_projection_block_8/adjust_conv_projection_8/kernel:0[FLOAT, 88x528x1x1]
  %scale60[FLOAT, 88]
  %bias60[FLOAT, 88]
  %mean60[FLOAT, 88]
  %var60[FLOAT, 88]
  %scale61[FLOAT, 88]
  %bias61[FLOAT, 88]
  %mean61[FLOAT, 88]
  %var61[FLOAT, 88]
  %scale62[FLOAT, 88]
  %bias62[FLOAT, 88]
  %mean62[FLOAT, 88]
  %var62[FLOAT, 88]
  %scale63[FLOAT, 88]
  %bias63[FLOAT, 88]
  %mean63[FLOAT, 88]
  %var63[FLOAT, 88]
  %scale64[FLOAT, 88]
  %bias64[FLOAT, 88]
  %mean64[FLOAT, 88]
  %var64[FLOAT, 88]
  %scale65[FLOAT, 88]
  %bias65[FLOAT, 88]
  %mean65[FLOAT, 88]
  %var65[FLOAT, 88]
  %scale66[FLOAT, 176]
  %bias66[FLOAT, 176]
  %mean66[FLOAT, 176]
  %var66[FLOAT, 176]
  %Pad4_pads[INT64, 8]
  %Pad4_value[FLOAT, scalar]
  %Pad5_pads[INT64, 8]
  %Pad5_value[FLOAT, scalar]
  %normal_A_block_8_1/block_1/separable_conv_block_normal_left1_8/separable_conv_2_normal_left1_8/depthwise_kernel:0[FLOAT, 88x1x5x5]
  %W50[FLOAT, 88x88x1x1]
  %normal_A_block_8_1/block_1/separable_conv_block_normal_right1_8/separable_conv_2_normal_right1_8/depthwise_kernel:0[FLOAT, 88x1x3x3]
  %W51[FLOAT, 88x88x1x1]
  %normal_A_block_8_1/block_2/separable_conv_block_normal_left2_8/separable_conv_2_normal_left2_8/depthwise_kernel:0[FLOAT, 88x1x5x5]
  %W52[FLOAT, 88x88x1x1]
  %normal_A_block_8_1/block_2/separable_conv_block_normal_right2_8/separable_conv_2_normal_right2_8/depthwise_kernel:0[FLOAT, 88x1x3x3]
  %W53[FLOAT, 88x88x1x1]
  %normal_A_block_8_1/block_5/separable_conv_block_normal_left5_8/separable_conv_2_normal_left5_8/depthwise_kernel:0[FLOAT, 88x1x3x3]
  %W54[FLOAT, 88x88x1x1]
  %normal_A_block_8_1/normal_conv_1_8/kernel:0[FLOAT, 88x528x1x1]
  %reduction_A_block_reduce_8_1/adjust_block/adjust_projection_block_reduce_8/adjust_conv_projection_reduce_8/kernel:0[FLOAT, 176x528x1x1]
  %scale67[FLOAT, 88]
  %bias67[FLOAT, 88]
  %mean67[FLOAT, 88]
  %var67[FLOAT, 88]
  %scale68[FLOAT, 88]
  %bias68[FLOAT, 88]
  %mean68[FLOAT, 88]
  %var68[FLOAT, 88]
  %scale69[FLOAT, 88]
  %bias69[FLOAT, 88]
  %mean69[FLOAT, 88]
  %var69[FLOAT, 88]
  %scale70[FLOAT, 88]
  %bias70[FLOAT, 88]
  %mean70[FLOAT, 88]
  %var70[FLOAT, 88]
  %scale71[FLOAT, 88]
  %bias71[FLOAT, 88]
  %mean71[FLOAT, 88]
  %var71[FLOAT, 88]
  %scale72[FLOAT, 88]
  %bias72[FLOAT, 88]
  %mean72[FLOAT, 88]
  %var72[FLOAT, 88]
  %normal_A_block_6_1/adjust_block/adjust_projection_block_6/adjust_conv_projection_6/kernel:0[FLOAT, 88x352x1x1]
  %scale73[FLOAT, 88]
  %bias73[FLOAT, 88]
  %mean73[FLOAT, 88]
  %var73[FLOAT, 88]
  %scale74[FLOAT, 88]
  %bias74[FLOAT, 88]
  %mean74[FLOAT, 88]
  %var74[FLOAT, 88]
  %scale75[FLOAT, 88]
  %bias75[FLOAT, 88]
  %mean75[FLOAT, 88]
  %var75[FLOAT, 88]
  %scale76[FLOAT, 88]
  %bias76[FLOAT, 88]
  %mean76[FLOAT, 88]
  %var76[FLOAT, 88]
  %scale77[FLOAT, 88]
  %bias77[FLOAT, 88]
  %mean77[FLOAT, 88]
  %var77[FLOAT, 88]
  %scale78[FLOAT, 88]
  %bias78[FLOAT, 88]
  %mean78[FLOAT, 88]
  %var78[FLOAT, 88]
  %normal_A_block_8_1/block_1/separable_conv_block_normal_left1_8/separable_conv_1_normal_left1_8/depthwise_kernel:0[FLOAT, 88x1x5x5]
  %W55[FLOAT, 88x88x1x1]
  %normal_A_block_8_1/block_1/separable_conv_block_normal_right1_8/separable_conv_1_normal_right1_8/depthwise_kernel:0[FLOAT, 88x1x3x3]
  %W56[FLOAT, 88x88x1x1]
  %normal_A_block_8_1/block_2/separable_conv_block_normal_left2_8/separable_conv_1_normal_left2_8/depthwise_kernel:0[FLOAT, 88x1x5x5]
  %W57[FLOAT, 88x88x1x1]
  %normal_A_block_8_1/block_2/separable_conv_block_normal_right2_8/separable_conv_1_normal_right2_8/depthwise_kernel:0[FLOAT, 88x1x3x3]
  %W58[FLOAT, 88x88x1x1]
  %normal_A_block_8_1/block_5/separable_conv_block_normal_left5_8/separable_conv_1_normal_left5_8/depthwise_kernel:0[FLOAT, 88x1x3x3]
  %W59[FLOAT, 88x88x1x1]
  %scale79[FLOAT, 88]
  %bias79[FLOAT, 88]
  %mean79[FLOAT, 88]
  %var79[FLOAT, 88]
  %normal_A_block_6_1/block_1/separable_conv_block_normal_left1_6/separable_conv_2_normal_left1_6/depthwise_kernel:0[FLOAT, 88x1x5x5]
  %W60[FLOAT, 88x88x1x1]
  %normal_A_block_6_1/block_1/separable_conv_block_normal_right1_6/separable_conv_2_normal_right1_6/depthwise_kernel:0[FLOAT, 88x1x3x3]
  %W61[FLOAT, 88x88x1x1]
  %normal_A_block_6_1/block_2/separable_conv_block_normal_left2_6/separable_conv_2_normal_left2_6/depthwise_kernel:0[FLOAT, 88x1x5x5]
  %W62[FLOAT, 88x88x1x1]
  %normal_A_block_6_1/block_2/separable_conv_block_normal_right2_6/separable_conv_2_normal_right2_6/depthwise_kernel:0[FLOAT, 88x1x3x3]
  %W63[FLOAT, 88x88x1x1]
  %normal_A_block_6_1/block_5/separable_conv_block_normal_left5_6/separable_conv_2_normal_left5_6/depthwise_kernel:0[FLOAT, 88x1x3x3]
  %W64[FLOAT, 88x88x1x1]
  %normal_A_block_6_1/normal_conv_1_6/kernel:0[FLOAT, 88x528x1x1]
  %normal_A_block_7_1/adjust_block/adjust_projection_block_7/adjust_conv_projection_7/kernel:0[FLOAT, 88x528x1x1]
  %scale80[FLOAT, 88]
  %bias80[FLOAT, 88]
  %mean80[FLOAT, 88]
  %var80[FLOAT, 88]
  %scale81[FLOAT, 88]
  %bias81[FLOAT, 88]
  %mean81[FLOAT, 88]
  %var81[FLOAT, 88]
  %scale82[FLOAT, 88]
  %bias82[FLOAT, 88]
  %mean82[FLOAT, 88]
  %var82[FLOAT, 88]
  %scale83[FLOAT, 88]
  %bias83[FLOAT, 88]
  %mean83[FLOAT, 88]
  %var83[FLOAT, 88]
  %scale84[FLOAT, 88]
  %bias84[FLOAT, 88]
  %mean84[FLOAT, 88]
  %var84[FLOAT, 88]
  %scale85[FLOAT, 88]
  %bias85[FLOAT, 88]
  %mean85[FLOAT, 88]
  %var85[FLOAT, 88]
  %normal_A_block_7_1/block_1/separable_conv_block_normal_left1_7/separable_conv_2_normal_left1_7/depthwise_kernel:0[FLOAT, 88x1x5x5]
  %W65[FLOAT, 88x88x1x1]
  %normal_A_block_7_1/block_1/separable_conv_block_normal_right1_7/separable_conv_2_normal_right1_7/depthwise_kernel:0[FLOAT, 88x1x3x3]
  %W66[FLOAT, 88x88x1x1]
  %normal_A_block_7_1/block_2/separable_conv_block_normal_left2_7/separable_conv_2_normal_left2_7/depthwise_kernel:0[FLOAT, 88x1x5x5]
  %W67[FLOAT, 88x88x1x1]
  %normal_A_block_7_1/block_2/separable_conv_block_normal_right2_7/separable_conv_2_normal_right2_7/depthwise_kernel:0[FLOAT, 88x1x3x3]
  %W68[FLOAT, 88x88x1x1]
  %normal_A_block_7_1/block_5/separable_conv_block_normal_left5_7/separable_conv_2_normal_left5_7/depthwise_kernel:0[FLOAT, 88x1x3x3]
  %W69[FLOAT, 88x88x1x1]
  %normal_A_block_7_1/normal_conv_1_7/kernel:0[FLOAT, 88x528x1x1]
  %scale86[FLOAT, 88]
  %bias86[FLOAT, 88]
  %mean86[FLOAT, 88]
  %var86[FLOAT, 88]
  %scale87[FLOAT, 88]
  %bias87[FLOAT, 88]
  %mean87[FLOAT, 88]
  %var87[FLOAT, 88]
  %scale88[FLOAT, 88]
  %bias88[FLOAT, 88]
  %mean88[FLOAT, 88]
  %var88[FLOAT, 88]
  %scale89[FLOAT, 88]
  %bias89[FLOAT, 88]
  %mean89[FLOAT, 88]
  %var89[FLOAT, 88]
  %scale90[FLOAT, 88]
  %bias90[FLOAT, 88]
  %mean90[FLOAT, 88]
  %var90[FLOAT, 88]
  %scale91[FLOAT, 88]
  %bias91[FLOAT, 88]
  %mean91[FLOAT, 88]
  %var91[FLOAT, 88]
  %scale92[FLOAT, 88]
  %bias92[FLOAT, 88]
  %mean92[FLOAT, 88]
  %var92[FLOAT, 88]
  %scale93[FLOAT, 88]
  %bias93[FLOAT, 88]
  %mean93[FLOAT, 88]
  %var93[FLOAT, 88]
  %normal_A_block_6_1/block_1/separable_conv_block_normal_left1_6/separable_conv_1_normal_left1_6/depthwise_kernel:0[FLOAT, 88x1x5x5]
  %W70[FLOAT, 88x88x1x1]
  %normal_A_block_6_1/block_1/separable_conv_block_normal_right1_6/separable_conv_1_normal_right1_6/depthwise_kernel:0[FLOAT, 88x1x3x3]
  %W71[FLOAT, 88x88x1x1]
  %normal_A_block_6_1/block_2/separable_conv_block_normal_left2_6/separable_conv_1_normal_left2_6/depthwise_kernel:0[FLOAT, 88x1x5x5]
  %W72[FLOAT, 88x88x1x1]
  %normal_A_block_6_1/block_2/separable_conv_block_normal_right2_6/separable_conv_1_normal_right2_6/depthwise_kernel:0[FLOAT, 88x1x3x3]
  %W73[FLOAT, 88x88x1x1]
  %normal_A_block_6_1/block_5/separable_conv_block_normal_left5_6/separable_conv_1_normal_left5_6/depthwise_kernel:0[FLOAT, 88x1x3x3]
  %W74[FLOAT, 88x88x1x1]
  %scale94[FLOAT, 88]
  %bias94[FLOAT, 88]
  %mean94[FLOAT, 88]
  %var94[FLOAT, 88]
  %scale95[FLOAT, 88]
  %bias95[FLOAT, 88]
  %mean95[FLOAT, 88]
  %var95[FLOAT, 88]
  %scale96[FLOAT, 88]
  %bias96[FLOAT, 88]
  %mean96[FLOAT, 88]
  %var96[FLOAT, 88]
  %scale97[FLOAT, 88]
  %bias97[FLOAT, 88]
  %mean97[FLOAT, 88]
  %var97[FLOAT, 88]
  %scale98[FLOAT, 88]
  %bias98[FLOAT, 88]
  %mean98[FLOAT, 88]
  %var98[FLOAT, 88]
  %scale99[FLOAT, 88]
  %bias99[FLOAT, 88]
  %mean99[FLOAT, 88]
  %var99[FLOAT, 88]
  %Pad6_pads[INT64, 8]
  %Pad6_value[FLOAT, scalar]
  %reduction_A_block_reduce_4_1/block_2/separable_conv_block_reduction_right2_reduce_4/separable_conv_2_reduction_right2_reduce_4/depthwise_kernel:0[FLOAT, 88x1x7x7]
  %W75[FLOAT, 88x88x1x1]
  %reduction_A_block_reduce_4_1/block_3/separable_conv_block_reduction_right3_reduce_4/separable_conv_2_reduction_right3_reduce_4/depthwise_kernel:0[FLOAT, 88x1x5x5]
  %W76[FLOAT, 88x88x1x1]
  %reduction_A_block_reduce_4_1/block_5/separable_conv_block_reduction_left4_reduce_4/separable_conv_2_reduction_left4_reduce_4/depthwise_kernel:0[FLOAT, 88x1x3x3]
  %W77[FLOAT, 88x88x1x1]
  %scale100[FLOAT, 88]
  %bias100[FLOAT, 88]
  %mean100[FLOAT, 88]
  %var100[FLOAT, 88]
  %scale101[FLOAT, 88]
  %bias101[FLOAT, 88]
  %mean101[FLOAT, 88]
  %var101[FLOAT, 88]
  %scale102[FLOAT, 88]
  %bias102[FLOAT, 88]
  %mean102[FLOAT, 88]
  %var102[FLOAT, 88]
  %scale103[FLOAT, 88]
  %bias103[FLOAT, 88]
  %mean103[FLOAT, 88]
  %var103[FLOAT, 88]
  %scale104[FLOAT, 88]
  %bias104[FLOAT, 88]
  %mean104[FLOAT, 88]
  %var104[FLOAT, 88]
  %scale105[FLOAT, 88]
  %bias105[FLOAT, 88]
  %mean105[FLOAT, 88]
  %var105[FLOAT, 88]
  %normal_A_block_7_1/block_1/separable_conv_block_normal_left1_7/separable_conv_1_normal_left1_7/depthwise_kernel:0[FLOAT, 88x1x5x5]
  %W78[FLOAT, 88x88x1x1]
  %normal_A_block_7_1/block_1/separable_conv_block_normal_right1_7/separable_conv_1_normal_right1_7/depthwise_kernel:0[FLOAT, 88x1x3x3]
  %W79[FLOAT, 88x88x1x1]
  %normal_A_block_7_1/block_2/separable_conv_block_normal_left2_7/separable_conv_1_normal_left2_7/depthwise_kernel:0[FLOAT, 88x1x5x5]
  %W80[FLOAT, 88x88x1x1]
  %normal_A_block_7_1/block_2/separable_conv_block_normal_right2_7/separable_conv_1_normal_right2_7/depthwise_kernel:0[FLOAT, 88x1x3x3]
  %W81[FLOAT, 88x88x1x1]
  %normal_A_block_7_1/block_5/separable_conv_block_normal_left5_7/separable_conv_1_normal_left5_7/depthwise_kernel:0[FLOAT, 88x1x3x3]
  %W82[FLOAT, 88x88x1x1]
  %scale106[FLOAT, 88]
  %bias106[FLOAT, 88]
  %mean106[FLOAT, 88]
  %var106[FLOAT, 88]
  %scale107[FLOAT, 88]
  %bias107[FLOAT, 88]
  %mean107[FLOAT, 88]
  %var107[FLOAT, 88]
  %scale108[FLOAT, 88]
  %bias108[FLOAT, 88]
  %mean108[FLOAT, 88]
  %var108[FLOAT, 88]
  %normal_A_block_5_1/adjust_block/adjust_reduction_block_5/adjust_conv_1_5/kernel:0[FLOAT, 44x264x1x1]
  %normal_A_block_5_1/adjust_block/adjust_reduction_block_5/adjust_conv_2_5/kernel:0[FLOAT, 44x264x1x1]
  %normal_A_block_5_1/block_1/separable_conv_block_normal_left1_5/separable_conv_2_normal_left1_5/depthwise_kernel:0[FLOAT, 88x1x5x5]
  %W83[FLOAT, 88x88x1x1]
  %normal_A_block_5_1/block_1/separable_conv_block_normal_right1_5/separable_conv_2_normal_right1_5/depthwise_kernel:0[FLOAT, 88x1x3x3]
  %W84[FLOAT, 88x88x1x1]
  %normal_A_block_5_1/block_2/separable_conv_block_normal_left2_5/separable_conv_2_normal_left2_5/depthwise_kernel:0[FLOAT, 88x1x5x5]
  %W85[FLOAT, 88x88x1x1]
  %normal_A_block_5_1/block_2/separable_conv_block_normal_right2_5/separable_conv_2_normal_right2_5/depthwise_kernel:0[FLOAT, 88x1x3x3]
  %W86[FLOAT, 88x88x1x1]
  %normal_A_block_5_1/block_5/separable_conv_block_normal_left5_5/separable_conv_2_normal_left5_5/depthwise_kernel:0[FLOAT, 88x1x3x3]
  %W87[FLOAT, 88x88x1x1]
  %normal_A_block_5_1/normal_conv_1_5/kernel:0[FLOAT, 88x352x1x1]
  %reduction_A_block_reduce_4_1/reduction_conv_1_reduce_4/kernel:0[FLOAT, 88x264x1x1]
  %scale109[FLOAT, 88]
  %bias109[FLOAT, 88]
  %mean109[FLOAT, 88]
  %var109[FLOAT, 88]
  %scale110[FLOAT, 88]
  %bias110[FLOAT, 88]
  %mean110[FLOAT, 88]
  %var110[FLOAT, 88]
  %reduction_A_block_reduce_4_1/block_1/separable_conv_block_reduction_left1_reduce_4/separable_conv_2_reduction_left1_reduce_4/depthwise_kernel:0[FLOAT, 88x1x5x5]
  %W88[FLOAT, 88x88x1x1]
  %reduction_A_block_reduce_4_1/block_1/separable_conv_block_reduction_right1_reduce_4/separable_conv_2_reduction_right1_reduce_4/depthwise_kernel:0[FLOAT, 88x1x7x7]
  %W89[FLOAT, 88x88x1x1]
  %scale111[FLOAT, 88]
  %bias111[FLOAT, 88]
  %mean111[FLOAT, 88]
  %var111[FLOAT, 88]
  %reduction_A_block_reduce_4_1/block_2/separable_conv_block_reduction_right2_reduce_4/separable_conv_1_reduction_right2_reduce_4/depthwise_kernel:0[FLOAT, 88x1x7x7]
  %W90[FLOAT, 88x88x1x1]
  %reduction_A_block_reduce_4_1/block_3/separable_conv_block_reduction_right3_reduce_4/separable_conv_1_reduction_right3_reduce_4/depthwise_kernel:0[FLOAT, 88x1x5x5]
  %W91[FLOAT, 88x88x1x1]
  %reduction_A_block_reduce_4_1/block_5/separable_conv_block_reduction_left4_reduce_4/separable_conv_1_reduction_left4_reduce_4/depthwise_kernel:0[FLOAT, 88x1x3x3]
  %W92[FLOAT, 88x88x1x1]
  %normal_A_block_5_1/adjust_block/adjust_reduction_block_5/zero_padding2d_13/Pad:0_cropping_start[INT64, 4]
  %normal_A_block_5_1/adjust_block/adjust_reduction_block_5/zero_padding2d_13/Pad:0_cropping_end[INT64, 4]
  %normal_A_block_5_1/adjust_block/adjust_reduction_block_5/zero_padding2d_13/Pad:0_cropping_axes[INT64, 4]
  %scale112[FLOAT, 88]
  %bias112[FLOAT, 88]
  %mean112[FLOAT, 88]
  %var112[FLOAT, 88]
  %scale113[FLOAT, 88]
  %bias113[FLOAT, 88]
  %mean113[FLOAT, 88]
  %var113[FLOAT, 88]
  %scale114[FLOAT, 88]
  %bias114[FLOAT, 88]
  %mean114[FLOAT, 88]
  %var114[FLOAT, 88]
  %scale115[FLOAT, 88]
  %bias115[FLOAT, 88]
  %mean115[FLOAT, 88]
  %var115[FLOAT, 88]
  %scale116[FLOAT, 88]
  %bias116[FLOAT, 88]
  %mean116[FLOAT, 88]
  %var116[FLOAT, 88]
  %Pad7_pads[INT64, 8]
  %Pad7_value[FLOAT, scalar]
  %Pad8_pads[INT64, 8]
  %Pad8_value[FLOAT, scalar]
  %scale117[FLOAT, 88]
  %bias117[FLOAT, 88]
  %mean117[FLOAT, 88]
  %var117[FLOAT, 88]
  %scale118[FLOAT, 88]
  %bias118[FLOAT, 88]
  %mean118[FLOAT, 88]
  %var118[FLOAT, 88]
  %Pad9_pads[INT64, 8]
  %Pad9_value[FLOAT, scalar]
  %normal_A_block_5_1/block_1/separable_conv_block_normal_left1_5/separable_conv_1_normal_left1_5/depthwise_kernel:0[FLOAT, 88x1x5x5]
  %W93[FLOAT, 88x88x1x1]
  %normal_A_block_5_1/block_1/separable_conv_block_normal_right1_5/separable_conv_1_normal_right1_5/depthwise_kernel:0[FLOAT, 88x1x3x3]
  %W94[FLOAT, 88x88x1x1]
  %normal_A_block_5_1/block_2/separable_conv_block_normal_left2_5/separable_conv_1_normal_left2_5/depthwise_kernel:0[FLOAT, 88x1x5x5]
  %W95[FLOAT, 88x88x1x1]
  %normal_A_block_5_1/block_2/separable_conv_block_normal_right2_5/separable_conv_1_normal_right2_5/depthwise_kernel:0[FLOAT, 88x1x3x3]
  %W96[FLOAT, 88x88x1x1]
  %normal_A_block_5_1/block_5/separable_conv_block_normal_left5_5/separable_conv_1_normal_left5_5/depthwise_kernel:0[FLOAT, 88x1x3x3]
  %W97[FLOAT, 88x88x1x1]
  %scale119[FLOAT, 44]
  %bias119[FLOAT, 44]
  %mean119[FLOAT, 44]
  %var119[FLOAT, 44]
  %reduction_A_block_reduce_4_1/block_1/separable_conv_block_reduction_left1_reduce_4/separable_conv_1_reduction_left1_reduce_4/depthwise_kernel:0[FLOAT, 88x1x5x5]
  %W98[FLOAT, 88x88x1x1]
  %reduction_A_block_reduce_4_1/block_1/separable_conv_block_reduction_right1_reduce_4/separable_conv_1_reduction_right1_reduce_4/depthwise_kernel:0[FLOAT, 88x1x7x7]
  %W99[FLOAT, 88x88x1x1]
  %normal_A_block_3_1/adjust_block/adjust_projection_block_3/adjust_conv_projection_3/kernel:0[FLOAT, 44x264x1x1]
  %scale120[FLOAT, 44]
  %bias120[FLOAT, 44]
  %mean120[FLOAT, 44]
  %var120[FLOAT, 44]
  %scale121[FLOAT, 44]
  %bias121[FLOAT, 44]
  %mean121[FLOAT, 44]
  %var121[FLOAT, 44]
  %scale122[FLOAT, 44]
  %bias122[FLOAT, 44]
  %mean122[FLOAT, 44]
  %var122[FLOAT, 44]
  %scale123[FLOAT, 44]
  %bias123[FLOAT, 44]
  %mean123[FLOAT, 44]
  %var123[FLOAT, 44]
  %scale124[FLOAT, 44]
  %bias124[FLOAT, 44]
  %mean124[FLOAT, 44]
  %var124[FLOAT, 44]
  %scale125[FLOAT, 44]
  %bias125[FLOAT, 44]
  %mean125[FLOAT, 44]
  %var125[FLOAT, 44]
  %scale126[FLOAT, 88]
  %bias126[FLOAT, 88]
  %mean126[FLOAT, 88]
  %var126[FLOAT, 88]
  %Pad10_pads[INT64, 8]
  %Pad10_value[FLOAT, scalar]
  %Pad11_pads[INT64, 8]
  %Pad11_value[FLOAT, scalar]
  %normal_A_block_3_1/block_1/separable_conv_block_normal_left1_3/separable_conv_2_normal_left1_3/depthwise_kernel:0[FLOAT, 44x1x5x5]
  %W100[FLOAT, 44x44x1x1]
  %normal_A_block_3_1/block_1/separable_conv_block_normal_right1_3/separable_conv_2_normal_right1_3/depthwise_kernel:0[FLOAT, 44x1x3x3]
  %W101[FLOAT, 44x44x1x1]
  %normal_A_block_3_1/block_2/separable_conv_block_normal_left2_3/separable_conv_2_normal_left2_3/depthwise_kernel:0[FLOAT, 44x1x5x5]
  %W102[FLOAT, 44x44x1x1]
  %normal_A_block_3_1/block_2/separable_conv_block_normal_right2_3/separable_conv_2_normal_right2_3/depthwise_kernel:0[FLOAT, 44x1x3x3]
  %W103[FLOAT, 44x44x1x1]
  %normal_A_block_3_1/block_5/separable_conv_block_normal_left5_3/separable_conv_2_normal_left5_3/depthwise_kernel:0[FLOAT, 44x1x3x3]
  %W104[FLOAT, 44x44x1x1]
  %normal_A_block_3_1/normal_conv_1_3/kernel:0[FLOAT, 44x264x1x1]
  %reduction_A_block_reduce_4_1/adjust_block/adjust_projection_block_reduce_4/adjust_conv_projection_reduce_4/kernel:0[FLOAT, 88x264x1x1]
  %scale127[FLOAT, 44]
  %bias127[FLOAT, 44]
  %mean127[FLOAT, 44]
  %var127[FLOAT, 44]
  %scale128[FLOAT, 44]
  %bias128[FLOAT, 44]
  %mean128[FLOAT, 44]
  %var128[FLOAT, 44]
  %scale129[FLOAT, 44]
  %bias129[FLOAT, 44]
  %mean129[FLOAT, 44]
  %var129[FLOAT, 44]
  %scale130[FLOAT, 44]
  %bias130[FLOAT, 44]
  %mean130[FLOAT, 44]
  %var130[FLOAT, 44]
  %scale131[FLOAT, 44]
  %bias131[FLOAT, 44]
  %mean131[FLOAT, 44]
  %var131[FLOAT, 44]
  %scale132[FLOAT, 44]
  %bias132[FLOAT, 44]
  %mean132[FLOAT, 44]
  %var132[FLOAT, 44]
  %normal_A_block_1_1/adjust_block/adjust_projection_block_1/adjust_conv_projection_1/kernel:0[FLOAT, 44x88x1x1]
  %scale133[FLOAT, 44]
  %bias133[FLOAT, 44]
  %mean133[FLOAT, 44]
  %var133[FLOAT, 44]
  %scale134[FLOAT, 44]
  %bias134[FLOAT, 44]
  %mean134[FLOAT, 44]
  %var134[FLOAT, 44]
  %scale135[FLOAT, 44]
  %bias135[FLOAT, 44]
  %mean135[FLOAT, 44]
  %var135[FLOAT, 44]
  %scale136[FLOAT, 44]
  %bias136[FLOAT, 44]
  %mean136[FLOAT, 44]
  %var136[FLOAT, 44]
  %scale137[FLOAT, 44]
  %bias137[FLOAT, 44]
  %mean137[FLOAT, 44]
  %var137[FLOAT, 44]
  %scale138[FLOAT, 44]
  %bias138[FLOAT, 44]
  %mean138[FLOAT, 44]
  %var138[FLOAT, 44]
  %normal_A_block_3_1/block_1/separable_conv_block_normal_left1_3/separable_conv_1_normal_left1_3/depthwise_kernel:0[FLOAT, 44x1x5x5]
  %W105[FLOAT, 44x44x1x1]
  %normal_A_block_3_1/block_1/separable_conv_block_normal_right1_3/separable_conv_1_normal_right1_3/depthwise_kernel:0[FLOAT, 44x1x3x3]
  %W106[FLOAT, 44x44x1x1]
  %normal_A_block_3_1/block_2/separable_conv_block_normal_left2_3/separable_conv_1_normal_left2_3/depthwise_kernel:0[FLOAT, 44x1x5x5]
  %W107[FLOAT, 44x44x1x1]
  %normal_A_block_3_1/block_2/separable_conv_block_normal_right2_3/separable_conv_1_normal_right2_3/depthwise_kernel:0[FLOAT, 44x1x3x3]
  %W108[FLOAT, 44x44x1x1]
  %normal_A_block_3_1/block_5/separable_conv_block_normal_left5_3/separable_conv_1_normal_left5_3/depthwise_kernel:0[FLOAT, 44x1x3x3]
  %W109[FLOAT, 44x44x1x1]
  %scale139[FLOAT, 44]
  %bias139[FLOAT, 44]
  %mean139[FLOAT, 44]
  %var139[FLOAT, 44]
  %normal_A_block_1_1/block_1/separable_conv_block_normal_left1_1/separable_conv_2_normal_left1_1/depthwise_kernel:0[FLOAT, 44x1x5x5]
  %W110[FLOAT, 44x44x1x1]
  %normal_A_block_1_1/block_1/separable_conv_block_normal_right1_1/separable_conv_2_normal_right1_1/depthwise_kernel:0[FLOAT, 44x1x3x3]
  %W111[FLOAT, 44x44x1x1]
  %normal_A_block_1_1/block_2/separable_conv_block_normal_left2_1/separable_conv_2_normal_left2_1/depthwise_kernel:0[FLOAT, 44x1x5x5]
  %W112[FLOAT, 44x44x1x1]
  %normal_A_block_1_1/block_2/separable_conv_block_normal_right2_1/separable_conv_2_normal_right2_1/depthwise_kernel:0[FLOAT, 44x1x3x3]
  %W113[FLOAT, 44x44x1x1]
  %normal_A_block_1_1/block_5/separable_conv_block_normal_left5_1/separable_conv_2_normal_left5_1/depthwise_kernel:0[FLOAT, 44x1x3x3]
  %W114[FLOAT, 44x44x1x1]
  %normal_A_block_1_1/normal_conv_1_1/kernel:0[FLOAT, 44x264x1x1]
  %normal_A_block_2_1/adjust_block/adjust_projection_block_2/adjust_conv_projection_2/kernel:0[FLOAT, 44x264x1x1]
  %scale140[FLOAT, 44]
  %bias140[FLOAT, 44]
  %mean140[FLOAT, 44]
  %var140[FLOAT, 44]
  %scale141[FLOAT, 44]
  %bias141[FLOAT, 44]
  %mean141[FLOAT, 44]
  %var141[FLOAT, 44]
  %scale142[FLOAT, 44]
  %bias142[FLOAT, 44]
  %mean142[FLOAT, 44]
  %var142[FLOAT, 44]
  %scale143[FLOAT, 44]
  %bias143[FLOAT, 44]
  %mean143[FLOAT, 44]
  %var143[FLOAT, 44]
  %scale144[FLOAT, 44]
  %bias144[FLOAT, 44]
  %mean144[FLOAT, 44]
  %var144[FLOAT, 44]
  %scale145[FLOAT, 44]
  %bias145[FLOAT, 44]
  %mean145[FLOAT, 44]
  %var145[FLOAT, 44]
  %normal_A_block_2_1/block_1/separable_conv_block_normal_left1_2/separable_conv_2_normal_left1_2/depthwise_kernel:0[FLOAT, 44x1x5x5]
  %W115[FLOAT, 44x44x1x1]
  %normal_A_block_2_1/block_1/separable_conv_block_normal_right1_2/separable_conv_2_normal_right1_2/depthwise_kernel:0[FLOAT, 44x1x3x3]
  %W116[FLOAT, 44x44x1x1]
  %normal_A_block_2_1/block_2/separable_conv_block_normal_left2_2/separable_conv_2_normal_left2_2/depthwise_kernel:0[FLOAT, 44x1x5x5]
  %W117[FLOAT, 44x44x1x1]
  %normal_A_block_2_1/block_2/separable_conv_block_normal_right2_2/separable_conv_2_normal_right2_2/depthwise_kernel:0[FLOAT, 44x1x3x3]
  %W118[FLOAT, 44x44x1x1]
  %normal_A_block_2_1/block_5/separable_conv_block_normal_left5_2/separable_conv_2_normal_left5_2/depthwise_kernel:0[FLOAT, 44x1x3x3]
  %W119[FLOAT, 44x44x1x1]
  %normal_A_block_2_1/normal_conv_1_2/kernel:0[FLOAT, 44x264x1x1]
  %scale146[FLOAT, 44]
  %bias146[FLOAT, 44]
  %mean146[FLOAT, 44]
  %var146[FLOAT, 44]
  %scale147[FLOAT, 44]
  %bias147[FLOAT, 44]
  %mean147[FLOAT, 44]
  %var147[FLOAT, 44]
  %scale148[FLOAT, 44]
  %bias148[FLOAT, 44]
  %mean148[FLOAT, 44]
  %var148[FLOAT, 44]
  %scale149[FLOAT, 44]
  %bias149[FLOAT, 44]
  %mean149[FLOAT, 44]
  %var149[FLOAT, 44]
  %scale150[FLOAT, 44]
  %bias150[FLOAT, 44]
  %mean150[FLOAT, 44]
  %var150[FLOAT, 44]
  %scale151[FLOAT, 22]
  %bias151[FLOAT, 22]
  %mean151[FLOAT, 22]
  %var151[FLOAT, 22]
  %scale152[FLOAT, 22]
  %bias152[FLOAT, 22]
  %mean152[FLOAT, 22]
  %var152[FLOAT, 22]
  %scale153[FLOAT, 22]
  %bias153[FLOAT, 22]
  %mean153[FLOAT, 22]
  %var153[FLOAT, 22]
  %normal_A_block_1_1/block_1/separable_conv_block_normal_left1_1/separable_conv_1_normal_left1_1/depthwise_kernel:0[FLOAT, 44x1x5x5]
  %W120[FLOAT, 44x44x1x1]
  %normal_A_block_1_1/block_1/separable_conv_block_normal_right1_1/separable_conv_1_normal_right1_1/depthwise_kernel:0[FLOAT, 44x1x3x3]
  %W121[FLOAT, 44x44x1x1]
  %normal_A_block_1_1/block_2/separable_conv_block_normal_left2_1/separable_conv_1_normal_left2_1/depthwise_kernel:0[FLOAT, 44x1x5x5]
  %W122[FLOAT, 44x44x1x1]
  %normal_A_block_1_1/block_2/separable_conv_block_normal_right2_1/separable_conv_1_normal_right2_1/depthwise_kernel:0[FLOAT, 44x1x3x3]
  %W123[FLOAT, 44x44x1x1]
  %normal_A_block_1_1/block_5/separable_conv_block_normal_left5_1/separable_conv_1_normal_left5_1/depthwise_kernel:0[FLOAT, 44x1x3x3]
  %W124[FLOAT, 44x44x1x1]
  %scale154[FLOAT, 44]
  %bias154[FLOAT, 44]
  %mean154[FLOAT, 44]
  %var154[FLOAT, 44]
  %scale155[FLOAT, 44]
  %bias155[FLOAT, 44]
  %mean155[FLOAT, 44]
  %var155[FLOAT, 44]
  %scale156[FLOAT, 44]
  %bias156[FLOAT, 44]
  %mean156[FLOAT, 44]
  %var156[FLOAT, 44]
  %scale157[FLOAT, 44]
  %bias157[FLOAT, 44]
  %mean157[FLOAT, 44]
  %var157[FLOAT, 44]
  %scale158[FLOAT, 44]
  %bias158[FLOAT, 44]
  %mean158[FLOAT, 44]
  %var158[FLOAT, 44]
  %scale159[FLOAT, 44]
  %bias159[FLOAT, 44]
  %mean159[FLOAT, 44]
  %var159[FLOAT, 44]
  %Pad12_pads[INT64, 8]
  %Pad12_value[FLOAT, scalar]
  %reduction_A_block_stem_2_1/block_2/separable_conv_block_reduction_right2_stem_2/separable_conv_2_reduction_right2_stem_2/depthwise_kernel:0[FLOAT, 22x1x7x7]
  %W125[FLOAT, 22x22x1x1]
  %reduction_A_block_stem_2_1/block_3/separable_conv_block_reduction_right3_stem_2/separable_conv_2_reduction_right3_stem_2/depthwise_kernel:0[FLOAT, 22x1x5x5]
  %W126[FLOAT, 22x22x1x1]
  %reduction_A_block_stem_2_1/block_5/separable_conv_block_reduction_left4_stem_2/separable_conv_2_reduction_left4_stem_2/depthwise_kernel:0[FLOAT, 22x1x3x3]
  %W127[FLOAT, 22x22x1x1]
  %scale160[FLOAT, 44]
  %bias160[FLOAT, 44]
  %mean160[FLOAT, 44]
  %var160[FLOAT, 44]
  %scale161[FLOAT, 44]
  %bias161[FLOAT, 44]
  %mean161[FLOAT, 44]
  %var161[FLOAT, 44]
  %scale162[FLOAT, 44]
  %bias162[FLOAT, 44]
  %mean162[FLOAT, 44]
  %var162[FLOAT, 44]
  %scale163[FLOAT, 44]
  %bias163[FLOAT, 44]
  %mean163[FLOAT, 44]
  %var163[FLOAT, 44]
  %scale164[FLOAT, 44]
  %bias164[FLOAT, 44]
  %mean164[FLOAT, 44]
  %var164[FLOAT, 44]
  %scale165[FLOAT, 44]
  %bias165[FLOAT, 44]
  %mean165[FLOAT, 44]
  %var165[FLOAT, 44]
  %normal_A_block_2_1/block_1/separable_conv_block_normal_left1_2/separable_conv_1_normal_left1_2/depthwise_kernel:0[FLOAT, 44x1x5x5]
  %W128[FLOAT, 44x44x1x1]
  %normal_A_block_2_1/block_1/separable_conv_block_normal_right1_2/separable_conv_1_normal_right1_2/depthwise_kernel:0[FLOAT, 44x1x3x3]
  %W129[FLOAT, 44x44x1x1]
  %normal_A_block_2_1/block_2/separable_conv_block_normal_left2_2/separable_conv_1_normal_left2_2/depthwise_kernel:0[FLOAT, 44x1x5x5]
  %W130[FLOAT, 44x44x1x1]
  %normal_A_block_2_1/block_2/separable_conv_block_normal_right2_2/separable_conv_1_normal_right2_2/depthwise_kernel:0[FLOAT, 44x1x3x3]
  %W131[FLOAT, 44x44x1x1]
  %normal_A_block_2_1/block_5/separable_conv_block_normal_left5_2/separable_conv_1_normal_left5_2/depthwise_kernel:0[FLOAT, 44x1x3x3]
  %W132[FLOAT, 44x44x1x1]
  %scale166[FLOAT, 22]
  %bias166[FLOAT, 22]
  %mean166[FLOAT, 22]
  %var166[FLOAT, 22]
  %scale167[FLOAT, 22]
  %bias167[FLOAT, 22]
  %mean167[FLOAT, 22]
  %var167[FLOAT, 22]
  %scale168[FLOAT, 22]
  %bias168[FLOAT, 22]
  %mean168[FLOAT, 22]
  %var168[FLOAT, 22]
  %normal_A_block_0_1/adjust_block/adjust_reduction_block_0/adjust_conv_1_0/kernel:0[FLOAT, 22x44x1x1]
  %normal_A_block_0_1/adjust_block/adjust_reduction_block_0/adjust_conv_2_0/kernel:0[FLOAT, 22x44x1x1]
  %normal_A_block_0_1/block_1/separable_conv_block_normal_left1_0/separable_conv_2_normal_left1_0/depthwise_kernel:0[FLOAT, 44x1x5x5]
  %W133[FLOAT, 44x44x1x1]
  %normal_A_block_0_1/block_1/separable_conv_block_normal_right1_0/separable_conv_2_normal_right1_0/depthwise_kernel:0[FLOAT, 44x1x3x3]
  %W134[FLOAT, 44x44x1x1]
  %normal_A_block_0_1/block_2/separable_conv_block_normal_left2_0/separable_conv_2_normal_left2_0/depthwise_kernel:0[FLOAT, 44x1x5x5]
  %W135[FLOAT, 44x44x1x1]
  %normal_A_block_0_1/block_2/separable_conv_block_normal_right2_0/separable_conv_2_normal_right2_0/depthwise_kernel:0[FLOAT, 44x1x3x3]
  %W136[FLOAT, 44x44x1x1]
  %normal_A_block_0_1/block_5/separable_conv_block_normal_left5_0/separable_conv_2_normal_left5_0/depthwise_kernel:0[FLOAT, 44x1x3x3]
  %W137[FLOAT, 44x44x1x1]
  %normal_A_block_0_1/normal_conv_1_0/kernel:0[FLOAT, 44x88x1x1]
  %reduction_A_block_stem_2_1/reduction_conv_1_stem_2/kernel:0[FLOAT, 22x44x1x1]
  %scale169[FLOAT, 22]
  %bias169[FLOAT, 22]
  %mean169[FLOAT, 22]
  %var169[FLOAT, 22]
  %scale170[FLOAT, 22]
  %bias170[FLOAT, 22]
  %mean170[FLOAT, 22]
  %var170[FLOAT, 22]
  %reduction_A_block_stem_2_1/block_1/separable_conv_block_reduction_left1_stem_2/separable_conv_2_reduction_left1_stem_2/depthwise_kernel:0[FLOAT, 22x1x5x5]
  %W138[FLOAT, 22x22x1x1]
  %reduction_A_block_stem_2_1/block_1/separable_conv_block_reduction_right1_stem_2/separable_conv_2_reduction_right1_stem_2/depthwise_kernel:0[FLOAT, 22x1x7x7]
  %W139[FLOAT, 22x22x1x1]
  %scale171[FLOAT, 22]
  %bias171[FLOAT, 22]
  %mean171[FLOAT, 22]
  %var171[FLOAT, 22]
  %reduction_A_block_stem_2_1/block_2/separable_conv_block_reduction_right2_stem_2/separable_conv_1_reduction_right2_stem_2/depthwise_kernel:0[FLOAT, 22x1x7x7]
  %W140[FLOAT, 22x22x1x1]
  %reduction_A_block_stem_2_1/block_3/separable_conv_block_reduction_right3_stem_2/separable_conv_1_reduction_right3_stem_2/depthwise_kernel:0[FLOAT, 22x1x5x5]
  %W141[FLOAT, 22x22x1x1]
  %reduction_A_block_stem_2_1/block_5/separable_conv_block_reduction_left4_stem_2/separable_conv_1_reduction_left4_stem_2/depthwise_kernel:0[FLOAT, 22x1x3x3]
  %W142[FLOAT, 22x22x1x1]
  %normal_A_block_0_1/adjust_block/adjust_reduction_block_0/zero_padding2d_12/Pad:0_cropping_start[INT64, 4]
  %normal_A_block_0_1/adjust_block/adjust_reduction_block_0/zero_padding2d_12/Pad:0_cropping_end[INT64, 4]
  %normal_A_block_0_1/adjust_block/adjust_reduction_block_0/zero_padding2d_12/Pad:0_cropping_axes[INT64, 4]
  %scale172[FLOAT, 44]
  %bias172[FLOAT, 44]
  %mean172[FLOAT, 44]
  %var172[FLOAT, 44]
  %scale173[FLOAT, 44]
  %bias173[FLOAT, 44]
  %mean173[FLOAT, 44]
  %var173[FLOAT, 44]
  %scale174[FLOAT, 44]
  %bias174[FLOAT, 44]
  %mean174[FLOAT, 44]
  %var174[FLOAT, 44]
  %scale175[FLOAT, 44]
  %bias175[FLOAT, 44]
  %mean175[FLOAT, 44]
  %var175[FLOAT, 44]
  %scale176[FLOAT, 44]
  %bias176[FLOAT, 44]
  %mean176[FLOAT, 44]
  %var176[FLOAT, 44]
  %Pad13_pads[INT64, 8]
  %Pad13_value[FLOAT, scalar]
  %Pad14_pads[INT64, 8]
  %Pad14_value[FLOAT, scalar]
  %scale177[FLOAT, 22]
  %bias177[FLOAT, 22]
  %mean177[FLOAT, 22]
  %var177[FLOAT, 22]
  %scale178[FLOAT, 22]
  %bias178[FLOAT, 22]
  %mean178[FLOAT, 22]
  %var178[FLOAT, 22]
  %Pad15_pads[INT64, 8]
  %Pad15_value[FLOAT, scalar]
  %normal_A_block_0_1/block_1/separable_conv_block_normal_left1_0/separable_conv_1_normal_left1_0/depthwise_kernel:0[FLOAT, 44x1x5x5]
  %W143[FLOAT, 44x44x1x1]
  %normal_A_block_0_1/block_1/separable_conv_block_normal_right1_0/separable_conv_1_normal_right1_0/depthwise_kernel:0[FLOAT, 44x1x3x3]
  %W144[FLOAT, 44x44x1x1]
  %normal_A_block_0_1/block_2/separable_conv_block_normal_left2_0/separable_conv_1_normal_left2_0/depthwise_kernel:0[FLOAT, 44x1x5x5]
  %W145[FLOAT, 44x44x1x1]
  %normal_A_block_0_1/block_2/separable_conv_block_normal_right2_0/separable_conv_1_normal_right2_0/depthwise_kernel:0[FLOAT, 44x1x3x3]
  %W146[FLOAT, 44x44x1x1]
  %normal_A_block_0_1/block_5/separable_conv_block_normal_left5_0/separable_conv_1_normal_left5_0/depthwise_kernel:0[FLOAT, 44x1x3x3]
  %W147[FLOAT, 44x44x1x1]
  %reduction_A_block_stem_2_1/block_1/separable_conv_block_reduction_left1_stem_2/separable_conv_1_reduction_left1_stem_2/depthwise_kernel:0[FLOAT, 22x1x5x5]
  %W148[FLOAT, 22x22x1x1]
  %reduction_A_block_stem_2_1/block_1/separable_conv_block_reduction_right1_stem_2/separable_conv_1_reduction_right1_stem_2/depthwise_kernel:0[FLOAT, 22x1x7x7]
  %W149[FLOAT, 22x22x1x1]
  %scale179[FLOAT, 11]
  %bias179[FLOAT, 11]
  %mean179[FLOAT, 11]
  %var179[FLOAT, 11]
  %scale180[FLOAT, 11]
  %bias180[FLOAT, 11]
  %mean180[FLOAT, 11]
  %var180[FLOAT, 11]
  %scale181[FLOAT, 11]
  %bias181[FLOAT, 11]
  %mean181[FLOAT, 11]
  %var181[FLOAT, 11]
  %scale182[FLOAT, 22]
  %bias182[FLOAT, 22]
  %mean182[FLOAT, 22]
  %var182[FLOAT, 22]
  %Pad16_pads[INT64, 8]
  %Pad16_value[FLOAT, scalar]
  %Pad17_pads[INT64, 8]
  %Pad17_value[FLOAT, scalar]
  %Pad18_pads[INT64, 8]
  %Pad18_value[FLOAT, scalar]
  %reduction_A_block_stem_1_1/block_2/separable_conv_block_reduction_right2_stem_1/separable_conv_2_reduction_right2_stem_1/depthwise_kernel:0[FLOAT, 11x1x7x7]
  %W150[FLOAT, 11x11x1x1]
  %reduction_A_block_stem_1_1/block_3/separable_conv_block_reduction_right3_stem_1/separable_conv_2_reduction_right3_stem_1/depthwise_kernel:0[FLOAT, 11x1x5x5]
  %W151[FLOAT, 11x11x1x1]
  %reduction_A_block_stem_1_1/block_5/separable_conv_block_reduction_left4_stem_1/separable_conv_2_reduction_left4_stem_1/depthwise_kernel:0[FLOAT, 11x1x3x3]
  %W152[FLOAT, 11x11x1x1]
  %scale183[FLOAT, 11]
  %bias183[FLOAT, 11]
  %mean183[FLOAT, 11]
  %var183[FLOAT, 11]
  %scale184[FLOAT, 11]
  %bias184[FLOAT, 11]
  %mean184[FLOAT, 11]
  %var184[FLOAT, 11]
  %scale185[FLOAT, 11]
  %bias185[FLOAT, 11]
  %mean185[FLOAT, 11]
  %var185[FLOAT, 11]
  %reduction_A_block_stem_2_1/adjust_block/adjust_reduction_block_stem_2/adjust_conv_1_stem_2/kernel:0[FLOAT, 11x32x1x1]
  %reduction_A_block_stem_2_1/adjust_block/adjust_reduction_block_stem_2/adjust_conv_2_stem_2/kernel:0[FLOAT, 11x32x1x1]
  %reduction_A_block_stem_1_1/reduction_conv_1_stem_1/kernel:0[FLOAT, 11x32x1x1]
  %scale186[FLOAT, 11]
  %bias186[FLOAT, 11]
  %mean186[FLOAT, 11]
  %var186[FLOAT, 11]
  %scale187[FLOAT, 11]
  %bias187[FLOAT, 11]
  %mean187[FLOAT, 11]
  %var187[FLOAT, 11]
  %reduction_A_block_stem_1_1/block_1/separable_conv_block_reduction_left1_stem_1/separable_conv_2_reduction_left1_stem_1/depthwise_kernel:0[FLOAT, 11x1x5x5]
  %W153[FLOAT, 11x11x1x1]
  %reduction_A_block_stem_1_1/block_1/separable_conv_block_reduction_right1_stem_1/separable_conv_2_reduction_right1_stem_1/depthwise_kernel:0[FLOAT, 11x1x7x7]
  %W154[FLOAT, 11x11x1x1]
  %scale188[FLOAT, 11]
  %bias188[FLOAT, 11]
  %mean188[FLOAT, 11]
  %var188[FLOAT, 11]
  %reduction_A_block_stem_1_1/block_2/separable_conv_block_reduction_right2_stem_1/separable_conv_1_reduction_right2_stem_1/depthwise_kernel:0[FLOAT, 32x1x7x7]
  %W155[FLOAT, 11x32x1x1]
  %reduction_A_block_stem_1_1/block_3/separable_conv_block_reduction_right3_stem_1/separable_conv_1_reduction_right3_stem_1/depthwise_kernel:0[FLOAT, 32x1x5x5]
  %W156[FLOAT, 11x32x1x1]
  %reduction_A_block_stem_1_1/block_5/separable_conv_block_reduction_left4_stem_1/separable_conv_1_reduction_left4_stem_1/depthwise_kernel:0[FLOAT, 11x1x3x3]
  %W157[FLOAT, 11x11x1x1]
  %reduction_A_block_stem_2_1/adjust_block/adjust_reduction_block_stem_2/zero_padding2d_11/Pad:0_cropping_start[INT64, 4]
  %reduction_A_block_stem_2_1/adjust_block/adjust_reduction_block_stem_2/zero_padding2d_11/Pad:0_cropping_end[INT64, 4]
  %reduction_A_block_stem_2_1/adjust_block/adjust_reduction_block_stem_2/zero_padding2d_11/Pad:0_cropping_axes[INT64, 4]
  %scale189[FLOAT, 32]
  %bias189[FLOAT, 32]
  %mean189[FLOAT, 32]
  %var189[FLOAT, 32]
  %Pad19_pads[INT64, 8]
  %Pad19_value[FLOAT, scalar]
  %Pad20_pads[INT64, 8]
  %Pad20_value[FLOAT, scalar]
  %scale190[FLOAT, 11]
  %bias190[FLOAT, 11]
  %mean190[FLOAT, 11]
  %var190[FLOAT, 11]
  %scale191[FLOAT, 11]
  %bias191[FLOAT, 11]
  %mean191[FLOAT, 11]
  %var191[FLOAT, 11]
  %Pad21_pads[INT64, 8]
  %Pad21_value[FLOAT, scalar]
  %stem_conv1_1/kernel:0[FLOAT, 32x3x3x3]
  %reduction_A_block_stem_1_1/block_1/separable_conv_block_reduction_left1_stem_1/separable_conv_1_reduction_left1_stem_1/depthwise_kernel:0[FLOAT, 11x1x5x5]
  %W158[FLOAT, 11x11x1x1]
  %reduction_A_block_stem_1_1/block_1/separable_conv_block_reduction_right1_stem_1/separable_conv_1_reduction_right1_stem_1/depthwise_kernel:0[FLOAT, 32x1x7x7]
  %W159[FLOAT, 11x32x1x1]
  %Pad22_pads[INT64, 8]
  %Pad22_value[FLOAT, scalar]
  %Pad23_pads[INT64, 8]
  %Pad23_value[FLOAT, scalar]
) {
  %adjusted_input193 = Transpose[perm = [0, 3, 1, 2]](%input_15)
  %convolution_output351 = Conv[auto_pad = 'VALID', dilations = [1, 1], group = 1, kernel_shape = [3, 3], strides = [2, 2]](%adjusted_input193, %stem_conv1_1/kernel:0)
  %batch_norm_output_buffer189 = BatchNormalization[epsilon = 9.99999997475243e-07, momentum = 0.999700009822845](%convolution_output351, %scale189, %bias189, %mean189, %var189)
  %stem_bn1_1/cond/Merge:0 = Transpose[perm = [0, 2, 3, 1]](%batch_norm_output_buffer189)
  %reduction_A_block_stem_1_1/block_1/separable_conv_block_reduction_right1_stem_1/activation_192/Relu:0 = Relu(%stem_bn1_1/cond/Merge:0)
  %reduction_A_block_stem_1_1/block_1/separable_conv_block_reduction_right1_stem_1/activation_192/Relu:0_permuted = Transpose[perm = [0, 3, 1, 2]](%reduction_A_block_stem_1_1/block_1/separable_conv_block_reduction_right1_stem_1/activation_192/Relu:0)
  %reduction_A_block_stem_1_1/block_1/separable_conv_block_reduction_right1_stem_1/activation_192/Relu:0_permuted_padded = Pad[mode = 'constant'](%reduction_A_block_stem_1_1/block_1/separable_conv_block_reduction_right1_stem_1/activation_192/Relu:0_permuted, %Pad23_pads, %Pad23_value)
  %convolution_output354 = Conv[auto_pad = 'VALID', dilations = [1, 1], group = 32, kernel_shape = [7, 7], strides = [2, 2]](%reduction_A_block_stem_1_1/block_1/separable_conv_block_reduction_right1_stem_1/activation_192/Relu:0_permuted_padded, %reduction_A_block_stem_1_1/block_1/separable_conv_block_reduction_right1_stem_1/separable_conv_1_reduction_right1_stem_1/depthwise_kernel:0)
  %convolution_output355 = Conv[auto_pad = 'VALID', dilations = [1, 1], group = 1, kernel_shape = [1, 1], strides = [1, 1]](%convolution_output354, %W159)
  %batch_norm_output_buffer191 = BatchNormalization[epsilon = 9.99999997475243e-07, momentum = 0.999700009822845](%convolution_output355, %scale191, %bias191, %mean191, %var191)
  %reduction_A_block_stem_1_1/block_3/separable_conv_block_reduction_right3_stem_1/activation_196/Relu:0 = Relu(%stem_bn1_1/cond/Merge:0)
  %reduction_A_block_stem_1_1/block_3/separable_conv_block_reduction_right3_stem_1/activation_196/Relu:0_permuted = Transpose[perm = [0, 3, 1, 2]](%reduction_A_block_stem_1_1/block_3/separable_conv_block_reduction_right3_stem_1/activation_196/Relu:0)
  %reduction_A_block_stem_1_1/block_3/separable_conv_block_reduction_right3_stem_1/activation_196/Relu:0_permuted_padded = Pad[mode = 'constant'](%reduction_A_block_stem_1_1/block_3/separable_conv_block_reduction_right3_stem_1/activation_196/Relu:0_permuted, %Pad20_pads, %Pad20_value)
  %reduction_A_block_stem_1_1/block_2/separable_conv_block_reduction_right2_stem_1/activation_194/Relu:0 = Relu(%stem_bn1_1/cond/Merge:0)
  %reduction_A_block_stem_1_1/block_2/separable_conv_block_reduction_right2_stem_1/activation_194/Relu:0_permuted = Transpose[perm = [0, 3, 1, 2]](%reduction_A_block_stem_1_1/block_2/separable_conv_block_reduction_right2_stem_1/activation_194/Relu:0)
  %reduction_A_block_stem_1_1/block_2/separable_conv_block_reduction_right2_stem_1/activation_194/Relu:0_permuted_padded = Pad[mode = 'constant'](%reduction_A_block_stem_1_1/block_2/separable_conv_block_reduction_right2_stem_1/activation_194/Relu:0_permuted, %Pad19_pads, %Pad19_value)
  %reduction_A_block_stem_2_1/adjust_block/adjust_reduction_block_stem_2/adjust_relu_1_stem_2/Relu:0 = Relu(%stem_bn1_1/cond/Merge:0)
  %reduction_A_block_stem_2_1/adjust_block/adjust_reduction_block_stem_2/adjust_relu_1_stem_2/Relu:0_permuted = Transpose[perm = [0, 3, 1, 2]](%reduction_A_block_stem_2_1/adjust_block/adjust_reduction_block_stem_2/adjust_relu_1_stem_2/Relu:0)
  %reduction_A_block_stem_2_1/adjust_block/adjust_reduction_block_stem_2/adjust_relu_1_stem_2/Relu:0_permuted_padded = Pad[mode = 'constant'](%reduction_A_block_stem_2_1/adjust_block/adjust_reduction_block_stem_2/adjust_relu_1_stem_2/Relu:0_permuted, %Pad21_pads, %Pad21_value)
  %reduction_A_block_stem_2_1/adjust_block/adjust_reduction_block_stem_2/zero_padding2d_11/Pad:0 = Transpose[perm = [0, 2, 3, 1]](%reduction_A_block_stem_2_1/adjust_block/adjust_reduction_block_stem_2/adjust_relu_1_stem_2/Relu:0_permuted_padded)
  %reduction_A_block_stem_2_1/adjust_block/adjust_reduction_block_stem_2/zero_padding2d_11/Pad:0_cropping0 = Slice(%reduction_A_block_stem_2_1/adjust_block/adjust_reduction_block_stem_2/zero_padding2d_11/Pad:0, %reduction_A_block_stem_2_1/adjust_block/adjust_reduction_block_stem_2/zero_padding2d_11/Pad:0_cropping_start, %reduction_A_block_stem_2_1/adjust_block/adjust_reduction_block_stem_2/zero_padding2d_11/Pad:0_cropping_end, %reduction_A_block_stem_2_1/adjust_block/adjust_reduction_block_stem_2/zero_padding2d_11/Pad:0_cropping_axes)
  %reduction_A_block_stem_1_1/block_1/separable_conv_block_reduction_right1_stem_1/activation_193/Relu:0 = Relu(%batch_norm_output_buffer191)
  %convolution_output347 = Conv[auto_pad = 'VALID', dilations = [1, 1], group = 32, kernel_shape = [5, 5], strides = [2, 2]](%reduction_A_block_stem_1_1/block_3/separable_conv_block_reduction_right3_stem_1/activation_196/Relu:0_permuted_padded, %reduction_A_block_stem_1_1/block_3/separable_conv_block_reduction_right3_stem_1/separable_conv_1_reduction_right3_stem_1/depthwise_kernel:0)
  %convolution_output348 = Conv[auto_pad = 'VALID', dilations = [1, 1], group = 1, kernel_shape = [1, 1], strides = [1, 1]](%convolution_output347, %W156)
  %convolution_output345 = Conv[auto_pad = 'VALID', dilations = [1, 1], group = 32, kernel_shape = [7, 7], strides = [2, 2]](%reduction_A_block_stem_1_1/block_2/separable_conv_block_reduction_right2_stem_1/activation_194/Relu:0_permuted_padded, %reduction_A_block_stem_1_1/block_2/separable_conv_block_reduction_right2_stem_1/separable_conv_1_reduction_right2_stem_1/depthwise_kernel:0)
  %convolution_output346 = Conv[auto_pad = 'VALID', dilations = [1, 1], group = 1, kernel_shape = [1, 1], strides = [1, 1]](%convolution_output345, %W155)
  %reduction_A_block_stem_1_1/activation_189/Relu:0 = Relu(%stem_bn1_1/cond/Merge:0)
  %input_transposed60 = Transpose[perm = [0, 3, 1, 2]](%reduction_A_block_stem_2_1/adjust_block/adjust_reduction_block_stem_2/zero_padding2d_11/Pad:0_cropping0)
  %reduction_A_block_stem_2_1/adjust_block/adjust_reduction_block_stem_2/cropping2d_5/strided_slice:0_pooling0 = AveragePool[auto_pad = 'VALID', ceil_mode = 0, kernel_shape = [1, 1], strides = [2, 2]](%input_transposed60)
  %input_transposed59 = Transpose[perm = [0, 3, 1, 2]](%reduction_A_block_stem_2_1/adjust_block/adjust_reduction_block_stem_2/adjust_relu_1_stem_2/Relu:0)
  %reduction_A_block_stem_2_1/adjust_block/adjust_reduction_block_stem_2/adjust_relu_1_stem_2/Relu:0_pooling0 = AveragePool[auto_pad = 'VALID', ceil_mode = 0, kernel_shape = [1, 1], strides = [2, 2]](%input_transposed59)
  %convolution_output343 = Conv[auto_pad = 'NOTSET', dilations = [1, 1], group = 11, kernel_shape = [7, 7], pads = [3, 3, 3, 3], strides = [1, 1]](%reduction_A_block_stem_1_1/block_1/separable_conv_block_reduction_right1_stem_1/activation_193/Relu:0, %reduction_A_block_stem_1_1/block_1/separable_conv_block_reduction_right1_stem_1/separable_conv_2_reduction_right1_stem_1/depthwise_kernel:0)
  %convolution_output344 = Conv[auto_pad = 'NOTSET', dilations = [1, 1], group = 1, kernel_shape = [1, 1], strides = [1, 1]](%convolution_output343, %W154)
  %batch_norm_output_buffer187 = BatchNormalization[epsilon = 9.99999997475243e-07, momentum = 0.999700009822845](%convolution_output348, %scale187, %bias187, %mean187, %var187)
  %batch_norm_output_buffer186 = BatchNormalization[epsilon = 9.99999997475243e-07, momentum = 0.999700009822845](%convolution_output346, %scale186, %bias186, %mean186, %var186)
  %adjusted_input187 = Transpose[perm = [0, 3, 1, 2]](%reduction_A_block_stem_1_1/activation_189/Relu:0)
  %convolution_output340 = Conv[auto_pad = 'NOTSET', dilations = [1, 1], group = 1, kernel_shape = [1, 1], pads = [0, 0, 0, 0], strides = [1, 1]](%adjusted_input187, %reduction_A_block_stem_1_1/reduction_conv_1_stem_1/kernel:0)
  %convolution_output339 = Conv[auto_pad = 'NOTSET', dilations = [1, 1], group = 1, kernel_shape = [1, 1], pads = [0, 0, 0, 0], strides = [1, 1]](%reduction_A_block_stem_2_1/adjust_block/adjust_reduction_block_stem_2/cropping2d_5/strided_slice:0_pooling0, %reduction_A_block_stem_2_1/adjust_block/adjust_reduction_block_stem_2/adjust_conv_2_stem_2/kernel:0)
  %convolution_output338 = Conv[auto_pad = 'NOTSET', dilations = [1, 1], group = 1, kernel_shape = [1, 1], pads = [0, 0, 0, 0], strides = [1, 1]](%reduction_A_block_stem_2_1/adjust_block/adjust_reduction_block_stem_2/adjust_relu_1_stem_2/Relu:0_pooling0, %reduction_A_block_stem_2_1/adjust_block/adjust_reduction_block_stem_2/adjust_conv_1_stem_2/kernel:0)
  %batch_norm_output_buffer185 = BatchNormalization[epsilon = 9.99999997475243e-07, momentum = 0.999700009822845](%convolution_output344, %scale185, %bias185, %mean185, %var185)
  %reduction_A_block_stem_1_1/block_3/separable_conv_block_reduction_right3_stem_1/activation_197/Relu:0 = Relu(%batch_norm_output_buffer187)
  %reduction_A_block_stem_1_1/block_2/separable_conv_block_reduction_right2_stem_1/activation_195/Relu:0 = Relu(%batch_norm_output_buffer186)
  %batch_norm_output_buffer183 = BatchNormalization[epsilon = 9.99999997475243e-07, momentum = 0.999700009822845](%convolution_output340, %scale183, %bias183, %mean183, %var183)
  %reduction_A_block_stem_1_1/reduction_bn_1_stem_1/cond/Merge:0 = Transpose[perm = [0, 2, 3, 1]](%batch_norm_output_buffer183)
  %reduction_A_block_stem_1_1/block_1/separable_conv_block_reduction_left1_stem_1/activation_190/Relu:0 = Relu(%reduction_A_block_stem_1_1/reduction_bn_1_stem_1/cond/Merge:0)
  %reduction_A_block_stem_1_1/block_1/separable_conv_block_reduction_left1_stem_1/activation_190/Relu:0_permuted = Transpose[perm = [0, 3, 1, 2]](%reduction_A_block_stem_1_1/block_1/separable_conv_block_reduction_left1_stem_1/activation_190/Relu:0)
  %reduction_A_block_stem_1_1/block_1/separable_conv_block_reduction_left1_stem_1/activation_190/Relu:0_permuted_padded = Pad[mode = 'constant'](%reduction_A_block_stem_1_1/block_1/separable_conv_block_reduction_left1_stem_1/activation_190/Relu:0_permuted, %Pad22_pads, %Pad22_value)
  %convolution_output352 = Conv[auto_pad = 'VALID', dilations = [1, 1], group = 11, kernel_shape = [5, 5], strides = [2, 2]](%reduction_A_block_stem_1_1/block_1/separable_conv_block_reduction_left1_stem_1/activation_190/Relu:0_permuted_padded, %reduction_A_block_stem_1_1/block_1/separable_conv_block_reduction_left1_stem_1/separable_conv_1_reduction_left1_stem_1/depthwise_kernel:0)
  %convolution_output353 = Conv[auto_pad = 'VALID', dilations = [1, 1], group = 1, kernel_shape = [1, 1], strides = [1, 1]](%convolution_output352, %W158)
  %batch_norm_output_buffer190 = BatchNormalization[epsilon = 9.99999997475243e-07, momentum = 0.999700009822845](%convolution_output353, %scale190, %bias190, %mean190, %var190)
  %reduction_A_block_stem_1_1/block_1/separable_conv_block_reduction_left1_stem_1/activation_191/Relu:0 = Relu(%batch_norm_output_buffer190)
  %convolution_output341 = Conv[auto_pad = 'NOTSET', dilations = [1, 1], group = 11, kernel_shape = [5, 5], pads = [2, 2, 2, 2], strides = [1, 1]](%reduction_A_block_stem_1_1/block_1/separable_conv_block_reduction_left1_stem_1/activation_191/Relu:0, %reduction_A_block_stem_1_1/block_1/separable_conv_block_reduction_left1_stem_1/separable_conv_2_reduction_left1_stem_1/depthwise_kernel:0)
  %convolution_output342 = Conv[auto_pad = 'NOTSET', dilations = [1, 1], group = 1, kernel_shape = [1, 1], strides = [1, 1]](%convolution_output341, %W153)
  %batch_norm_output_buffer184 = BatchNormalization[epsilon = 9.99999997475243e-07, momentum = 0.999700009822845](%convolution_output342, %scale184, %bias184, %mean184, %var184)
  %reduction_A_block_stem_2_1/adjust_block/adjust_reduction_block_stem_2/concatenate_5/concat:0 = Concat[axis = 1](%convolution_output338, %convolution_output339)
  %reduction_A_block_stem_1_1/block_1/reduction_add_1_stem_1/add:0 = Add(%batch_norm_output_buffer184, %batch_norm_output_buffer185)
  %reduction_A_block_stem_1_1/block_5/separable_conv_block_reduction_left4_stem_1/activation_198/Relu:0 = Relu(%reduction_A_block_stem_1_1/block_1/reduction_add_1_stem_1/add:0)
  %convolution_output349 = Conv[auto_pad = 'NOTSET', dilations = [1, 1], group = 11, kernel_shape = [3, 3], pads = [1, 1, 1, 1], strides = [1, 1]](%reduction_A_block_stem_1_1/block_5/separable_conv_block_reduction_left4_stem_1/activation_198/Relu:0, %reduction_A_block_stem_1_1/block_5/separable_conv_block_reduction_left4_stem_1/separable_conv_1_reduction_left4_stem_1/depthwise_kernel:0)
  %convolution_output350 = Conv[auto_pad = 'NOTSET', dilations = [1, 1], group = 1, kernel_shape = [1, 1], strides = [1, 1]](%convolution_output349, %W157)
  %batch_norm_output_buffer188 = BatchNormalization[epsilon = 9.99999997475243e-07, momentum = 0.999700009822845](%convolution_output350, %scale188, %bias188, %mean188, %var188)
  %reduction_A_block_stem_1_1/block_5/separable_conv_block_reduction_left4_stem_1/activation_199/Relu:0 = Relu(%batch_norm_output_buffer188)
  %convolution_output336 = Conv[auto_pad = 'NOTSET', dilations = [1, 1], group = 11, kernel_shape = [3, 3], pads = [1, 1, 1, 1], strides = [1, 1]](%reduction_A_block_stem_1_1/block_5/separable_conv_block_reduction_left4_stem_1/activation_199/Relu:0, %reduction_A_block_stem_1_1/block_5/separable_conv_block_reduction_left4_stem_1/separable_conv_2_reduction_left4_stem_1/depthwise_kernel:0)
  %convolution_output337 = Conv[auto_pad = 'NOTSET', dilations = [1, 1], group = 1, kernel_shape = [1, 1], strides = [1, 1]](%convolution_output336, %W152)
  %convolution_output334 = Conv[auto_pad = 'NOTSET', dilations = [1, 1], group = 11, kernel_shape = [5, 5], pads = [2, 2, 2, 2], strides = [1, 1]](%reduction_A_block_stem_1_1/block_3/separable_conv_block_reduction_right3_stem_1/activation_197/Relu:0, %reduction_A_block_stem_1_1/block_3/separable_conv_block_reduction_right3_stem_1/separable_conv_2_reduction_right3_stem_1/depthwise_kernel:0)
  %convolution_output335 = Conv[auto_pad = 'NOTSET', dilations = [1, 1], group = 1, kernel_shape = [1, 1], strides = [1, 1]](%convolution_output334, %W151)
  %convolution_output332 = Conv[auto_pad = 'NOTSET', dilations = [1, 1], group = 11, kernel_shape = [7, 7], pads = [3, 3, 3, 3], strides = [1, 1]](%reduction_A_block_stem_1_1/block_2/separable_conv_block_reduction_right2_stem_1/activation_195/Relu:0, %reduction_A_block_stem_1_1/block_2/separable_conv_block_reduction_right2_stem_1/separable_conv_2_reduction_right2_stem_1/depthwise_kernel:0)
  %convolution_output333 = Conv[auto_pad = 'NOTSET', dilations = [1, 1], group = 1, kernel_shape = [1, 1], strides = [1, 1]](%convolution_output332, %W150)
  %reduction_A_block_stem_1_1/reduction_bn_1_stem_1/cond/Merge:0_permuted = Transpose[perm = [0, 3, 1, 2]](%reduction_A_block_stem_1_1/reduction_bn_1_stem_1/cond/Merge:0)
  %reduction_A_block_stem_1_1/reduction_bn_1_stem_1/cond/Merge:0_permuted_padded = Pad[mode = 'constant'](%reduction_A_block_stem_1_1/reduction_bn_1_stem_1/cond/Merge:0_permuted, %Pad18_pads, %Pad18_value)
  %batch_norm_output_buffer182 = BatchNormalization[epsilon = 9.99999997475243e-07, momentum = 0.999700009822845](%reduction_A_block_stem_2_1/adjust_block/adjust_reduction_block_stem_2/concatenate_5/concat:0, %scale182, %bias182, %mean182, %var182)
  %reduction_A_block_stem_2_1/adjust_block/adjust_reduction_block_stem_2/adjust_bn_stem_2/cond/Merge:0 = Transpose[perm = [0, 2, 3, 1]](%batch_norm_output_buffer182)
  %reduction_A_block_stem_2_1/block_1/separable_conv_block_reduction_right1_stem_2/activation_203/Relu:0 = Relu(%reduction_A_block_stem_2_1/adjust_block/adjust_reduction_block_stem_2/adjust_bn_stem_2/cond/Merge:0)
  %reduction_A_block_stem_2_1/block_1/separable_conv_block_reduction_right1_stem_2/activation_203/Relu:0_permuted = Transpose[perm = [0, 3, 1, 2]](%reduction_A_block_stem_2_1/block_1/separable_conv_block_reduction_right1_stem_2/activation_203/Relu:0)
  %reduction_A_block_stem_2_1/block_1/separable_conv_block_reduction_right1_stem_2/activation_203/Relu:0_permuted_padded = Pad[mode = 'constant'](%reduction_A_block_stem_2_1/block_1/separable_conv_block_reduction_right1_stem_2/activation_203/Relu:0_permuted, %Pad17_pads, %Pad17_value)
  %reduction_A_block_stem_1_1/reduction_pad_1_stem_1/Pad:0_pooling02 = MaxPool[auto_pad = 'VALID', ceil_mode = 0, kernel_shape = [3, 3], strides = [2, 2]](%reduction_A_block_stem_1_1/reduction_bn_1_stem_1/cond/Merge:0_permuted_padded)
  %batch_norm_output_buffer181 = BatchNormalization[epsilon = 9.99999997475243e-07, momentum = 0.999700009822845](%convolution_output337, %scale181, %bias181, %mean181, %var181)
  %reduction_A_block_stem_1_1/block_1/reduction_add_1_stem_1/add:0_pooling0 = AveragePool[auto_pad = 'SAME_UPPER', ceil_mode = 0, kernel_shape = [3, 3], strides = [1, 1]](%reduction_A_block_stem_1_1/block_1/reduction_add_1_stem_1/add:0)
  %batch_norm_output_buffer180 = BatchNormalization[epsilon = 9.99999997475243e-07, momentum = 0.999700009822845](%convolution_output335, %scale180, %bias180, %mean180, %var180)
  %reduction_A_block_stem_1_1/reduction_pad_1_stem_1/Pad:0_pooling01 = AveragePool[auto_pad = 'VALID', ceil_mode = 0, kernel_shape = [3, 3], strides = [2, 2]](%reduction_A_block_stem_1_1/reduction_bn_1_stem_1/cond/Merge:0_permuted_padded)
  %batch_norm_output_buffer179 = BatchNormalization[epsilon = 9.99999997475243e-07, momentum = 0.999700009822845](%convolution_output333, %scale179, %bias179, %mean179, %var179)
  %reduction_A_block_stem_1_1/reduction_pad_1_stem_1/Pad:0_pooling0 = MaxPool[auto_pad = 'VALID', ceil_mode = 0, kernel_shape = [3, 3], strides = [2, 2]](%reduction_A_block_stem_1_1/reduction_bn_1_stem_1/cond/Merge:0_permuted_padded)
  %convolution_output330 = Conv[auto_pad = 'VALID', dilations = [1, 1], group = 22, kernel_shape = [7, 7], strides = [2, 2]](%reduction_A_block_stem_2_1/block_1/separable_conv_block_reduction_right1_stem_2/activation_203/Relu:0_permuted_padded, %reduction_A_block_stem_2_1/block_1/separable_conv_block_reduction_right1_stem_2/separable_conv_1_reduction_right1_stem_2/depthwise_kernel:0)
  %convolution_output331 = Conv[auto_pad = 'VALID', dilations = [1, 1], group = 1, kernel_shape = [1, 1], strides = [1, 1]](%convolution_output330, %W149)
  %reduction_A_block_stem_2_1/block_3/separable_conv_block_reduction_right3_stem_2/activation_207/Relu:0 = Relu(%reduction_A_block_stem_2_1/adjust_block/adjust_reduction_block_stem_2/adjust_bn_stem_2/cond/Merge:0)
  %reduction_A_block_stem_2_1/block_2/separable_conv_block_reduction_right2_stem_2/activation_205/Relu:0 = Relu(%reduction_A_block_stem_2_1/adjust_block/adjust_reduction_block_stem_2/adjust_bn_stem_2/cond/Merge:0)
  %reduction_A_block_stem_1_1/block_5/reduction_add4_stem_1/add:0 = Add(%batch_norm_output_buffer181, %reduction_A_block_stem_1_1/reduction_pad_1_stem_1/Pad:0_pooling02)
  %reduction_A_block_stem_1_1/block_3/reduction_add3_stem_1/add:0 = Add(%reduction_A_block_stem_1_1/reduction_pad_1_stem_1/Pad:0_pooling01, %batch_norm_output_buffer180)
  %reduction_A_block_stem_1_1/block_2/reduction_add_2_stem_1/add:0 = Add(%reduction_A_block_stem_1_1/reduction_pad_1_stem_1/Pad:0_pooling0, %batch_norm_output_buffer179)
  %reduction_A_block_stem_1_1/block_4/add_5/add:0 = Add(%reduction_A_block_stem_1_1/block_2/reduction_add_2_stem_1/add:0, %reduction_A_block_stem_1_1/block_1/reduction_add_1_stem_1/add:0_pooling0)
  %batch_norm_output_buffer178 = BatchNormalization[epsilon = 9.99999997475243e-07, momentum = 0.999700009822845](%convolution_output331, %scale178, %bias178, %mean178, %var178)
  %reduction_A_block_stem_2_1/block_3/separable_conv_block_reduction_right3_stem_2/activation_207/Relu:0_permuted = Transpose[perm = [0, 3, 1, 2]](%reduction_A_block_stem_2_1/block_3/separable_conv_block_reduction_right3_stem_2/activation_207/Relu:0)
  %reduction_A_block_stem_2_1/block_3/separable_conv_block_reduction_right3_stem_2/activation_207/Relu:0_permuted_padded = Pad[mode = 'constant'](%reduction_A_block_stem_2_1/block_3/separable_conv_block_reduction_right3_stem_2/activation_207/Relu:0_permuted, %Pad14_pads, %Pad14_value)
  %reduction_A_block_stem_2_1/block_2/separable_conv_block_reduction_right2_stem_2/activation_205/Relu:0_permuted = Transpose[perm = [0, 3, 1, 2]](%reduction_A_block_stem_2_1/block_2/separable_conv_block_reduction_right2_stem_2/activation_205/Relu:0)
  %reduction_A_block_stem_2_1/block_2/separable_conv_block_reduction_right2_stem_2/activation_205/Relu:0_permuted_padded = Pad[mode = 'constant'](%reduction_A_block_stem_2_1/block_2/separable_conv_block_reduction_right2_stem_2/activation_205/Relu:0_permuted, %Pad13_pads, %Pad13_value)
  %reduction_A_block_stem_1_1/reduction_concat_stem_1/concat:0 = Concat[axis = 1](%reduction_A_block_stem_1_1/block_2/reduction_add_2_stem_1/add:0, %reduction_A_block_stem_1_1/block_3/reduction_add3_stem_1/add:0, %reduction_A_block_stem_1_1/block_4/add_5/add:0, %reduction_A_block_stem_1_1/block_5/reduction_add4_stem_1/add:0)
  %normal_A_block_0_1/adjust_block/adjust_reduction_block_0/adjust_relu_1_0/Relu:0 = Relu(%reduction_A_block_stem_1_1/reduction_concat_stem_1/concat:0)
  %normal_A_block_0_1/adjust_block/adjust_reduction_block_0/adjust_relu_1_0/Relu:0_permuted_padded = Pad[mode = 'constant'](%normal_A_block_0_1/adjust_block/adjust_reduction_block_0/adjust_relu_1_0/Relu:0, %Pad15_pads, %Pad15_value)
  %normal_A_block_0_1/adjust_block/adjust_reduction_block_0/zero_padding2d_12/Pad:0 = Transpose[perm = [0, 2, 3, 1]](%normal_A_block_0_1/adjust_block/adjust_reduction_block_0/adjust_relu_1_0/Relu:0_permuted_padded)
  %normal_A_block_0_1/adjust_block/adjust_reduction_block_0/zero_padding2d_12/Pad:0_cropping0 = Slice(%normal_A_block_0_1/adjust_block/adjust_reduction_block_0/zero_padding2d_12/Pad:0, %normal_A_block_0_1/adjust_block/adjust_reduction_block_0/zero_padding2d_12/Pad:0_cropping_start, %normal_A_block_0_1/adjust_block/adjust_reduction_block_0/zero_padding2d_12/Pad:0_cropping_end, %normal_A_block_0_1/adjust_block/adjust_reduction_block_0/zero_padding2d_12/Pad:0_cropping_axes)
  %reduction_A_block_stem_2_1/block_1/separable_conv_block_reduction_right1_stem_2/activation_204/Relu:0 = Relu(%batch_norm_output_buffer178)
  %convolution_output314 = Conv[auto_pad = 'VALID', dilations = [1, 1], group = 22, kernel_shape = [5, 5], strides = [2, 2]](%reduction_A_block_stem_2_1/block_3/separable_conv_block_reduction_right3_stem_2/activation_207/Relu:0_permuted_padded, %reduction_A_block_stem_2_1/block_3/separable_conv_block_reduction_right3_stem_2/separable_conv_1_reduction_right3_stem_2/depthwise_kernel:0)
  %convolution_output315 = Conv[auto_pad = 'VALID', dilations = [1, 1], group = 1, kernel_shape = [1, 1], strides = [1, 1]](%convolution_output314, %W141)
  %convolution_output312 = Conv[auto_pad = 'VALID', dilations = [1, 1], group = 22, kernel_shape = [7, 7], strides = [2, 2]](%reduction_A_block_stem_2_1/block_2/separable_conv_block_reduction_right2_stem_2/activation_205/Relu:0_permuted_padded, %reduction_A_block_stem_2_1/block_2/separable_conv_block_reduction_right2_stem_2/separable_conv_1_reduction_right2_stem_2/depthwise_kernel:0)
  %convolution_output313 = Conv[auto_pad = 'VALID', dilations = [1, 1], group = 1, kernel_shape = [1, 1], strides = [1, 1]](%convolution_output312, %W140)
  %reduction_A_block_stem_2_1/activation_200/Relu:0 = Relu(%reduction_A_block_stem_1_1/reduction_concat_stem_1/concat:0)
  %input_transposed54 = Transpose[perm = [0, 3, 1, 2]](%normal_A_block_0_1/adjust_block/adjust_reduction_block_0/zero_padding2d_12/Pad:0_cropping0)
  %normal_A_block_0_1/adjust_block/adjust_reduction_block_0/cropping2d_6/strided_slice:0_pooling0 = AveragePool[auto_pad = 'VALID', ceil_mode = 0, kernel_shape = [1, 1], strides = [2, 2]](%input_transposed54)
  %normal_A_block_0_1/adjust_block/adjust_reduction_block_0/adjust_relu_1_0/Relu:0_pooling0 = AveragePool[auto_pad = 'VALID', ceil_mode = 0, kernel_shape = [1, 1], strides = [2, 2]](%normal_A_block_0_1/adjust_block/adjust_reduction_block_0/adjust_relu_1_0/Relu:0)
  %convolution_output310 = Conv[auto_pad = 'NOTSET', dilations = [1, 1], group = 22, kernel_shape = [7, 7], pads = [3, 3, 3, 3], strides = [1, 1]](%reduction_A_block_stem_2_1/block_1/separable_conv_block_reduction_right1_stem_2/activation_204/Relu:0, %reduction_A_block_stem_2_1/block_1/separable_conv_block_reduction_right1_stem_2/separable_conv_2_reduction_right1_stem_2/depthwise_kernel:0)
  %convolution_output311 = Conv[auto_pad = 'NOTSET', dilations = [1, 1], group = 1, kernel_shape = [1, 1], strides = [1, 1]](%convolution_output310, %W139)
  %batch_norm_output_buffer170 = BatchNormalization[epsilon = 9.99999997475243e-07, momentum = 0.999700009822845](%convolution_output315, %scale170, %bias170, %mean170, %var170)
  %batch_norm_output_buffer169 = BatchNormalization[epsilon = 9.99999997475243e-07, momentum = 0.999700009822845](%convolution_output313, %scale169, %bias169, %mean169, %var169)
  %convolution_output307 = Conv[auto_pad = 'NOTSET', dilations = [1, 1], group = 1, kernel_shape = [1, 1], pads = [0, 0, 0, 0], strides = [1, 1]](%reduction_A_block_stem_2_1/activation_200/Relu:0, %reduction_A_block_stem_2_1/reduction_conv_1_stem_2/kernel:0)
  %convolution_output295 = Conv[auto_pad = 'NOTSET', dilations = [1, 1], group = 1, kernel_shape = [1, 1], pads = [0, 0, 0, 0], strides = [1, 1]](%normal_A_block_0_1/adjust_block/adjust_reduction_block_0/cropping2d_6/strided_slice:0_pooling0, %normal_A_block_0_1/adjust_block/adjust_reduction_block_0/adjust_conv_2_0/kernel:0)
  %convolution_output294 = Conv[auto_pad = 'NOTSET', dilations = [1, 1], group = 1, kernel_shape = [1, 1], pads = [0, 0, 0, 0], strides = [1, 1]](%normal_A_block_0_1/adjust_block/adjust_reduction_block_0/adjust_relu_1_0/Relu:0_pooling0, %normal_A_block_0_1/adjust_block/adjust_reduction_block_0/adjust_conv_1_0/kernel:0)
  %batch_norm_output_buffer168 = BatchNormalization[epsilon = 9.99999997475243e-07, momentum = 0.999700009822845](%convolution_output311, %scale168, %bias168, %mean168, %var168)
  %reduction_A_block_stem_2_1/block_3/separable_conv_block_reduction_right3_stem_2/activation_208/Relu:0 = Relu(%batch_norm_output_buffer170)
  %reduction_A_block_stem_2_1/block_2/separable_conv_block_reduction_right2_stem_2/activation_206/Relu:0 = Relu(%batch_norm_output_buffer169)
  %batch_norm_output_buffer166 = BatchNormalization[epsilon = 9.99999997475243e-07, momentum = 0.999700009822845](%convolution_output307, %scale166, %bias166, %mean166, %var166)
  %reduction_A_block_stem_2_1/reduction_bn_1_stem_2/cond/Merge:0 = Transpose[perm = [0, 2, 3, 1]](%batch_norm_output_buffer166)
  %reduction_A_block_stem_2_1/block_1/separable_conv_block_reduction_left1_stem_2/activation_201/Relu:0 = Relu(%reduction_A_block_stem_2_1/reduction_bn_1_stem_2/cond/Merge:0)
  %reduction_A_block_stem_2_1/block_1/separable_conv_block_reduction_left1_stem_2/activation_201/Relu:0_permuted = Transpose[perm = [0, 3, 1, 2]](%reduction_A_block_stem_2_1/block_1/separable_conv_block_reduction_left1_stem_2/activation_201/Relu:0)
  %reduction_A_block_stem_2_1/block_1/separable_conv_block_reduction_left1_stem_2/activation_201/Relu:0_permuted_padded = Pad[mode = 'constant'](%reduction_A_block_stem_2_1/block_1/separable_conv_block_reduction_left1_stem_2/activation_201/Relu:0_permuted, %Pad16_pads, %Pad16_value)
  %convolution_output328 = Conv[auto_pad = 'VALID', dilations = [1, 1], group = 22, kernel_shape = [5, 5], strides = [2, 2]](%reduction_A_block_stem_2_1/block_1/separable_conv_block_reduction_left1_stem_2/activation_201/Relu:0_permuted_padded, %reduction_A_block_stem_2_1/block_1/separable_conv_block_reduction_left1_stem_2/separable_conv_1_reduction_left1_stem_2/depthwise_kernel:0)
  %convolution_output329 = Conv[auto_pad = 'VALID', dilations = [1, 1], group = 1, kernel_shape = [1, 1], strides = [1, 1]](%convolution_output328, %W148)
  %batch_norm_output_buffer177 = BatchNormalization[epsilon = 9.99999997475243e-07, momentum = 0.999700009822845](%convolution_output329, %scale177, %bias177, %mean177, %var177)
  %reduction_A_block_stem_2_1/block_1/separable_conv_block_reduction_left1_stem_2/activation_202/Relu:0 = Relu(%batch_norm_output_buffer177)
  %convolution_output308 = Conv[auto_pad = 'NOTSET', dilations = [1, 1], group = 22, kernel_shape = [5, 5], pads = [2, 2, 2, 2], strides = [1, 1]](%reduction_A_block_stem_2_1/block_1/separable_conv_block_reduction_left1_stem_2/activation_202/Relu:0, %reduction_A_block_stem_2_1/block_1/separable_conv_block_reduction_left1_stem_2/separable_conv_2_reduction_left1_stem_2/depthwise_kernel:0)
  %convolution_output309 = Conv[auto_pad = 'NOTSET', dilations = [1, 1], group = 1, kernel_shape = [1, 1], strides = [1, 1]](%convolution_output308, %W138)
  %batch_norm_output_buffer167 = BatchNormalization[epsilon = 9.99999997475243e-07, momentum = 0.999700009822845](%convolution_output309, %scale167, %bias167, %mean167, %var167)
  %normal_A_block_0_1/adjust_block/adjust_reduction_block_0/concatenate_6/concat:0 = Concat[axis = 1](%convolution_output294, %convolution_output295)
  %reduction_A_block_stem_2_1/block_1/reduction_add_1_stem_2/add:0 = Add(%batch_norm_output_buffer167, %batch_norm_output_buffer168)
  %reduction_A_block_stem_2_1/block_5/separable_conv_block_reduction_left4_stem_2/activation_209/Relu:0 = Relu(%reduction_A_block_stem_2_1/block_1/reduction_add_1_stem_2/add:0)
  %convolution_output316 = Conv[auto_pad = 'NOTSET', dilations = [1, 1], group = 22, kernel_shape = [3, 3], pads = [1, 1, 1, 1], strides = [1, 1]](%reduction_A_block_stem_2_1/block_5/separable_conv_block_reduction_left4_stem_2/activation_209/Relu:0, %reduction_A_block_stem_2_1/block_5/separable_conv_block_reduction_left4_stem_2/separable_conv_1_reduction_left4_stem_2/depthwise_kernel:0)
  %convolution_output317 = Conv[auto_pad = 'NOTSET', dilations = [1, 1], group = 1, kernel_shape = [1, 1], strides = [1, 1]](%convolution_output316, %W142)
  %batch_norm_output_buffer171 = BatchNormalization[epsilon = 9.99999997475243e-07, momentum = 0.999700009822845](%convolution_output317, %scale171, %bias171, %mean171, %var171)
  %reduction_A_block_stem_2_1/block_5/separable_conv_block_reduction_left4_stem_2/activation_210/Relu:0 = Relu(%batch_norm_output_buffer171)
  %convolution_output282 = Conv[auto_pad = 'NOTSET', dilations = [1, 1], group = 22, kernel_shape = [3, 3], pads = [1, 1, 1, 1], strides = [1, 1]](%reduction_A_block_stem_2_1/block_5/separable_conv_block_reduction_left4_stem_2/activation_210/Relu:0, %reduction_A_block_stem_2_1/block_5/separable_conv_block_reduction_left4_stem_2/separable_conv_2_reduction_left4_stem_2/depthwise_kernel:0)
  %convolution_output283 = Conv[auto_pad = 'NOTSET', dilations = [1, 1], group = 1, kernel_shape = [1, 1], strides = [1, 1]](%convolution_output282, %W127)
  %convolution_output280 = Conv[auto_pad = 'NOTSET', dilations = [1, 1], group = 22, kernel_shape = [5, 5], pads = [2, 2, 2, 2], strides = [1, 1]](%reduction_A_block_stem_2_1/block_3/separable_conv_block_reduction_right3_stem_2/activation_208/Relu:0, %reduction_A_block_stem_2_1/block_3/separable_conv_block_reduction_right3_stem_2/separable_conv_2_reduction_right3_stem_2/depthwise_kernel:0)
  %convolution_output281 = Conv[auto_pad = 'NOTSET', dilations = [1, 1], group = 1, kernel_shape = [1, 1], strides = [1, 1]](%convolution_output280, %W126)
  %convolution_output278 = Conv[auto_pad = 'NOTSET', dilations = [1, 1], group = 22, kernel_shape = [7, 7], pads = [3, 3, 3, 3], strides = [1, 1]](%reduction_A_block_stem_2_1/block_2/separable_conv_block_reduction_right2_stem_2/activation_206/Relu:0, %reduction_A_block_stem_2_1/block_2/separable_conv_block_reduction_right2_stem_2/separable_conv_2_reduction_right2_stem_2/depthwise_kernel:0)
  %convolution_output279 = Conv[auto_pad = 'NOTSET', dilations = [1, 1], group = 1, kernel_shape = [1, 1], strides = [1, 1]](%convolution_output278, %W125)
  %reduction_A_block_stem_2_1/reduction_bn_1_stem_2/cond/Merge:0_permuted = Transpose[perm = [0, 3, 1, 2]](%reduction_A_block_stem_2_1/reduction_bn_1_stem_2/cond/Merge:0)
  %reduction_A_block_stem_2_1/reduction_bn_1_stem_2/cond/Merge:0_permuted_padded = Pad[mode = 'constant'](%reduction_A_block_stem_2_1/reduction_bn_1_stem_2/cond/Merge:0_permuted, %Pad12_pads, %Pad12_value)
  %batch_norm_output_buffer154 = BatchNormalization[epsilon = 9.99999997475243e-07, momentum = 0.999700009822845](%normal_A_block_0_1/adjust_block/adjust_reduction_block_0/concatenate_6/concat:0, %scale154, %bias154, %mean154, %var154)
  %normal_A_block_0_1/adjust_block/adjust_reduction_block_0/adjust_bn_0/cond/Merge:0 = Transpose[perm = [0, 2, 3, 1]](%batch_norm_output_buffer154)
  %normal_A_block_0_1/block_2/separable_conv_block_normal_right2_0/activation_218/Relu:0 = Relu(%normal_A_block_0_1/adjust_block/adjust_reduction_block_0/adjust_bn_0/cond/Merge:0)
  %adjusted_input178 = Transpose[perm = [0, 3, 1, 2]](%normal_A_block_0_1/block_2/separable_conv_block_normal_right2_0/activation_218/Relu:0)
  %convolution_output324 = Conv[auto_pad = 'NOTSET', dilations = [1, 1], group = 44, kernel_shape = [3, 3], pads = [1, 1, 1, 1], strides = [1, 1]](%adjusted_input178, %normal_A_block_0_1/block_2/separable_conv_block_normal_right2_0/separable_conv_1_normal_right2_0/depthwise_kernel:0)
  %convolution_output325 = Conv[auto_pad = 'NOTSET', dilations = [1, 1], group = 1, kernel_shape = [1, 1], strides = [1, 1]](%convolution_output324, %W146)
  %batch_norm_output_buffer175 = BatchNormalization[epsilon = 9.99999997475243e-07, momentum = 0.999700009822845](%convolution_output325, %scale175, %bias175, %mean175, %var175)
  %normal_A_block_0_1/block_2/separable_conv_block_normal_right2_0/activation_219/Relu:0 = Relu(%batch_norm_output_buffer175)
  %convolution_output302 = Conv[auto_pad = 'NOTSET', dilations = [1, 1], group = 44, kernel_shape = [3, 3], pads = [1, 1, 1, 1], strides = [1, 1]](%normal_A_block_0_1/block_2/separable_conv_block_normal_right2_0/activation_219/Relu:0, %normal_A_block_0_1/block_2/separable_conv_block_normal_right2_0/separable_conv_2_normal_right2_0/depthwise_kernel:0)
  %convolution_output303 = Conv[auto_pad = 'NOTSET', dilations = [1, 1], group = 1, kernel_shape = [1, 1], strides = [1, 1]](%convolution_output302, %W136)
  %batch_norm_output_buffer163 = BatchNormalization[epsilon = 9.99999997475243e-07, momentum = 0.999700009822845](%convolution_output303, %scale163, %bias163, %mean163, %var163)
  %normal_A_block_0_1/block_2/separable_conv_block_normal_left2_0/activation_216/Relu:0 = Relu(%normal_A_block_0_1/adjust_block/adjust_reduction_block_0/adjust_bn_0/cond/Merge:0)
  %adjusted_input177 = Transpose[perm = [0, 3, 1, 2]](%normal_A_block_0_1/block_2/separable_conv_block_normal_left2_0/activation_216/Relu:0)
  %convolution_output322 = Conv[auto_pad = 'NOTSET', dilations = [1, 1], group = 44, kernel_shape = [5, 5], pads = [2, 2, 2, 2], strides = [1, 1]](%adjusted_input177, %normal_A_block_0_1/block_2/separable_conv_block_normal_left2_0/separable_conv_1_normal_left2_0/depthwise_kernel:0)
  %convolution_output323 = Conv[auto_pad = 'NOTSET', dilations = [1, 1], group = 1, kernel_shape = [1, 1], strides = [1, 1]](%convolution_output322, %W145)
  %batch_norm_output_buffer174 = BatchNormalization[epsilon = 9.99999997475243e-07, momentum = 0.999700009822845](%convolution_output323, %scale174, %bias174, %mean174, %var174)
  %normal_A_block_0_1/block_2/separable_conv_block_normal_left2_0/activation_217/Relu:0 = Relu(%batch_norm_output_buffer174)
  %convolution_output300 = Conv[auto_pad = 'NOTSET', dilations = [1, 1], group = 44, kernel_shape = [5, 5], pads = [2, 2, 2, 2], strides = [1, 1]](%normal_A_block_0_1/block_2/separable_conv_block_normal_left2_0/activation_217/Relu:0, %normal_A_block_0_1/block_2/separable_conv_block_normal_left2_0/separable_conv_2_normal_left2_0/depthwise_kernel:0)
  %convolution_output301 = Conv[auto_pad = 'NOTSET', dilations = [1, 1], group = 1, kernel_shape = [1, 1], strides = [1, 1]](%convolution_output300, %W135)
  %batch_norm_output_buffer162 = BatchNormalization[epsilon = 9.99999997475243e-07, momentum = 0.999700009822845](%convolution_output301, %scale162, %bias162, %mean162, %var162)
  %normal_A_block_0_1/block_2/normal_add_2_0/add:0 = Add(%batch_norm_output_buffer162, %batch_norm_output_buffer163)
  %fan_out_adjustment_out627 = Transpose[perm = [0, 2, 3, 1]](%normal_A_block_0_1/block_2/normal_add_2_0/add:0)
  %normal_A_block_0_1/block_1/separable_conv_block_normal_right1_0/activation_214/Relu:0 = Relu(%normal_A_block_0_1/adjust_block/adjust_reduction_block_0/adjust_bn_0/cond/Merge:0)
  %adjusted_input176 = Transpose[perm = [0, 3, 1, 2]](%normal_A_block_0_1/block_1/separable_conv_block_normal_right1_0/activation_214/Relu:0)
  %convolution_output320 = Conv[auto_pad = 'NOTSET', dilations = [1, 1], group = 44, kernel_shape = [3, 3], pads = [1, 1, 1, 1], strides = [1, 1]](%adjusted_input176, %normal_A_block_0_1/block_1/separable_conv_block_normal_right1_0/separable_conv_1_normal_right1_0/depthwise_kernel:0)
  %convolution_output321 = Conv[auto_pad = 'NOTSET', dilations = [1, 1], group = 1, kernel_shape = [1, 1], strides = [1, 1]](%convolution_output320, %W144)
  %batch_norm_output_buffer173 = BatchNormalization[epsilon = 9.99999997475243e-07, momentum = 0.999700009822845](%convolution_output321, %scale173, %bias173, %mean173, %var173)
  %normal_A_block_0_1/block_1/separable_conv_block_normal_right1_0/activation_215/Relu:0 = Relu(%batch_norm_output_buffer173)
  %convolution_output298 = Conv[auto_pad = 'NOTSET', dilations = [1, 1], group = 44, kernel_shape = [3, 3], pads = [1, 1, 1, 1], strides = [1, 1]](%normal_A_block_0_1/block_1/separable_conv_block_normal_right1_0/activation_215/Relu:0, %normal_A_block_0_1/block_1/separable_conv_block_normal_right1_0/separable_conv_2_normal_right1_0/depthwise_kernel:0)
  %convolution_output299 = Conv[auto_pad = 'NOTSET', dilations = [1, 1], group = 1, kernel_shape = [1, 1], strides = [1, 1]](%convolution_output298, %W134)
  %batch_norm_output_buffer161 = BatchNormalization[epsilon = 9.99999997475243e-07, momentum = 0.999700009822845](%convolution_output299, %scale161, %bias161, %mean161, %var161)
  %input_transposed52 = Transpose[perm = [0, 3, 1, 2]](%normal_A_block_0_1/adjust_block/adjust_reduction_block_0/adjust_bn_0/cond/Merge:0)
  %normal_A_block_0_1/adjust_block/adjust_reduction_block_0/adjust_bn_0/cond/Merge:0_pooling01 = AveragePool[auto_pad = 'SAME_UPPER', ceil_mode = 0, kernel_shape = [3, 3], strides = [1, 1]](%input_transposed52)
  %input_transposed51 = Transpose[perm = [0, 3, 1, 2]](%normal_A_block_0_1/adjust_block/adjust_reduction_block_0/adjust_bn_0/cond/Merge:0)
  %normal_A_block_0_1/adjust_block/adjust_reduction_block_0/adjust_bn_0/cond/Merge:0_pooling0 = AveragePool[auto_pad = 'SAME_UPPER', ceil_mode = 0, kernel_shape = [3, 3], strides = [1, 1]](%input_transposed51)
  %normal_A_block_0_1/block_4/normal_add_4_0/add:0 = Add(%normal_A_block_0_1/adjust_block/adjust_reduction_block_0/adjust_bn_0/cond/Merge:0_pooling0, %normal_A_block_0_1/adjust_block/adjust_reduction_block_0/adjust_bn_0/cond/Merge:0_pooling01)
  %fan_out_adjustment_out628 = Transpose[perm = [0, 2, 3, 1]](%normal_A_block_0_1/block_4/normal_add_4_0/add:0)
  %reduction_A_block_stem_2_1/reduction_pad_1_stem_2/Pad:0_pooling02 = MaxPool[auto_pad = 'VALID', ceil_mode = 0, kernel_shape = [3, 3], strides = [2, 2]](%reduction_A_block_stem_2_1/reduction_bn_1_stem_2/cond/Merge:0_permuted_padded)
  %batch_norm_output_buffer153 = BatchNormalization[epsilon = 9.99999997475243e-07, momentum = 0.999700009822845](%convolution_output283, %scale153, %bias153, %mean153, %var153)
  %reduction_A_block_stem_2_1/block_1/reduction_add_1_stem_2/add:0_pooling0 = AveragePool[auto_pad = 'SAME_UPPER', ceil_mode = 0, kernel_shape = [3, 3], strides = [1, 1]](%reduction_A_block_stem_2_1/block_1/reduction_add_1_stem_2/add:0)
  %batch_norm_output_buffer152 = BatchNormalization[epsilon = 9.99999997475243e-07, momentum = 0.999700009822845](%convolution_output281, %scale152, %bias152, %mean152, %var152)
  %reduction_A_block_stem_2_1/reduction_pad_1_stem_2/Pad:0_pooling01 = AveragePool[auto_pad = 'VALID', ceil_mode = 0, kernel_shape = [3, 3], strides = [2, 2]](%reduction_A_block_stem_2_1/reduction_bn_1_stem_2/cond/Merge:0_permuted_padded)
  %batch_norm_output_buffer151 = BatchNormalization[epsilon = 9.99999997475243e-07, momentum = 0.999700009822845](%convolution_output279, %scale151, %bias151, %mean151, %var151)
  %reduction_A_block_stem_2_1/reduction_pad_1_stem_2/Pad:0_pooling0 = MaxPool[auto_pad = 'VALID', ceil_mode = 0, kernel_shape = [3, 3], strides = [2, 2]](%reduction_A_block_stem_2_1/reduction_bn_1_stem_2/cond/Merge:0_permuted_padded)
  %reduction_A_block_stem_2_1/block_5/reduction_add4_stem_2/add:0 = Add(%batch_norm_output_buffer153, %reduction_A_block_stem_2_1/reduction_pad_1_stem_2/Pad:0_pooling02)
  %reduction_A_block_stem_2_1/block_3/reduction_add3_stem_2/add:0 = Add(%reduction_A_block_stem_2_1/reduction_pad_1_stem_2/Pad:0_pooling01, %batch_norm_output_buffer152)
  %reduction_A_block_stem_2_1/block_2/reduction_add_2_stem_2/add:0 = Add(%reduction_A_block_stem_2_1/reduction_pad_1_stem_2/Pad:0_pooling0, %batch_norm_output_buffer151)
  %reduction_A_block_stem_2_1/block_4/add_6/add:0 = Add(%reduction_A_block_stem_2_1/block_2/reduction_add_2_stem_2/add:0, %reduction_A_block_stem_2_1/block_1/reduction_add_1_stem_2/add:0_pooling0)
  %reduction_A_block_stem_2_1/reduction_concat_stem_2/concat:0 = Concat[axis = 1](%reduction_A_block_stem_2_1/block_2/reduction_add_2_stem_2/add:0, %reduction_A_block_stem_2_1/block_3/reduction_add3_stem_2/add:0, %reduction_A_block_stem_2_1/block_4/add_6/add:0, %reduction_A_block_stem_2_1/block_5/reduction_add4_stem_2/add:0)
  %normal_A_block_0_1/activation_211/Relu:0 = Relu(%reduction_A_block_stem_2_1/reduction_concat_stem_2/concat:0)
  %convolution_output306 = Conv[auto_pad = 'NOTSET', dilations = [1, 1], group = 1, kernel_shape = [1, 1], pads = [0, 0, 0, 0], strides = [1, 1]](%normal_A_block_0_1/activation_211/Relu:0, %normal_A_block_0_1/normal_conv_1_0/kernel:0)
  %batch_norm_output_buffer165 = BatchNormalization[epsilon = 9.99999997475243e-07, momentum = 0.999700009822845](%convolution_output306, %scale165, %bias165, %mean165, %var165)
  %normal_A_block_0_1/normal_bn_1_0/cond/Merge:0 = Transpose[perm = [0, 2, 3, 1]](%batch_norm_output_buffer165)
  %normal_A_block_0_1/block_5/separable_conv_block_normal_left5_0/activation_220/Relu:0 = Relu(%normal_A_block_0_1/normal_bn_1_0/cond/Merge:0)
  %adjusted_input179 = Transpose[perm = [0, 3, 1, 2]](%normal_A_block_0_1/block_5/separable_conv_block_normal_left5_0/activation_220/Relu:0)
  %convolution_output326 = Conv[auto_pad = 'NOTSET', dilations = [1, 1], group = 44, kernel_shape = [3, 3], pads = [1, 1, 1, 1], strides = [1, 1]](%adjusted_input179, %normal_A_block_0_1/block_5/separable_conv_block_normal_left5_0/separable_conv_1_normal_left5_0/depthwise_kernel:0)
  %convolution_output327 = Conv[auto_pad = 'NOTSET', dilations = [1, 1], group = 1, kernel_shape = [1, 1], strides = [1, 1]](%convolution_output326, %W147)
  %batch_norm_output_buffer176 = BatchNormalization[epsilon = 9.99999997475243e-07, momentum = 0.999700009822845](%convolution_output327, %scale176, %bias176, %mean176, %var176)
  %normal_A_block_0_1/block_5/separable_conv_block_normal_left5_0/activation_221/Relu:0 = Relu(%batch_norm_output_buffer176)
  %convolution_output304 = Conv[auto_pad = 'NOTSET', dilations = [1, 1], group = 44, kernel_shape = [3, 3], pads = [1, 1, 1, 1], strides = [1, 1]](%normal_A_block_0_1/block_5/separable_conv_block_normal_left5_0/activation_221/Relu:0, %normal_A_block_0_1/block_5/separable_conv_block_normal_left5_0/separable_conv_2_normal_left5_0/depthwise_kernel:0)
  %convolution_output305 = Conv[auto_pad = 'NOTSET', dilations = [1, 1], group = 1, kernel_shape = [1, 1], strides = [1, 1]](%convolution_output304, %W137)
  %batch_norm_output_buffer164 = BatchNormalization[epsilon = 9.99999997475243e-07, momentum = 0.999700009822845](%convolution_output305, %scale164, %bias164, %mean164, %var164)
  %normal_A_block_0_1/block_5/separable_conv_block_normal_left5_0/separable_conv_2_bn_normal_left5_0/cond/Merge:0 = Transpose[perm = [0, 2, 3, 1]](%batch_norm_output_buffer164)
  %normal_A_block_0_1/block_1/separable_conv_block_normal_left1_0/activation_212/Relu:0 = Relu(%normal_A_block_0_1/normal_bn_1_0/cond/Merge:0)
  %adjusted_input175 = Transpose[perm = [0, 3, 1, 2]](%normal_A_block_0_1/block_1/separable_conv_block_normal_left1_0/activation_212/Relu:0)
  %convolution_output318 = Conv[auto_pad = 'NOTSET', dilations = [1, 1], group = 44, kernel_shape = [5, 5], pads = [2, 2, 2, 2], strides = [1, 1]](%adjusted_input175, %normal_A_block_0_1/block_1/separable_conv_block_normal_left1_0/separable_conv_1_normal_left1_0/depthwise_kernel:0)
  %convolution_output319 = Conv[auto_pad = 'NOTSET', dilations = [1, 1], group = 1, kernel_shape = [1, 1], strides = [1, 1]](%convolution_output318, %W143)
  %batch_norm_output_buffer172 = BatchNormalization[epsilon = 9.99999997475243e-07, momentum = 0.999700009822845](%convolution_output319, %scale172, %bias172, %mean172, %var172)
  %normal_A_block_0_1/block_1/separable_conv_block_normal_left1_0/activation_213/Relu:0 = Relu(%batch_norm_output_buffer172)
  %convolution_output296 = Conv[auto_pad = 'NOTSET', dilations = [1, 1], group = 44, kernel_shape = [5, 5], pads = [2, 2, 2, 2], strides = [1, 1]](%normal_A_block_0_1/block_1/separable_conv_block_normal_left1_0/activation_213/Relu:0, %normal_A_block_0_1/block_1/separable_conv_block_normal_left1_0/separable_conv_2_normal_left1_0/depthwise_kernel:0)
  %convolution_output297 = Conv[auto_pad = 'NOTSET', dilations = [1, 1], group = 1, kernel_shape = [1, 1], strides = [1, 1]](%convolution_output296, %W133)
  %batch_norm_output_buffer160 = BatchNormalization[epsilon = 9.99999997475243e-07, momentum = 0.999700009822845](%convolution_output297, %scale160, %bias160, %mean160, %var160)
  %normal_A_block_0_1/block_1/normal_add_1_0/add:0 = Add(%batch_norm_output_buffer160, %batch_norm_output_buffer161)
  %fan_out_adjustment_out626 = Transpose[perm = [0, 2, 3, 1]](%normal_A_block_0_1/block_1/normal_add_1_0/add:0)
  %input_transposed50 = Transpose[perm = [0, 3, 1, 2]](%normal_A_block_0_1/normal_bn_1_0/cond/Merge:0)
  %normal_A_block_0_1/normal_bn_1_0/cond/Merge:0_pooling0 = AveragePool[auto_pad = 'SAME_UPPER', ceil_mode = 0, kernel_shape = [3, 3], strides = [1, 1]](%input_transposed50)
  %normal_A_block_0_1/normal_bn_1_0/cond/Merge:0_transpose0 = Transpose[perm = [0, 2, 3, 1]](%normal_A_block_0_1/normal_bn_1_0/cond/Merge:0_pooling0)
  %normal_A_block_0_1/block_3/normal_add_3_0/add:0 = Add(%normal_A_block_0_1/normal_bn_1_0/cond/Merge:0_transpose0, %normal_A_block_0_1/adjust_block/adjust_reduction_block_0/adjust_bn_0/cond/Merge:0)
  %normal_A_block_0_1/block_5/normal_add_5_0/add:0 = Add(%normal_A_block_0_1/block_5/separable_conv_block_normal_left5_0/separable_conv_2_bn_normal_left5_0/cond/Merge:0, %normal_A_block_0_1/normal_bn_1_0/cond/Merge:0)
  %normal_A_block_0_1/normal_concat_0/concat:0 = Concat[axis = 3](%normal_A_block_0_1/adjust_block/adjust_reduction_block_0/adjust_bn_0/cond/Merge:0, %fan_out_adjustment_out626, %fan_out_adjustment_out627, %normal_A_block_0_1/block_3/normal_add_3_0/add:0, %fan_out_adjustment_out628, %normal_A_block_0_1/block_5/normal_add_5_0/add:0)
  %normal_A_block_2_1/adjust_block/adjust_projection_block_2/activation_234/Relu:0 = Relu(%normal_A_block_0_1/normal_concat_0/concat:0)
  %normal_A_block_1_1/activation_223/Relu:0 = Relu(%normal_A_block_0_1/normal_concat_0/concat:0)
  %adjusted_input141 = Transpose[perm = [0, 3, 1, 2]](%normal_A_block_2_1/adjust_block/adjust_projection_block_2/activation_234/Relu:0)
  %convolution_output256 = Conv[auto_pad = 'NOTSET', dilations = [1, 1], group = 1, kernel_shape = [1, 1], pads = [0, 0, 0, 0], strides = [1, 1]](%adjusted_input141, %normal_A_block_2_1/adjust_block/adjust_projection_block_2/adjust_conv_projection_2/kernel:0)
  %adjusted_input140 = Transpose[perm = [0, 3, 1, 2]](%normal_A_block_1_1/activation_223/Relu:0)
  %convolution_output255 = Conv[auto_pad = 'NOTSET', dilations = [1, 1], group = 1, kernel_shape = [1, 1], pads = [0, 0, 0, 0], strides = [1, 1]](%adjusted_input140, %normal_A_block_1_1/normal_conv_1_1/kernel:0)
  %normal_A_block_1_1/adjust_block/adjust_projection_block_1/activation_222/Relu:0 = Relu(%reduction_A_block_stem_2_1/reduction_concat_stem_2/concat:0)
  %batch_norm_output_buffer139 = BatchNormalization[epsilon = 9.99999997475243e-07, momentum = 0.999700009822845](%convolution_output256, %scale139, %bias139, %mean139, %var139)
  %normal_A_block_2_1/adjust_block/adjust_projection_block_2/adjust_bn_2/cond/Merge:0 = Transpose[perm = [0, 2, 3, 1]](%batch_norm_output_buffer139)
  %normal_A_block_2_1/block_2/separable_conv_block_normal_right2_2/activation_242/Relu:0 = Relu(%normal_A_block_2_1/adjust_block/adjust_projection_block_2/adjust_bn_2/cond/Merge:0)
  %adjusted_input159 = Transpose[perm = [0, 3, 1, 2]](%normal_A_block_2_1/block_2/separable_conv_block_normal_right2_2/activation_242/Relu:0)
  %convolution_output290 = Conv[auto_pad = 'NOTSET', dilations = [1, 1], group = 44, kernel_shape = [3, 3], pads = [1, 1, 1, 1], strides = [1, 1]](%adjusted_input159, %normal_A_block_2_1/block_2/separable_conv_block_normal_right2_2/separable_conv_1_normal_right2_2/depthwise_kernel:0)
  %convolution_output291 = Conv[auto_pad = 'NOTSET', dilations = [1, 1], group = 1, kernel_shape = [1, 1], strides = [1, 1]](%convolution_output290, %W131)
  %batch_norm_output_buffer158 = BatchNormalization[epsilon = 9.99999997475243e-07, momentum = 0.999700009822845](%convolution_output291, %scale158, %bias158, %mean158, %var158)
  %normal_A_block_2_1/block_2/separable_conv_block_normal_right2_2/activation_243/Relu:0 = Relu(%batch_norm_output_buffer158)
  %convolution_output263 = Conv[auto_pad = 'NOTSET', dilations = [1, 1], group = 44, kernel_shape = [3, 3], pads = [1, 1, 1, 1], strides = [1, 1]](%normal_A_block_2_1/block_2/separable_conv_block_normal_right2_2/activation_243/Relu:0, %normal_A_block_2_1/block_2/separable_conv_block_normal_right2_2/separable_conv_2_normal_right2_2/depthwise_kernel:0)
  %convolution_output264 = Conv[auto_pad = 'NOTSET', dilations = [1, 1], group = 1, kernel_shape = [1, 1], strides = [1, 1]](%convolution_output263, %W118)
  %batch_norm_output_buffer143 = BatchNormalization[epsilon = 9.99999997475243e-07, momentum = 0.999700009822845](%convolution_output264, %scale143, %bias143, %mean143, %var143)
  %normal_A_block_2_1/block_2/separable_conv_block_normal_left2_2/activation_240/Relu:0 = Relu(%normal_A_block_2_1/adjust_block/adjust_projection_block_2/adjust_bn_2/cond/Merge:0)
  %adjusted_input158 = Transpose[perm = [0, 3, 1, 2]](%normal_A_block_2_1/block_2/separable_conv_block_normal_left2_2/activation_240/Relu:0)
  %convolution_output288 = Conv[auto_pad = 'NOTSET', dilations = [1, 1], group = 44, kernel_shape = [5, 5], pads = [2, 2, 2, 2], strides = [1, 1]](%adjusted_input158, %normal_A_block_2_1/block_2/separable_conv_block_normal_left2_2/separable_conv_1_normal_left2_2/depthwise_kernel:0)
  %convolution_output289 = Conv[auto_pad = 'NOTSET', dilations = [1, 1], group = 1, kernel_shape = [1, 1], strides = [1, 1]](%convolution_output288, %W130)
  %batch_norm_output_buffer157 = BatchNormalization[epsilon = 9.99999997475243e-07, momentum = 0.999700009822845](%convolution_output289, %scale157, %bias157, %mean157, %var157)
  %normal_A_block_2_1/block_2/separable_conv_block_normal_left2_2/activation_241/Relu:0 = Relu(%batch_norm_output_buffer157)
  %convolution_output261 = Conv[auto_pad = 'NOTSET', dilations = [1, 1], group = 44, kernel_shape = [5, 5], pads = [2, 2, 2, 2], strides = [1, 1]](%normal_A_block_2_1/block_2/separable_conv_block_normal_left2_2/activation_241/Relu:0, %normal_A_block_2_1/block_2/separable_conv_block_normal_left2_2/separable_conv_2_normal_left2_2/depthwise_kernel:0)
  %convolution_output262 = Conv[auto_pad = 'NOTSET', dilations = [1, 1], group = 1, kernel_shape = [1, 1], strides = [1, 1]](%convolution_output261, %W117)
  %batch_norm_output_buffer142 = BatchNormalization[epsilon = 9.99999997475243e-07, momentum = 0.999700009822845](%convolution_output262, %scale142, %bias142, %mean142, %var142)
  %normal_A_block_2_1/block_2/normal_add_2_2/add:0 = Add(%batch_norm_output_buffer142, %batch_norm_output_buffer143)
  %fan_out_adjustment_out617 = Transpose[perm = [0, 2, 3, 1]](%normal_A_block_2_1/block_2/normal_add_2_2/add:0)
  %normal_A_block_2_1/block_1/separable_conv_block_normal_right1_2/activation_238/Relu:0 = Relu(%normal_A_block_2_1/adjust_block/adjust_projection_block_2/adjust_bn_2/cond/Merge:0)
  %adjusted_input157 = Transpose[perm = [0, 3, 1, 2]](%normal_A_block_2_1/block_1/separable_conv_block_normal_right1_2/activation_238/Relu:0)
  %convolution_output286 = Conv[auto_pad = 'NOTSET', dilations = [1, 1], group = 44, kernel_shape = [3, 3], pads = [1, 1, 1, 1], strides = [1, 1]](%adjusted_input157, %normal_A_block_2_1/block_1/separable_conv_block_normal_right1_2/separable_conv_1_normal_right1_2/depthwise_kernel:0)
  %convolution_output287 = Conv[auto_pad = 'NOTSET', dilations = [1, 1], group = 1, kernel_shape = [1, 1], strides = [1, 1]](%convolution_output286, %W129)
  %batch_norm_output_buffer156 = BatchNormalization[epsilon = 9.99999997475243e-07, momentum = 0.999700009822845](%convolution_output287, %scale156, %bias156, %mean156, %var156)
  %normal_A_block_2_1/block_1/separable_conv_block_normal_right1_2/activation_239/Relu:0 = Relu(%batch_norm_output_buffer156)
  %convolution_output259 = Conv[auto_pad = 'NOTSET', dilations = [1, 1], group = 44, kernel_shape = [3, 3], pads = [1, 1, 1, 1], strides = [1, 1]](%normal_A_block_2_1/block_1/separable_conv_block_normal_right1_2/activation_239/Relu:0, %normal_A_block_2_1/block_1/separable_conv_block_normal_right1_2/separable_conv_2_normal_right1_2/depthwise_kernel:0)
  %convolution_output260 = Conv[auto_pad = 'NOTSET', dilations = [1, 1], group = 1, kernel_shape = [1, 1], strides = [1, 1]](%convolution_output259, %W116)
  %batch_norm_output_buffer141 = BatchNormalization[epsilon = 9.99999997475243e-07, momentum = 0.999700009822845](%convolution_output260, %scale141, %bias141, %mean141, %var141)
  %input_transposed45 = Transpose[perm = [0, 3, 1, 2]](%normal_A_block_2_1/adjust_block/adjust_projection_block_2/adjust_bn_2/cond/Merge:0)
  %normal_A_block_2_1/adjust_block/adjust_projection_block_2/adjust_bn_2/cond/Merge:0_pooling01 = AveragePool[auto_pad = 'SAME_UPPER', ceil_mode = 0, kernel_shape = [3, 3], strides = [1, 1]](%input_transposed45)
  %input_transposed44 = Transpose[perm = [0, 3, 1, 2]](%normal_A_block_2_1/adjust_block/adjust_projection_block_2/adjust_bn_2/cond/Merge:0)
  %normal_A_block_2_1/adjust_block/adjust_projection_block_2/adjust_bn_2/cond/Merge:0_pooling0 = AveragePool[auto_pad = 'SAME_UPPER', ceil_mode = 0, kernel_shape = [3, 3], strides = [1, 1]](%input_transposed44)
  %normal_A_block_2_1/block_4/normal_add_4_2/add:0 = Add(%normal_A_block_2_1/adjust_block/adjust_projection_block_2/adjust_bn_2/cond/Merge:0_pooling0, %normal_A_block_2_1/adjust_block/adjust_projection_block_2/adjust_bn_2/cond/Merge:0_pooling01)
  %fan_out_adjustment_out618 = Transpose[perm = [0, 2, 3, 1]](%normal_A_block_2_1/block_4/normal_add_4_2/add:0)
  %batch_norm_output_buffer138 = BatchNormalization[epsilon = 9.99999997475243e-07, momentum = 0.999700009822845](%convolution_output255, %scale138, %bias138, %mean138, %var138)
  %normal_A_block_1_1/normal_bn_1_1/cond/Merge:0 = Transpose[perm = [0, 2, 3, 1]](%batch_norm_output_buffer138)
  %normal_A_block_1_1/block_5/separable_conv_block_normal_left5_1/activation_232/Relu:0 = Relu(%normal_A_block_1_1/normal_bn_1_1/cond/Merge:0)
  %adjusted_input152 = Transpose[perm = [0, 3, 1, 2]](%normal_A_block_1_1/block_5/separable_conv_block_normal_left5_1/activation_232/Relu:0)
  %convolution_output276 = Conv[auto_pad = 'NOTSET', dilations = [1, 1], group = 44, kernel_shape = [3, 3], pads = [1, 1, 1, 1], strides = [1, 1]](%adjusted_input152, %normal_A_block_1_1/block_5/separable_conv_block_normal_left5_1/separable_conv_1_normal_left5_1/depthwise_kernel:0)
  %convolution_output277 = Conv[auto_pad = 'NOTSET', dilations = [1, 1], group = 1, kernel_shape = [1, 1], strides = [1, 1]](%convolution_output276, %W124)
  %batch_norm_output_buffer150 = BatchNormalization[epsilon = 9.99999997475243e-07, momentum = 0.999700009822845](%convolution_output277, %scale150, %bias150, %mean150, %var150)
  %normal_A_block_1_1/block_5/separable_conv_block_normal_left5_1/activation_233/Relu:0 = Relu(%batch_norm_output_buffer150)
  %convolution_output253 = Conv[auto_pad = 'NOTSET', dilations = [1, 1], group = 44, kernel_shape = [3, 3], pads = [1, 1, 1, 1], strides = [1, 1]](%normal_A_block_1_1/block_5/separable_conv_block_normal_left5_1/activation_233/Relu:0, %normal_A_block_1_1/block_5/separable_conv_block_normal_left5_1/separable_conv_2_normal_left5_1/depthwise_kernel:0)
  %convolution_output254 = Conv[auto_pad = 'NOTSET', dilations = [1, 1], group = 1, kernel_shape = [1, 1], strides = [1, 1]](%convolution_output253, %W114)
  %normal_A_block_1_1/block_1/separable_conv_block_normal_left1_1/activation_224/Relu:0 = Relu(%normal_A_block_1_1/normal_bn_1_1/cond/Merge:0)
  %adjusted_input148 = Transpose[perm = [0, 3, 1, 2]](%normal_A_block_1_1/block_1/separable_conv_block_normal_left1_1/activation_224/Relu:0)
  %convolution_output268 = Conv[auto_pad = 'NOTSET', dilations = [1, 1], group = 44, kernel_shape = [5, 5], pads = [2, 2, 2, 2], strides = [1, 1]](%adjusted_input148, %normal_A_block_1_1/block_1/separable_conv_block_normal_left1_1/separable_conv_1_normal_left1_1/depthwise_kernel:0)
  %convolution_output269 = Conv[auto_pad = 'NOTSET', dilations = [1, 1], group = 1, kernel_shape = [1, 1], strides = [1, 1]](%convolution_output268, %W120)
  %batch_norm_output_buffer146 = BatchNormalization[epsilon = 9.99999997475243e-07, momentum = 0.999700009822845](%convolution_output269, %scale146, %bias146, %mean146, %var146)
  %normal_A_block_1_1/block_1/separable_conv_block_normal_left1_1/activation_225/Relu:0 = Relu(%batch_norm_output_buffer146)
  %convolution_output245 = Conv[auto_pad = 'NOTSET', dilations = [1, 1], group = 44, kernel_shape = [5, 5], pads = [2, 2, 2, 2], strides = [1, 1]](%normal_A_block_1_1/block_1/separable_conv_block_normal_left1_1/activation_225/Relu:0, %normal_A_block_1_1/block_1/separable_conv_block_normal_left1_1/separable_conv_2_normal_left1_1/depthwise_kernel:0)
  %convolution_output246 = Conv[auto_pad = 'NOTSET', dilations = [1, 1], group = 1, kernel_shape = [1, 1], strides = [1, 1]](%convolution_output245, %W110)
  %batch_norm_output_buffer137 = BatchNormalization[epsilon = 9.99999997475243e-07, momentum = 0.999700009822845](%convolution_output254, %scale137, %bias137, %mean137, %var137)
  %normal_A_block_1_1/block_5/separable_conv_block_normal_left5_1/separable_conv_2_bn_normal_left5_1/cond/Merge:0 = Transpose[perm = [0, 2, 3, 1]](%batch_norm_output_buffer137)
  %input_transposed40 = Transpose[perm = [0, 3, 1, 2]](%normal_A_block_1_1/normal_bn_1_1/cond/Merge:0)
  %normal_A_block_1_1/normal_bn_1_1/cond/Merge:0_pooling0 = AveragePool[auto_pad = 'SAME_UPPER', ceil_mode = 0, kernel_shape = [3, 3], strides = [1, 1]](%input_transposed40)
  %normal_A_block_1_1/normal_bn_1_1/cond/Merge:0_transpose0 = Transpose[perm = [0, 2, 3, 1]](%normal_A_block_1_1/normal_bn_1_1/cond/Merge:0_pooling0)
  %batch_norm_output_buffer133 = BatchNormalization[epsilon = 9.99999997475243e-07, momentum = 0.999700009822845](%convolution_output246, %scale133, %bias133, %mean133, %var133)
  %convolution_output234 = Conv[auto_pad = 'NOTSET', dilations = [1, 1], group = 1, kernel_shape = [1, 1], pads = [0, 0, 0, 0], strides = [1, 1]](%normal_A_block_1_1/adjust_block/adjust_projection_block_1/activation_222/Relu:0, %normal_A_block_1_1/adjust_block/adjust_projection_block_1/adjust_conv_projection_1/kernel:0)
  %normal_A_block_1_1/block_5/normal_add_5_1/add:0 = Add(%normal_A_block_1_1/block_5/separable_conv_block_normal_left5_1/separable_conv_2_bn_normal_left5_1/cond/Merge:0, %normal_A_block_1_1/normal_bn_1_1/cond/Merge:0)
  %batch_norm_output_buffer127 = BatchNormalization[epsilon = 9.99999997475243e-07, momentum = 0.999700009822845](%convolution_output234, %scale127, %bias127, %mean127, %var127)
  %normal_A_block_1_1/adjust_block/adjust_projection_block_1/adjust_bn_1/cond/Merge:0 = Transpose[perm = [0, 2, 3, 1]](%batch_norm_output_buffer127)
  %normal_A_block_1_1/block_2/separable_conv_block_normal_right2_1/activation_230/Relu:0 = Relu(%normal_A_block_1_1/adjust_block/adjust_projection_block_1/adjust_bn_1/cond/Merge:0)
  %adjusted_input151 = Transpose[perm = [0, 3, 1, 2]](%normal_A_block_1_1/block_2/separable_conv_block_normal_right2_1/activation_230/Relu:0)
  %convolution_output274 = Conv[auto_pad = 'NOTSET', dilations = [1, 1], group = 44, kernel_shape = [3, 3], pads = [1, 1, 1, 1], strides = [1, 1]](%adjusted_input151, %normal_A_block_1_1/block_2/separable_conv_block_normal_right2_1/separable_conv_1_normal_right2_1/depthwise_kernel:0)
  %convolution_output275 = Conv[auto_pad = 'NOTSET', dilations = [1, 1], group = 1, kernel_shape = [1, 1], strides = [1, 1]](%convolution_output274, %W123)
  %batch_norm_output_buffer149 = BatchNormalization[epsilon = 9.99999997475243e-07, momentum = 0.999700009822845](%convolution_output275, %scale149, %bias149, %mean149, %var149)
  %normal_A_block_1_1/block_2/separable_conv_block_normal_right2_1/activation_231/Relu:0 = Relu(%batch_norm_output_buffer149)
  %convolution_output251 = Conv[auto_pad = 'NOTSET', dilations = [1, 1], group = 44, kernel_shape = [3, 3], pads = [1, 1, 1, 1], strides = [1, 1]](%normal_A_block_1_1/block_2/separable_conv_block_normal_right2_1/activation_231/Relu:0, %normal_A_block_1_1/block_2/separable_conv_block_normal_right2_1/separable_conv_2_normal_right2_1/depthwise_kernel:0)
  %convolution_output252 = Conv[auto_pad = 'NOTSET', dilations = [1, 1], group = 1, kernel_shape = [1, 1], strides = [1, 1]](%convolution_output251, %W113)
  %batch_norm_output_buffer136 = BatchNormalization[epsilon = 9.99999997475243e-07, momentum = 0.999700009822845](%convolution_output252, %scale136, %bias136, %mean136, %var136)
  %normal_A_block_1_1/block_2/separable_conv_block_normal_left2_1/activation_228/Relu:0 = Relu(%normal_A_block_1_1/adjust_block/adjust_projection_block_1/adjust_bn_1/cond/Merge:0)
  %adjusted_input150 = Transpose[perm = [0, 3, 1, 2]](%normal_A_block_1_1/block_2/separable_conv_block_normal_left2_1/activation_228/Relu:0)
  %convolution_output272 = Conv[auto_pad = 'NOTSET', dilations = [1, 1], group = 44, kernel_shape = [5, 5], pads = [2, 2, 2, 2], strides = [1, 1]](%adjusted_input150, %normal_A_block_1_1/block_2/separable_conv_block_normal_left2_1/separable_conv_1_normal_left2_1/depthwise_kernel:0)
  %convolution_output273 = Conv[auto_pad = 'NOTSET', dilations = [1, 1], group = 1, kernel_shape = [1, 1], strides = [1, 1]](%convolution_output272, %W122)
  %batch_norm_output_buffer148 = BatchNormalization[epsilon = 9.99999997475243e-07, momentum = 0.999700009822845](%convolution_output273, %scale148, %bias148, %mean148, %var148)
  %normal_A_block_1_1/block_2/separable_conv_block_normal_left2_1/activation_229/Relu:0 = Relu(%batch_norm_output_buffer148)
  %convolution_output249 = Conv[auto_pad = 'NOTSET', dilations = [1, 1], group = 44, kernel_shape = [5, 5], pads = [2, 2, 2, 2], strides = [1, 1]](%normal_A_block_1_1/block_2/separable_conv_block_normal_left2_1/activation_229/Relu:0, %normal_A_block_1_1/block_2/separable_conv_block_normal_left2_1/separable_conv_2_normal_left2_1/depthwise_kernel:0)
  %convolution_output250 = Conv[auto_pad = 'NOTSET', dilations = [1, 1], group = 1, kernel_shape = [1, 1], strides = [1, 1]](%convolution_output249, %W112)
  %batch_norm_output_buffer135 = BatchNormalization[epsilon = 9.99999997475243e-07, momentum = 0.999700009822845](%convolution_output250, %scale135, %bias135, %mean135, %var135)
  %normal_A_block_1_1/block_2/normal_add_2_1/add:0 = Add(%batch_norm_output_buffer135, %batch_norm_output_buffer136)
  %fan_out_adjustment_out614 = Transpose[perm = [0, 2, 3, 1]](%normal_A_block_1_1/block_2/normal_add_2_1/add:0)
  %normal_A_block_1_1/block_1/separable_conv_block_normal_right1_1/activation_226/Relu:0 = Relu(%normal_A_block_1_1/adjust_block/adjust_projection_block_1/adjust_bn_1/cond/Merge:0)
  %adjusted_input149 = Transpose[perm = [0, 3, 1, 2]](%normal_A_block_1_1/block_1/separable_conv_block_normal_right1_1/activation_226/Relu:0)
  %convolution_output270 = Conv[auto_pad = 'NOTSET', dilations = [1, 1], group = 44, kernel_shape = [3, 3], pads = [1, 1, 1, 1], strides = [1, 1]](%adjusted_input149, %normal_A_block_1_1/block_1/separable_conv_block_normal_right1_1/separable_conv_1_normal_right1_1/depthwise_kernel:0)
  %convolution_output271 = Conv[auto_pad = 'NOTSET', dilations = [1, 1], group = 1, kernel_shape = [1, 1], strides = [1, 1]](%convolution_output270, %W121)
  %batch_norm_output_buffer147 = BatchNormalization[epsilon = 9.99999997475243e-07, momentum = 0.999700009822845](%convolution_output271, %scale147, %bias147, %mean147, %var147)
  %normal_A_block_1_1/block_1/separable_conv_block_normal_right1_1/activation_227/Relu:0 = Relu(%batch_norm_output_buffer147)
  %convolution_output247 = Conv[auto_pad = 'NOTSET', dilations = [1, 1], group = 44, kernel_shape = [3, 3], pads = [1, 1, 1, 1], strides = [1, 1]](%normal_A_block_1_1/block_1/separable_conv_block_normal_right1_1/activation_227/Relu:0, %normal_A_block_1_1/block_1/separable_conv_block_normal_right1_1/separable_conv_2_normal_right1_1/depthwise_kernel:0)
  %convolution_output248 = Conv[auto_pad = 'NOTSET', dilations = [1, 1], group = 1, kernel_shape = [1, 1], strides = [1, 1]](%convolution_output247, %W111)
  %batch_norm_output_buffer134 = BatchNormalization[epsilon = 9.99999997475243e-07, momentum = 0.999700009822845](%convolution_output248, %scale134, %bias134, %mean134, %var134)
  %normal_A_block_1_1/block_1/normal_add_1_1/add:0 = Add(%batch_norm_output_buffer133, %batch_norm_output_buffer134)
  %fan_out_adjustment_out613 = Transpose[perm = [0, 2, 3, 1]](%normal_A_block_1_1/block_1/normal_add_1_1/add:0)
  %input_transposed42 = Transpose[perm = [0, 3, 1, 2]](%normal_A_block_1_1/adjust_block/adjust_projection_block_1/adjust_bn_1/cond/Merge:0)
  %normal_A_block_1_1/adjust_block/adjust_projection_block_1/adjust_bn_1/cond/Merge:0_pooling01 = AveragePool[auto_pad = 'SAME_UPPER', ceil_mode = 0, kernel_shape = [3, 3], strides = [1, 1]](%input_transposed42)
  %input_transposed41 = Transpose[perm = [0, 3, 1, 2]](%normal_A_block_1_1/adjust_block/adjust_projection_block_1/adjust_bn_1/cond/Merge:0)
  %normal_A_block_1_1/adjust_block/adjust_projection_block_1/adjust_bn_1/cond/Merge:0_pooling0 = AveragePool[auto_pad = 'SAME_UPPER', ceil_mode = 0, kernel_shape = [3, 3], strides = [1, 1]](%input_transposed41)
  %normal_A_block_1_1/block_4/normal_add_4_1/add:0 = Add(%normal_A_block_1_1/adjust_block/adjust_projection_block_1/adjust_bn_1/cond/Merge:0_pooling0, %normal_A_block_1_1/adjust_block/adjust_projection_block_1/adjust_bn_1/cond/Merge:0_pooling01)
  %fan_out_adjustment_out615 = Transpose[perm = [0, 2, 3, 1]](%normal_A_block_1_1/block_4/normal_add_4_1/add:0)
  %normal_A_block_1_1/block_3/normal_add_3_1/add:0 = Add(%normal_A_block_1_1/normal_bn_1_1/cond/Merge:0_transpose0, %normal_A_block_1_1/adjust_block/adjust_projection_block_1/adjust_bn_1/cond/Merge:0)
  %normal_A_block_1_1/normal_concat_1/concat:0 = Concat[axis = 3](%normal_A_block_1_1/adjust_block/adjust_projection_block_1/adjust_bn_1/cond/Merge:0, %fan_out_adjustment_out613, %fan_out_adjustment_out614, %normal_A_block_1_1/block_3/normal_add_3_1/add:0, %fan_out_adjustment_out615, %normal_A_block_1_1/block_5/normal_add_5_1/add:0)
  %normal_A_block_2_1/activation_235/Relu:0 = Relu(%normal_A_block_1_1/normal_concat_1/concat:0)
  %adjusted_input147 = Transpose[perm = [0, 3, 1, 2]](%normal_A_block_2_1/activation_235/Relu:0)
  %convolution_output267 = Conv[auto_pad = 'NOTSET', dilations = [1, 1], group = 1, kernel_shape = [1, 1], pads = [0, 0, 0, 0], strides = [1, 1]](%adjusted_input147, %normal_A_block_2_1/normal_conv_1_2/kernel:0)
  %batch_norm_output_buffer145 = BatchNormalization[epsilon = 9.99999997475243e-07, momentum = 0.999700009822845](%convolution_output267, %scale145, %bias145, %mean145, %var145)
  %normal_A_block_2_1/normal_bn_1_2/cond/Merge:0 = Transpose[perm = [0, 2, 3, 1]](%batch_norm_output_buffer145)
  %normal_A_block_2_1/block_5/separable_conv_block_normal_left5_2/activation_244/Relu:0 = Relu(%normal_A_block_2_1/normal_bn_1_2/cond/Merge:0)
  %adjusted_input160 = Transpose[perm = [0, 3, 1, 2]](%normal_A_block_2_1/block_5/separable_conv_block_normal_left5_2/activation_244/Relu:0)
  %convolution_output292 = Conv[auto_pad = 'NOTSET', dilations = [1, 1], group = 44, kernel_shape = [3, 3], pads = [1, 1, 1, 1], strides = [1, 1]](%adjusted_input160, %normal_A_block_2_1/block_5/separable_conv_block_normal_left5_2/separable_conv_1_normal_left5_2/depthwise_kernel:0)
  %convolution_output293 = Conv[auto_pad = 'NOTSET', dilations = [1, 1], group = 1, kernel_shape = [1, 1], strides = [1, 1]](%convolution_output292, %W132)
  %batch_norm_output_buffer159 = BatchNormalization[epsilon = 9.99999997475243e-07, momentum = 0.999700009822845](%convolution_output293, %scale159, %bias159, %mean159, %var159)
  %normal_A_block_2_1/block_5/separable_conv_block_normal_left5_2/activation_245/Relu:0 = Relu(%batch_norm_output_buffer159)
  %convolution_output265 = Conv[auto_pad = 'NOTSET', dilations = [1, 1], group = 44, kernel_shape = [3, 3], pads = [1, 1, 1, 1], strides = [1, 1]](%normal_A_block_2_1/block_5/separable_conv_block_normal_left5_2/activation_245/Relu:0, %normal_A_block_2_1/block_5/separable_conv_block_normal_left5_2/separable_conv_2_normal_left5_2/depthwise_kernel:0)
  %convolution_output266 = Conv[auto_pad = 'NOTSET', dilations = [1, 1], group = 1, kernel_shape = [1, 1], strides = [1, 1]](%convolution_output265, %W119)
  %batch_norm_output_buffer144 = BatchNormalization[epsilon = 9.99999997475243e-07, momentum = 0.999700009822845](%convolution_output266, %scale144, %bias144, %mean144, %var144)
  %normal_A_block_2_1/block_5/separable_conv_block_normal_left5_2/separable_conv_2_bn_normal_left5_2/cond/Merge:0 = Transpose[perm = [0, 2, 3, 1]](%batch_norm_output_buffer144)
  %normal_A_block_2_1/block_1/separable_conv_block_normal_left1_2/activation_236/Relu:0 = Relu(%normal_A_block_2_1/normal_bn_1_2/cond/Merge:0)
  %adjusted_input156 = Transpose[perm = [0, 3, 1, 2]](%normal_A_block_2_1/block_1/separable_conv_block_normal_left1_2/activation_236/Relu:0)
  %convolution_output284 = Conv[auto_pad = 'NOTSET', dilations = [1, 1], group = 44, kernel_shape = [5, 5], pads = [2, 2, 2, 2], strides = [1, 1]](%adjusted_input156, %normal_A_block_2_1/block_1/separable_conv_block_normal_left1_2/separable_conv_1_normal_left1_2/depthwise_kernel:0)
  %convolution_output285 = Conv[auto_pad = 'NOTSET', dilations = [1, 1], group = 1, kernel_shape = [1, 1], strides = [1, 1]](%convolution_output284, %W128)
  %batch_norm_output_buffer155 = BatchNormalization[epsilon = 9.99999997475243e-07, momentum = 0.999700009822845](%convolution_output285, %scale155, %bias155, %mean155, %var155)
  %normal_A_block_2_1/block_1/separable_conv_block_normal_left1_2/activation_237/Relu:0 = Relu(%batch_norm_output_buffer155)
  %convolution_output257 = Conv[auto_pad = 'NOTSET', dilations = [1, 1], group = 44, kernel_shape = [5, 5], pads = [2, 2, 2, 2], strides = [1, 1]](%normal_A_block_2_1/block_1/separable_conv_block_normal_left1_2/activation_237/Relu:0, %normal_A_block_2_1/block_1/separable_conv_block_normal_left1_2/separable_conv_2_normal_left1_2/depthwise_kernel:0)
  %convolution_output258 = Conv[auto_pad = 'NOTSET', dilations = [1, 1], group = 1, kernel_shape = [1, 1], strides = [1, 1]](%convolution_output257, %W115)
  %batch_norm_output_buffer140 = BatchNormalization[epsilon = 9.99999997475243e-07, momentum = 0.999700009822845](%convolution_output258, %scale140, %bias140, %mean140, %var140)
  %normal_A_block_2_1/block_1/normal_add_1_2/add:0 = Add(%batch_norm_output_buffer140, %batch_norm_output_buffer141)
  %fan_out_adjustment_out616 = Transpose[perm = [0, 2, 3, 1]](%normal_A_block_2_1/block_1/normal_add_1_2/add:0)
  %input_transposed43 = Transpose[perm = [0, 3, 1, 2]](%normal_A_block_2_1/normal_bn_1_2/cond/Merge:0)
  %normal_A_block_2_1/normal_bn_1_2/cond/Merge:0_pooling0 = AveragePool[auto_pad = 'SAME_UPPER', ceil_mode = 0, kernel_shape = [3, 3], strides = [1, 1]](%input_transposed43)
  %normal_A_block_2_1/normal_bn_1_2/cond/Merge:0_transpose0 = Transpose[perm = [0, 2, 3, 1]](%normal_A_block_2_1/normal_bn_1_2/cond/Merge:0_pooling0)
  %normal_A_block_2_1/block_3/normal_add_3_2/add:0 = Add(%normal_A_block_2_1/normal_bn_1_2/cond/Merge:0_transpose0, %normal_A_block_2_1/adjust_block/adjust_projection_block_2/adjust_bn_2/cond/Merge:0)
  %normal_A_block_2_1/block_5/normal_add_5_2/add:0 = Add(%normal_A_block_2_1/block_5/separable_conv_block_normal_left5_2/separable_conv_2_bn_normal_left5_2/cond/Merge:0, %normal_A_block_2_1/normal_bn_1_2/cond/Merge:0)
  %normal_A_block_2_1/normal_concat_2/concat:0 = Concat[axis = 3](%normal_A_block_2_1/adjust_block/adjust_projection_block_2/adjust_bn_2/cond/Merge:0, %fan_out_adjustment_out616, %fan_out_adjustment_out617, %normal_A_block_2_1/block_3/normal_add_3_2/add:0, %fan_out_adjustment_out618, %normal_A_block_2_1/block_5/normal_add_5_2/add:0)
  %reduction_A_block_reduce_4_1/adjust_block/adjust_projection_block_reduce_4/activation_258/Relu:0 = Relu(%normal_A_block_2_1/normal_concat_2/concat:0)
  %normal_A_block_3_1/activation_247/Relu:0 = Relu(%normal_A_block_2_1/normal_concat_2/concat:0)
  %adjusted_input128 = Transpose[perm = [0, 3, 1, 2]](%reduction_A_block_reduce_4_1/adjust_block/adjust_projection_block_reduce_4/activation_258/Relu:0)
  %convolution_output233 = Conv[auto_pad = 'NOTSET', dilations = [1, 1], group = 1, kernel_shape = [1, 1], pads = [0, 0, 0, 0], strides = [1, 1]](%adjusted_input128, %reduction_A_block_reduce_4_1/adjust_block/adjust_projection_block_reduce_4/adjust_conv_projection_reduce_4/kernel:0)
  %adjusted_input127 = Transpose[perm = [0, 3, 1, 2]](%normal_A_block_3_1/activation_247/Relu:0)
  %convolution_output232 = Conv[auto_pad = 'NOTSET', dilations = [1, 1], group = 1, kernel_shape = [1, 1], pads = [0, 0, 0, 0], strides = [1, 1]](%adjusted_input127, %normal_A_block_3_1/normal_conv_1_3/kernel:0)
  %normal_A_block_3_1/adjust_block/adjust_projection_block_3/activation_246/Relu:0 = Relu(%normal_A_block_1_1/normal_concat_1/concat:0)
  %batch_norm_output_buffer126 = BatchNormalization[epsilon = 9.99999997475243e-07, momentum = 0.999700009822845](%convolution_output233, %scale126, %bias126, %mean126, %var126)
  %reduction_A_block_reduce_4_1/adjust_block/adjust_projection_block_reduce_4/adjust_bn_reduce_4/cond/Merge:0 = Transpose[perm = [0, 2, 3, 1]](%batch_norm_output_buffer126)
  %reduction_A_block_reduce_4_1/block_1/separable_conv_block_reduction_right1_reduce_4/activation_262/Relu:0 = Relu(%reduction_A_block_reduce_4_1/adjust_block/adjust_projection_block_reduce_4/adjust_bn_reduce_4/cond/Merge:0)
  %reduction_A_block_reduce_4_1/block_1/separable_conv_block_reduction_right1_reduce_4/activation_262/Relu:0_permuted = Transpose[perm = [0, 3, 1, 2]](%reduction_A_block_reduce_4_1/block_1/separable_conv_block_reduction_right1_reduce_4/activation_262/Relu:0)
  %reduction_A_block_reduce_4_1/block_1/separable_conv_block_reduction_right1_reduce_4/activation_262/Relu:0_permuted_padded = Pad[mode = 'constant'](%reduction_A_block_reduce_4_1/block_1/separable_conv_block_reduction_right1_reduce_4/activation_262/Relu:0_permuted, %Pad11_pads, %Pad11_value)
  %batch_norm_output_buffer125 = BatchNormalization[epsilon = 9.99999997475243e-07, momentum = 0.999700009822845](%convolution_output232, %scale125, %bias125, %mean125, %var125)
  %normal_A_block_3_1/normal_bn_1_3/cond/Merge:0 = Transpose[perm = [0, 2, 3, 1]](%batch_norm_output_buffer125)
  %normal_A_block_3_1/block_5/separable_conv_block_normal_left5_3/activation_256/Relu:0 = Relu(%normal_A_block_3_1/normal_bn_1_3/cond/Merge:0)
  %adjusted_input134 = Transpose[perm = [0, 3, 1, 2]](%normal_A_block_3_1/block_5/separable_conv_block_normal_left5_3/activation_256/Relu:0)
  %convolution_output243 = Conv[auto_pad = 'NOTSET', dilations = [1, 1], group = 44, kernel_shape = [3, 3], pads = [1, 1, 1, 1], strides = [1, 1]](%adjusted_input134, %normal_A_block_3_1/block_5/separable_conv_block_normal_left5_3/separable_conv_1_normal_left5_3/depthwise_kernel:0)
  %convolution_output244 = Conv[auto_pad = 'NOTSET', dilations = [1, 1], group = 1, kernel_shape = [1, 1], strides = [1, 1]](%convolution_output243, %W109)
  %batch_norm_output_buffer132 = BatchNormalization[epsilon = 9.99999997475243e-07, momentum = 0.999700009822845](%convolution_output244, %scale132, %bias132, %mean132, %var132)
  %normal_A_block_3_1/block_5/separable_conv_block_normal_left5_3/activation_257/Relu:0 = Relu(%batch_norm_output_buffer132)
  %convolution_output230 = Conv[auto_pad = 'NOTSET', dilations = [1, 1], group = 44, kernel_shape = [3, 3], pads = [1, 1, 1, 1], strides = [1, 1]](%normal_A_block_3_1/block_5/separable_conv_block_normal_left5_3/activation_257/Relu:0, %normal_A_block_3_1/block_5/separable_conv_block_normal_left5_3/separable_conv_2_normal_left5_3/depthwise_kernel:0)
  %convolution_output231 = Conv[auto_pad = 'NOTSET', dilations = [1, 1], group = 1, kernel_shape = [1, 1], strides = [1, 1]](%convolution_output230, %W104)
  %normal_A_block_3_1/block_1/separable_conv_block_normal_left1_3/activation_248/Relu:0 = Relu(%normal_A_block_3_1/normal_bn_1_3/cond/Merge:0)
  %adjusted_input130 = Transpose[perm = [0, 3, 1, 2]](%normal_A_block_3_1/block_1/separable_conv_block_normal_left1_3/activation_248/Relu:0)
  %convolution_output235 = Conv[auto_pad = 'NOTSET', dilations = [1, 1], group = 44, kernel_shape = [5, 5], pads = [2, 2, 2, 2], strides = [1, 1]](%adjusted_input130, %normal_A_block_3_1/block_1/separable_conv_block_normal_left1_3/separable_conv_1_normal_left1_3/depthwise_kernel:0)
  %convolution_output236 = Conv[auto_pad = 'NOTSET', dilations = [1, 1], group = 1, kernel_shape = [1, 1], strides = [1, 1]](%convolution_output235, %W105)
  %batch_norm_output_buffer128 = BatchNormalization[epsilon = 9.99999997475243e-07, momentum = 0.999700009822845](%convolution_output236, %scale128, %bias128, %mean128, %var128)
  %normal_A_block_3_1/block_1/separable_conv_block_normal_left1_3/activation_249/Relu:0 = Relu(%batch_norm_output_buffer128)
  %convolution_output222 = Conv[auto_pad = 'NOTSET', dilations = [1, 1], group = 44, kernel_shape = [5, 5], pads = [2, 2, 2, 2], strides = [1, 1]](%normal_A_block_3_1/block_1/separable_conv_block_normal_left1_3/activation_249/Relu:0, %normal_A_block_3_1/block_1/separable_conv_block_normal_left1_3/separable_conv_2_normal_left1_3/depthwise_kernel:0)
  %convolution_output223 = Conv[auto_pad = 'NOTSET', dilations = [1, 1], group = 1, kernel_shape = [1, 1], strides = [1, 1]](%convolution_output222, %W100)
  %batch_norm_output_buffer124 = BatchNormalization[epsilon = 9.99999997475243e-07, momentum = 0.999700009822845](%convolution_output231, %scale124, %bias124, %mean124, %var124)
  %normal_A_block_3_1/block_5/separable_conv_block_normal_left5_3/separable_conv_2_bn_normal_left5_3/cond/Merge:0 = Transpose[perm = [0, 2, 3, 1]](%batch_norm_output_buffer124)
  %input_transposed37 = Transpose[perm = [0, 3, 1, 2]](%normal_A_block_3_1/normal_bn_1_3/cond/Merge:0)
  %normal_A_block_3_1/normal_bn_1_3/cond/Merge:0_pooling0 = AveragePool[auto_pad = 'SAME_UPPER', ceil_mode = 0, kernel_shape = [3, 3], strides = [1, 1]](%input_transposed37)
  %normal_A_block_3_1/normal_bn_1_3/cond/Merge:0_transpose0 = Transpose[perm = [0, 2, 3, 1]](%normal_A_block_3_1/normal_bn_1_3/cond/Merge:0_pooling0)
  %batch_norm_output_buffer120 = BatchNormalization[epsilon = 9.99999997475243e-07, momentum = 0.999700009822845](%convolution_output223, %scale120, %bias120, %mean120, %var120)
  %adjusted_input121 = Transpose[perm = [0, 3, 1, 2]](%normal_A_block_3_1/adjust_block/adjust_projection_block_3/activation_246/Relu:0)
  %convolution_output221 = Conv[auto_pad = 'NOTSET', dilations = [1, 1], group = 1, kernel_shape = [1, 1], pads = [0, 0, 0, 0], strides = [1, 1]](%adjusted_input121, %normal_A_block_3_1/adjust_block/adjust_projection_block_3/adjust_conv_projection_3/kernel:0)
  %convolution_output219 = Conv[auto_pad = 'VALID', dilations = [1, 1], group = 88, kernel_shape = [7, 7], strides = [2, 2]](%reduction_A_block_reduce_4_1/block_1/separable_conv_block_reduction_right1_reduce_4/activation_262/Relu:0_permuted_padded, %reduction_A_block_reduce_4_1/block_1/separable_conv_block_reduction_right1_reduce_4/separable_conv_1_reduction_right1_reduce_4/depthwise_kernel:0)
  %convolution_output220 = Conv[auto_pad = 'VALID', dilations = [1, 1], group = 1, kernel_shape = [1, 1], strides = [1, 1]](%convolution_output219, %W99)
  %reduction_A_block_reduce_4_1/block_3/separable_conv_block_reduction_right3_reduce_4/activation_266/Relu:0 = Relu(%reduction_A_block_reduce_4_1/adjust_block/adjust_projection_block_reduce_4/adjust_bn_reduce_4/cond/Merge:0)
  %reduction_A_block_reduce_4_1/block_2/separable_conv_block_reduction_right2_reduce_4/activation_264/Relu:0 = Relu(%reduction_A_block_reduce_4_1/adjust_block/adjust_projection_block_reduce_4/adjust_bn_reduce_4/cond/Merge:0)
  %normal_A_block_3_1/block_5/normal_add_5_3/add:0 = Add(%normal_A_block_3_1/block_5/separable_conv_block_normal_left5_3/separable_conv_2_bn_normal_left5_3/cond/Merge:0, %normal_A_block_3_1/normal_bn_1_3/cond/Merge:0)
  %batch_norm_output_buffer119 = BatchNormalization[epsilon = 9.99999997475243e-07, momentum = 0.999700009822845](%convolution_output221, %scale119, %bias119, %mean119, %var119)
  %normal_A_block_3_1/adjust_block/adjust_projection_block_3/adjust_bn_3/cond/Merge:0 = Transpose[perm = [0, 2, 3, 1]](%batch_norm_output_buffer119)
  %normal_A_block_3_1/block_2/separable_conv_block_normal_right2_3/activation_254/Relu:0 = Relu(%normal_A_block_3_1/adjust_block/adjust_projection_block_3/adjust_bn_3/cond/Merge:0)
  %adjusted_input133 = Transpose[perm = [0, 3, 1, 2]](%normal_A_block_3_1/block_2/separable_conv_block_normal_right2_3/activation_254/Relu:0)
  %convolution_output241 = Conv[auto_pad = 'NOTSET', dilations = [1, 1], group = 44, kernel_shape = [3, 3], pads = [1, 1, 1, 1], strides = [1, 1]](%adjusted_input133, %normal_A_block_3_1/block_2/separable_conv_block_normal_right2_3/separable_conv_1_normal_right2_3/depthwise_kernel:0)
  %convolution_output242 = Conv[auto_pad = 'NOTSET', dilations = [1, 1], group = 1, kernel_shape = [1, 1], strides = [1, 1]](%convolution_output241, %W108)
  %batch_norm_output_buffer131 = BatchNormalization[epsilon = 9.99999997475243e-07, momentum = 0.999700009822845](%convolution_output242, %scale131, %bias131, %mean131, %var131)
  %normal_A_block_3_1/block_2/separable_conv_block_normal_right2_3/activation_255/Relu:0 = Relu(%batch_norm_output_buffer131)
  %convolution_output228 = Conv[auto_pad = 'NOTSET', dilations = [1, 1], group = 44, kernel_shape = [3, 3], pads = [1, 1, 1, 1], strides = [1, 1]](%normal_A_block_3_1/block_2/separable_conv_block_normal_right2_3/activation_255/Relu:0, %normal_A_block_3_1/block_2/separable_conv_block_normal_right2_3/separable_conv_2_normal_right2_3/depthwise_kernel:0)
  %convolution_output229 = Conv[auto_pad = 'NOTSET', dilations = [1, 1], group = 1, kernel_shape = [1, 1], strides = [1, 1]](%convolution_output228, %W103)
  %batch_norm_output_buffer123 = BatchNormalization[epsilon = 9.99999997475243e-07, momentum = 0.999700009822845](%convolution_output229, %scale123, %bias123, %mean123, %var123)
  %normal_A_block_3_1/block_2/separable_conv_block_normal_left2_3/activation_252/Relu:0 = Relu(%normal_A_block_3_1/adjust_block/adjust_projection_block_3/adjust_bn_3/cond/Merge:0)
  %adjusted_input132 = Transpose[perm = [0, 3, 1, 2]](%normal_A_block_3_1/block_2/separable_conv_block_normal_left2_3/activation_252/Relu:0)
  %convolution_output239 = Conv[auto_pad = 'NOTSET', dilations = [1, 1], group = 44, kernel_shape = [5, 5], pads = [2, 2, 2, 2], strides = [1, 1]](%adjusted_input132, %normal_A_block_3_1/block_2/separable_conv_block_normal_left2_3/separable_conv_1_normal_left2_3/depthwise_kernel:0)
  %convolution_output240 = Conv[auto_pad = 'NOTSET', dilations = [1, 1], group = 1, kernel_shape = [1, 1], strides = [1, 1]](%convolution_output239, %W107)
  %batch_norm_output_buffer130 = BatchNormalization[epsilon = 9.99999997475243e-07, momentum = 0.999700009822845](%convolution_output240, %scale130, %bias130, %mean130, %var130)
  %normal_A_block_3_1/block_2/separable_conv_block_normal_left2_3/activation_253/Relu:0 = Relu(%batch_norm_output_buffer130)
  %convolution_output226 = Conv[auto_pad = 'NOTSET', dilations = [1, 1], group = 44, kernel_shape = [5, 5], pads = [2, 2, 2, 2], strides = [1, 1]](%normal_A_block_3_1/block_2/separable_conv_block_normal_left2_3/activation_253/Relu:0, %normal_A_block_3_1/block_2/separable_conv_block_normal_left2_3/separable_conv_2_normal_left2_3/depthwise_kernel:0)
  %convolution_output227 = Conv[auto_pad = 'NOTSET', dilations = [1, 1], group = 1, kernel_shape = [1, 1], strides = [1, 1]](%convolution_output226, %W102)
  %batch_norm_output_buffer122 = BatchNormalization[epsilon = 9.99999997475243e-07, momentum = 0.999700009822845](%convolution_output227, %scale122, %bias122, %mean122, %var122)
  %normal_A_block_3_1/block_2/normal_add_2_3/add:0 = Add(%batch_norm_output_buffer122, %batch_norm_output_buffer123)
  %fan_out_adjustment_out611 = Transpose[perm = [0, 2, 3, 1]](%normal_A_block_3_1/block_2/normal_add_2_3/add:0)
  %normal_A_block_3_1/block_1/separable_conv_block_normal_right1_3/activation_250/Relu:0 = Relu(%normal_A_block_3_1/adjust_block/adjust_projection_block_3/adjust_bn_3/cond/Merge:0)
  %adjusted_input131 = Transpose[perm = [0, 3, 1, 2]](%normal_A_block_3_1/block_1/separable_conv_block_normal_right1_3/activation_250/Relu:0)
  %convolution_output237 = Conv[auto_pad = 'NOTSET', dilations = [1, 1], group = 44, kernel_shape = [3, 3], pads = [1, 1, 1, 1], strides = [1, 1]](%adjusted_input131, %normal_A_block_3_1/block_1/separable_conv_block_normal_right1_3/separable_conv_1_normal_right1_3/depthwise_kernel:0)
  %convolution_output238 = Conv[auto_pad = 'NOTSET', dilations = [1, 1], group = 1, kernel_shape = [1, 1], strides = [1, 1]](%convolution_output237, %W106)
  %batch_norm_output_buffer129 = BatchNormalization[epsilon = 9.99999997475243e-07, momentum = 0.999700009822845](%convolution_output238, %scale129, %bias129, %mean129, %var129)
  %normal_A_block_3_1/block_1/separable_conv_block_normal_right1_3/activation_251/Relu:0 = Relu(%batch_norm_output_buffer129)
  %convolution_output224 = Conv[auto_pad = 'NOTSET', dilations = [1, 1], group = 44, kernel_shape = [3, 3], pads = [1, 1, 1, 1], strides = [1, 1]](%normal_A_block_3_1/block_1/separable_conv_block_normal_right1_3/activation_251/Relu:0, %normal_A_block_3_1/block_1/separable_conv_block_normal_right1_3/separable_conv_2_normal_right1_3/depthwise_kernel:0)
  %convolution_output225 = Conv[auto_pad = 'NOTSET', dilations = [1, 1], group = 1, kernel_shape = [1, 1], strides = [1, 1]](%convolution_output224, %W101)
  %batch_norm_output_buffer121 = BatchNormalization[epsilon = 9.99999997475243e-07, momentum = 0.999700009822845](%convolution_output225, %scale121, %bias121, %mean121, %var121)
  %normal_A_block_3_1/block_1/normal_add_1_3/add:0 = Add(%batch_norm_output_buffer120, %batch_norm_output_buffer121)
  %fan_out_adjustment_out610 = Transpose[perm = [0, 2, 3, 1]](%normal_A_block_3_1/block_1/normal_add_1_3/add:0)
  %input_transposed39 = Transpose[perm = [0, 3, 1, 2]](%normal_A_block_3_1/adjust_block/adjust_projection_block_3/adjust_bn_3/cond/Merge:0)
  %normal_A_block_3_1/adjust_block/adjust_projection_block_3/adjust_bn_3/cond/Merge:0_pooling01 = AveragePool[auto_pad = 'SAME_UPPER', ceil_mode = 0, kernel_shape = [3, 3], strides = [1, 1]](%input_transposed39)
  %input_transposed38 = Transpose[perm = [0, 3, 1, 2]](%normal_A_block_3_1/adjust_block/adjust_projection_block_3/adjust_bn_3/cond/Merge:0)
  %normal_A_block_3_1/adjust_block/adjust_projection_block_3/adjust_bn_3/cond/Merge:0_pooling0 = AveragePool[auto_pad = 'SAME_UPPER', ceil_mode = 0, kernel_shape = [3, 3], strides = [1, 1]](%input_transposed38)
  %normal_A_block_3_1/block_4/normal_add_4_3/add:0 = Add(%normal_A_block_3_1/adjust_block/adjust_projection_block_3/adjust_bn_3/cond/Merge:0_pooling0, %normal_A_block_3_1/adjust_block/adjust_projection_block_3/adjust_bn_3/cond/Merge:0_pooling01)
  %fan_out_adjustment_out612 = Transpose[perm = [0, 2, 3, 1]](%normal_A_block_3_1/block_4/normal_add_4_3/add:0)
  %normal_A_block_3_1/block_3/normal_add_3_3/add:0 = Add(%normal_A_block_3_1/normal_bn_1_3/cond/Merge:0_transpose0, %normal_A_block_3_1/adjust_block/adjust_projection_block_3/adjust_bn_3/cond/Merge:0)
  %batch_norm_output_buffer118 = BatchNormalization[epsilon = 9.99999997475243e-07, momentum = 0.999700009822845](%convolution_output220, %scale118, %bias118, %mean118, %var118)
  %reduction_A_block_reduce_4_1/block_3/separable_conv_block_reduction_right3_reduce_4/activation_266/Relu:0_permuted = Transpose[perm = [0, 3, 1, 2]](%reduction_A_block_reduce_4_1/block_3/separable_conv_block_reduction_right3_reduce_4/activation_266/Relu:0)
  %reduction_A_block_reduce_4_1/block_3/separable_conv_block_reduction_right3_reduce_4/activation_266/Relu:0_permuted_padded = Pad[mode = 'constant'](%reduction_A_block_reduce_4_1/block_3/separable_conv_block_reduction_right3_reduce_4/activation_266/Relu:0_permuted, %Pad8_pads, %Pad8_value)
  %reduction_A_block_reduce_4_1/block_2/separable_conv_block_reduction_right2_reduce_4/activation_264/Relu:0_permuted = Transpose[perm = [0, 3, 1, 2]](%reduction_A_block_reduce_4_1/block_2/separable_conv_block_reduction_right2_reduce_4/activation_264/Relu:0)
  %reduction_A_block_reduce_4_1/block_2/separable_conv_block_reduction_right2_reduce_4/activation_264/Relu:0_permuted_padded = Pad[mode = 'constant'](%reduction_A_block_reduce_4_1/block_2/separable_conv_block_reduction_right2_reduce_4/activation_264/Relu:0_permuted, %Pad7_pads, %Pad7_value)
  %normal_A_block_3_1/normal_concat_3/concat:0 = Concat[axis = 3](%normal_A_block_3_1/adjust_block/adjust_projection_block_3/adjust_bn_3/cond/Merge:0, %fan_out_adjustment_out610, %fan_out_adjustment_out611, %normal_A_block_3_1/block_3/normal_add_3_3/add:0, %fan_out_adjustment_out612, %normal_A_block_3_1/block_5/normal_add_5_3/add:0)
  %normal_A_block_5_1/adjust_block/adjust_reduction_block_5/adjust_relu_1_5/Relu:0 = Relu(%normal_A_block_3_1/normal_concat_3/concat:0)
  %normal_A_block_5_1/adjust_block/adjust_reduction_block_5/adjust_relu_1_5/Relu:0_permuted = Transpose[perm = [0, 3, 1, 2]](%normal_A_block_5_1/adjust_block/adjust_reduction_block_5/adjust_relu_1_5/Relu:0)
  %normal_A_block_5_1/adjust_block/adjust_reduction_block_5/adjust_relu_1_5/Relu:0_permuted_padded = Pad[mode = 'constant'](%normal_A_block_5_1/adjust_block/adjust_reduction_block_5/adjust_relu_1_5/Relu:0_permuted, %Pad9_pads, %Pad9_value)
  %normal_A_block_5_1/adjust_block/adjust_reduction_block_5/zero_padding2d_13/Pad:0 = Transpose[perm = [0, 2, 3, 1]](%normal_A_block_5_1/adjust_block/adjust_reduction_block_5/adjust_relu_1_5/Relu:0_permuted_padded)
  %normal_A_block_5_1/adjust_block/adjust_reduction_block_5/zero_padding2d_13/Pad:0_cropping0 = Slice(%normal_A_block_5_1/adjust_block/adjust_reduction_block_5/zero_padding2d_13/Pad:0, %normal_A_block_5_1/adjust_block/adjust_reduction_block_5/zero_padding2d_13/Pad:0_cropping_start, %normal_A_block_5_1/adjust_block/adjust_reduction_block_5/zero_padding2d_13/Pad:0_cropping_end, %normal_A_block_5_1/adjust_block/adjust_reduction_block_5/zero_padding2d_13/Pad:0_cropping_axes)
  %reduction_A_block_reduce_4_1/block_1/separable_conv_block_reduction_right1_reduce_4/activation_263/Relu:0 = Relu(%batch_norm_output_buffer118)
  %convolution_output203 = Conv[auto_pad = 'VALID', dilations = [1, 1], group = 88, kernel_shape = [5, 5], strides = [2, 2]](%reduction_A_block_reduce_4_1/block_3/separable_conv_block_reduction_right3_reduce_4/activation_266/Relu:0_permuted_padded, %reduction_A_block_reduce_4_1/block_3/separable_conv_block_reduction_right3_reduce_4/separable_conv_1_reduction_right3_reduce_4/depthwise_kernel:0)
  %convolution_output204 = Conv[auto_pad = 'VALID', dilations = [1, 1], group = 1, kernel_shape = [1, 1], strides = [1, 1]](%convolution_output203, %W91)
  %convolution_output201 = Conv[auto_pad = 'VALID', dilations = [1, 1], group = 88, kernel_shape = [7, 7], strides = [2, 2]](%reduction_A_block_reduce_4_1/block_2/separable_conv_block_reduction_right2_reduce_4/activation_264/Relu:0_permuted_padded, %reduction_A_block_reduce_4_1/block_2/separable_conv_block_reduction_right2_reduce_4/separable_conv_1_reduction_right2_reduce_4/depthwise_kernel:0)
  %convolution_output202 = Conv[auto_pad = 'VALID', dilations = [1, 1], group = 1, kernel_shape = [1, 1], strides = [1, 1]](%convolution_output201, %W90)
  %reduction_A_block_reduce_4_1/activation_259/Relu:0 = Relu(%normal_A_block_3_1/normal_concat_3/concat:0)
  %input_transposed36 = Transpose[perm = [0, 3, 1, 2]](%normal_A_block_5_1/adjust_block/adjust_reduction_block_5/zero_padding2d_13/Pad:0_cropping0)
  %normal_A_block_5_1/adjust_block/adjust_reduction_block_5/cropping2d_7/strided_slice:0_pooling0 = AveragePool[auto_pad = 'VALID', ceil_mode = 0, kernel_shape = [1, 1], strides = [2, 2]](%input_transposed36)
  %input_transposed35 = Transpose[perm = [0, 3, 1, 2]](%normal_A_block_5_1/adjust_block/adjust_reduction_block_5/adjust_relu_1_5/Relu:0)
  %normal_A_block_5_1/adjust_block/adjust_reduction_block_5/adjust_relu_1_5/Relu:0_pooling0 = AveragePool[auto_pad = 'VALID', ceil_mode = 0, kernel_shape = [1, 1], strides = [2, 2]](%input_transposed35)
  %convolution_output199 = Conv[auto_pad = 'NOTSET', dilations = [1, 1], group = 88, kernel_shape = [7, 7], pads = [3, 3, 3, 3], strides = [1, 1]](%reduction_A_block_reduce_4_1/block_1/separable_conv_block_reduction_right1_reduce_4/activation_263/Relu:0, %reduction_A_block_reduce_4_1/block_1/separable_conv_block_reduction_right1_reduce_4/separable_conv_2_reduction_right1_reduce_4/depthwise_kernel:0)
  %convolution_output200 = Conv[auto_pad = 'NOTSET', dilations = [1, 1], group = 1, kernel_shape = [1, 1], strides = [1, 1]](%convolution_output199, %W89)
  %batch_norm_output_buffer110 = BatchNormalization[epsilon = 9.99999997475243e-07, momentum = 0.999700009822845](%convolution_output204, %scale110, %bias110, %mean110, %var110)
  %batch_norm_output_buffer109 = BatchNormalization[epsilon = 9.99999997475243e-07, momentum = 0.999700009822845](%convolution_output202, %scale109, %bias109, %mean109, %var109)
  %adjusted_input108 = Transpose[perm = [0, 3, 1, 2]](%reduction_A_block_reduce_4_1/activation_259/Relu:0)
  %convolution_output196 = Conv[auto_pad = 'NOTSET', dilations = [1, 1], group = 1, kernel_shape = [1, 1], pads = [0, 0, 0, 0], strides = [1, 1]](%adjusted_input108, %reduction_A_block_reduce_4_1/reduction_conv_1_reduce_4/kernel:0)
  %convolution_output184 = Conv[auto_pad = 'NOTSET', dilations = [1, 1], group = 1, kernel_shape = [1, 1], pads = [0, 0, 0, 0], strides = [1, 1]](%normal_A_block_5_1/adjust_block/adjust_reduction_block_5/cropping2d_7/strided_slice:0_pooling0, %normal_A_block_5_1/adjust_block/adjust_reduction_block_5/adjust_conv_2_5/kernel:0)
  %convolution_output183 = Conv[auto_pad = 'NOTSET', dilations = [1, 1], group = 1, kernel_shape = [1, 1], pads = [0, 0, 0, 0], strides = [1, 1]](%normal_A_block_5_1/adjust_block/adjust_reduction_block_5/adjust_relu_1_5/Relu:0_pooling0, %normal_A_block_5_1/adjust_block/adjust_reduction_block_5/adjust_conv_1_5/kernel:0)
  %batch_norm_output_buffer108 = BatchNormalization[epsilon = 9.99999997475243e-07, momentum = 0.999700009822845](%convolution_output200, %scale108, %bias108, %mean108, %var108)
  %reduction_A_block_reduce_4_1/block_3/separable_conv_block_reduction_right3_reduce_4/activation_267/Relu:0 = Relu(%batch_norm_output_buffer110)
  %reduction_A_block_reduce_4_1/block_2/separable_conv_block_reduction_right2_reduce_4/activation_265/Relu:0 = Relu(%batch_norm_output_buffer109)
  %batch_norm_output_buffer106 = BatchNormalization[epsilon = 9.99999997475243e-07, momentum = 0.999700009822845](%convolution_output196, %scale106, %bias106, %mean106, %var106)
  %reduction_A_block_reduce_4_1/reduction_bn_1_reduce_4/cond/Merge:0 = Transpose[perm = [0, 2, 3, 1]](%batch_norm_output_buffer106)
  %reduction_A_block_reduce_4_1/block_1/separable_conv_block_reduction_left1_reduce_4/activation_260/Relu:0 = Relu(%reduction_A_block_reduce_4_1/reduction_bn_1_reduce_4/cond/Merge:0)
  %reduction_A_block_reduce_4_1/block_1/separable_conv_block_reduction_left1_reduce_4/activation_260/Relu:0_permuted = Transpose[perm = [0, 3, 1, 2]](%reduction_A_block_reduce_4_1/block_1/separable_conv_block_reduction_left1_reduce_4/activation_260/Relu:0)
  %reduction_A_block_reduce_4_1/block_1/separable_conv_block_reduction_left1_reduce_4/activation_260/Relu:0_permuted_padded = Pad[mode = 'constant'](%reduction_A_block_reduce_4_1/block_1/separable_conv_block_reduction_left1_reduce_4/activation_260/Relu:0_permuted, %Pad10_pads, %Pad10_value)
  %convolution_output217 = Conv[auto_pad = 'VALID', dilations = [1, 1], group = 88, kernel_shape = [5, 5], strides = [2, 2]](%reduction_A_block_reduce_4_1/block_1/separable_conv_block_reduction_left1_reduce_4/activation_260/Relu:0_permuted_padded, %reduction_A_block_reduce_4_1/block_1/separable_conv_block_reduction_left1_reduce_4/separable_conv_1_reduction_left1_reduce_4/depthwise_kernel:0)
  %convolution_output218 = Conv[auto_pad = 'VALID', dilations = [1, 1], group = 1, kernel_shape = [1, 1], strides = [1, 1]](%convolution_output217, %W98)
  %batch_norm_output_buffer117 = BatchNormalization[epsilon = 9.99999997475243e-07, momentum = 0.999700009822845](%convolution_output218, %scale117, %bias117, %mean117, %var117)
  %reduction_A_block_reduce_4_1/block_1/separable_conv_block_reduction_left1_reduce_4/activation_261/Relu:0 = Relu(%batch_norm_output_buffer117)
  %convolution_output197 = Conv[auto_pad = 'NOTSET', dilations = [1, 1], group = 88, kernel_shape = [5, 5], pads = [2, 2, 2, 2], strides = [1, 1]](%reduction_A_block_reduce_4_1/block_1/separable_conv_block_reduction_left1_reduce_4/activation_261/Relu:0, %reduction_A_block_reduce_4_1/block_1/separable_conv_block_reduction_left1_reduce_4/separable_conv_2_reduction_left1_reduce_4/depthwise_kernel:0)
  %convolution_output198 = Conv[auto_pad = 'NOTSET', dilations = [1, 1], group = 1, kernel_shape = [1, 1], strides = [1, 1]](%convolution_output197, %W88)
  %batch_norm_output_buffer107 = BatchNormalization[epsilon = 9.99999997475243e-07, momentum = 0.999700009822845](%convolution_output198, %scale107, %bias107, %mean107, %var107)
  %normal_A_block_5_1/adjust_block/adjust_reduction_block_5/concatenate_7/concat:0 = Concat[axis = 1](%convolution_output183, %convolution_output184)
  %reduction_A_block_reduce_4_1/block_1/reduction_add_1_reduce_4/add:0 = Add(%batch_norm_output_buffer107, %batch_norm_output_buffer108)
  %reduction_A_block_reduce_4_1/block_5/separable_conv_block_reduction_left4_reduce_4/activation_268/Relu:0 = Relu(%reduction_A_block_reduce_4_1/block_1/reduction_add_1_reduce_4/add:0)
  %convolution_output205 = Conv[auto_pad = 'NOTSET', dilations = [1, 1], group = 88, kernel_shape = [3, 3], pads = [1, 1, 1, 1], strides = [1, 1]](%reduction_A_block_reduce_4_1/block_5/separable_conv_block_reduction_left4_reduce_4/activation_268/Relu:0, %reduction_A_block_reduce_4_1/block_5/separable_conv_block_reduction_left4_reduce_4/separable_conv_1_reduction_left4_reduce_4/depthwise_kernel:0)
  %convolution_output206 = Conv[auto_pad = 'NOTSET', dilations = [1, 1], group = 1, kernel_shape = [1, 1], strides = [1, 1]](%convolution_output205, %W92)
…
  %normal_A_block_9_1/block_1/separable_conv_block_normal_right1_9/activation_333/Relu:0 = Relu(%batch_norm_output_buffer53)
  %convolution_output76 = Conv[auto_pad = 'NOTSET', dilations = [1, 1], group = 176, kernel_shape = [3, 3], pads = [1, 1, 1, 1], strides = [1, 1]](%normal_A_block_9_1/block_1/separable_conv_block_normal_right1_9/activation_333/Relu:0, %normal_A_block_9_1/block_1/separable_conv_block_normal_right1_9/separable_conv_2_normal_right1_9/depthwise_kernel:0)
  %convolution_output77 = Conv[auto_pad = 'NOTSET', dilations = [1, 1], group = 1, kernel_shape = [1, 1], strides = [1, 1]](%convolution_output76, %W34)
  %batch_norm_output_buffer41 = BatchNormalization[epsilon = 9.99999997475243e-07, momentum = 0.999700009822845](%convolution_output77, %scale41, %bias41, %mean41, %var41)
  %input_transposed16 = Transpose[perm = [0, 3, 1, 2]](%normal_A_block_9_1/adjust_block/adjust_reduction_block_9/adjust_bn_9/cond/Merge:0)
  %normal_A_block_9_1/adjust_block/adjust_reduction_block_9/adjust_bn_9/cond/Merge:0_pooling01 = AveragePool[auto_pad = 'SAME_UPPER', ceil_mode = 0, kernel_shape = [3, 3], strides = [1, 1]](%input_transposed16)
  %input_transposed15 = Transpose[perm = [0, 3, 1, 2]](%normal_A_block_9_1/adjust_block/adjust_reduction_block_9/adjust_bn_9/cond/Merge:0)
  %normal_A_block_9_1/adjust_block/adjust_reduction_block_9/adjust_bn_9/cond/Merge:0_pooling0 = AveragePool[auto_pad = 'SAME_UPPER', ceil_mode = 0, kernel_shape = [3, 3], strides = [1, 1]](%input_transposed15)
  %normal_A_block_9_1/block_4/normal_add_4_9/add:0 = Add(%normal_A_block_9_1/adjust_block/adjust_reduction_block_9/adjust_bn_9/cond/Merge:0_pooling0, %normal_A_block_9_1/adjust_block/adjust_reduction_block_9/adjust_bn_9/cond/Merge:0_pooling01)
  %fan_out_adjustment_out584 = Transpose[perm = [0, 2, 3, 1]](%normal_A_block_9_1/block_4/normal_add_4_9/add:0)
  %reduction_A_block_reduce_8_1/reduction_pad_1_reduce_8/Pad:0_pooling02 = MaxPool[auto_pad = 'VALID', ceil_mode = 0, kernel_shape = [3, 3], strides = [2, 2]](%reduction_A_block_reduce_8_1/reduction_bn_1_reduce_8/cond/Merge:0_permuted_padded)
  %batch_norm_output_buffer33 = BatchNormalization[epsilon = 9.99999997475243e-07, momentum = 0.999700009822845](%convolution_output61, %scale33, %bias33, %mean33, %var33)
  %reduction_A_block_reduce_8_1/block_1/reduction_add_1_reduce_8/add:0_pooling0 = AveragePool[auto_pad = 'SAME_UPPER', ceil_mode = 0, kernel_shape = [3, 3], strides = [1, 1]](%reduction_A_block_reduce_8_1/block_1/reduction_add_1_reduce_8/add:0)
  %batch_norm_output_buffer32 = BatchNormalization[epsilon = 9.99999997475243e-07, momentum = 0.999700009822845](%convolution_output59, %scale32, %bias32, %mean32, %var32)
  %reduction_A_block_reduce_8_1/reduction_pad_1_reduce_8/Pad:0_pooling01 = AveragePool[auto_pad = 'VALID', ceil_mode = 0, kernel_shape = [3, 3], strides = [2, 2]](%reduction_A_block_reduce_8_1/reduction_bn_1_reduce_8/cond/Merge:0_permuted_padded)
  %batch_norm_output_buffer31 = BatchNormalization[epsilon = 9.99999997475243e-07, momentum = 0.999700009822845](%convolution_output57, %scale31, %bias31, %mean31, %var31)
  %reduction_A_block_reduce_8_1/reduction_pad_1_reduce_8/Pad:0_pooling0 = MaxPool[auto_pad = 'VALID', ceil_mode = 0, kernel_shape = [3, 3], strides = [2, 2]](%reduction_A_block_reduce_8_1/reduction_bn_1_reduce_8/cond/Merge:0_permuted_padded)
  %reduction_A_block_reduce_8_1/block_5/reduction_add4_reduce_8/add:0 = Add(%batch_norm_output_buffer33, %reduction_A_block_reduce_8_1/reduction_pad_1_reduce_8/Pad:0_pooling02)
  %reduction_A_block_reduce_8_1/block_3/reduction_add3_reduce_8/add:0 = Add(%reduction_A_block_reduce_8_1/reduction_pad_1_reduce_8/Pad:0_pooling01, %batch_norm_output_buffer32)
  %reduction_A_block_reduce_8_1/block_2/reduction_add_2_reduce_8/add:0 = Add(%reduction_A_block_reduce_8_1/reduction_pad_1_reduce_8/Pad:0_pooling0, %batch_norm_output_buffer31)
  %reduction_A_block_reduce_8_1/block_4/add_8/add:0 = Add(%reduction_A_block_reduce_8_1/block_2/reduction_add_2_reduce_8/add:0, %reduction_A_block_reduce_8_1/block_1/reduction_add_1_reduce_8/add:0_pooling0)
  %reduction_A_block_reduce_8_1/reduction_concat_reduce_8/concat:0 = Concat[axis = 1](%reduction_A_block_reduce_8_1/block_2/reduction_add_2_reduce_8/add:0, %reduction_A_block_reduce_8_1/block_3/reduction_add3_reduce_8/add:0, %reduction_A_block_reduce_8_1/block_4/add_8/add:0, %reduction_A_block_reduce_8_1/block_5/reduction_add4_reduce_8/add:0)
  %normal_A_block_9_1/activation_329/Relu:0 = Relu(%reduction_A_block_reduce_8_1/reduction_concat_reduce_8/concat:0)
  %convolution_output84 = Conv[auto_pad = 'NOTSET', dilations = [1, 1], group = 1, kernel_shape = [1, 1], pads = [0, 0, 0, 0], strides = [1, 1]](%normal_A_block_9_1/activation_329/Relu:0, %normal_A_block_9_1/normal_conv_1_9/kernel:0)
  %batch_norm_output_buffer45 = BatchNormalization[epsilon = 9.99999997475243e-07, momentum = 0.999700009822845](%convolution_output84, %scale45, %bias45, %mean45, %var45)
  %normal_A_block_9_1/normal_bn_1_9/cond/Merge:0 = Transpose[perm = [0, 2, 3, 1]](%batch_norm_output_buffer45)
  %normal_A_block_9_1/block_5/separable_conv_block_normal_left5_9/activation_338/Relu:0 = Relu(%normal_A_block_9_1/normal_bn_1_9/cond/Merge:0)
  %adjusted_input57 = Transpose[perm = [0, 3, 1, 2]](%normal_A_block_9_1/block_5/separable_conv_block_normal_left5_9/activation_338/Relu:0)
  %convolution_output104 = Conv[auto_pad = 'NOTSET', dilations = [1, 1], group = 176, kernel_shape = [3, 3], pads = [1, 1, 1, 1], strides = [1, 1]](%adjusted_input57, %normal_A_block_9_1/block_5/separable_conv_block_normal_left5_9/separable_conv_1_normal_left5_9/depthwise_kernel:0)
  %convolution_output105 = Conv[auto_pad = 'NOTSET', dilations = [1, 1], group = 1, kernel_shape = [1, 1], strides = [1, 1]](%convolution_output104, %W47)
  %batch_norm_output_buffer56 = BatchNormalization[epsilon = 9.99999997475243e-07, momentum = 0.999700009822845](%convolution_output105, %scale56, %bias56, %mean56, %var56)
  %normal_A_block_9_1/block_5/separable_conv_block_normal_left5_9/activation_339/Relu:0 = Relu(%batch_norm_output_buffer56)
  %convolution_output82 = Conv[auto_pad = 'NOTSET', dilations = [1, 1], group = 176, kernel_shape = [3, 3], pads = [1, 1, 1, 1], strides = [1, 1]](%normal_A_block_9_1/block_5/separable_conv_block_normal_left5_9/activation_339/Relu:0, %normal_A_block_9_1/block_5/separable_conv_block_normal_left5_9/separable_conv_2_normal_left5_9/depthwise_kernel:0)
  %convolution_output83 = Conv[auto_pad = 'NOTSET', dilations = [1, 1], group = 1, kernel_shape = [1, 1], strides = [1, 1]](%convolution_output82, %W37)
  %batch_norm_output_buffer44 = BatchNormalization[epsilon = 9.99999997475243e-07, momentum = 0.999700009822845](%convolution_output83, %scale44, %bias44, %mean44, %var44)
  %normal_A_block_9_1/block_5/separable_conv_block_normal_left5_9/separable_conv_2_bn_normal_left5_9/cond/Merge:0 = Transpose[perm = [0, 2, 3, 1]](%batch_norm_output_buffer44)
  %normal_A_block_9_1/block_1/separable_conv_block_normal_left1_9/activation_330/Relu:0 = Relu(%normal_A_block_9_1/normal_bn_1_9/cond/Merge:0)
  %adjusted_input53 = Transpose[perm = [0, 3, 1, 2]](%normal_A_block_9_1/block_1/separable_conv_block_normal_left1_9/activation_330/Relu:0)
  %convolution_output96 = Conv[auto_pad = 'NOTSET', dilations = [1, 1], group = 176, kernel_shape = [5, 5], pads = [2, 2, 2, 2], strides = [1, 1]](%adjusted_input53, %normal_A_block_9_1/block_1/separable_conv_block_normal_left1_9/separable_conv_1_normal_left1_9/depthwise_kernel:0)
  %convolution_output97 = Conv[auto_pad = 'NOTSET', dilations = [1, 1], group = 1, kernel_shape = [1, 1], strides = [1, 1]](%convolution_output96, %W43)
  %batch_norm_output_buffer52 = BatchNormalization[epsilon = 9.99999997475243e-07, momentum = 0.999700009822845](%convolution_output97, %scale52, %bias52, %mean52, %var52)
  %normal_A_block_9_1/block_1/separable_conv_block_normal_left1_9/activation_331/Relu:0 = Relu(%batch_norm_output_buffer52)
  %convolution_output74 = Conv[auto_pad = 'NOTSET', dilations = [1, 1], group = 176, kernel_shape = [5, 5], pads = [2, 2, 2, 2], strides = [1, 1]](%normal_A_block_9_1/block_1/separable_conv_block_normal_left1_9/activation_331/Relu:0, %normal_A_block_9_1/block_1/separable_conv_block_normal_left1_9/separable_conv_2_normal_left1_9/depthwise_kernel:0)
  %convolution_output75 = Conv[auto_pad = 'NOTSET', dilations = [1, 1], group = 1, kernel_shape = [1, 1], strides = [1, 1]](%convolution_output74, %W33)
  %batch_norm_output_buffer40 = BatchNormalization[epsilon = 9.99999997475243e-07, momentum = 0.999700009822845](%convolution_output75, %scale40, %bias40, %mean40, %var40)
  %normal_A_block_9_1/block_1/normal_add_1_9/add:0 = Add(%batch_norm_output_buffer40, %batch_norm_output_buffer41)
  %fan_out_adjustment_out582 = Transpose[perm = [0, 2, 3, 1]](%normal_A_block_9_1/block_1/normal_add_1_9/add:0)
  %input_transposed14 = Transpose[perm = [0, 3, 1, 2]](%normal_A_block_9_1/normal_bn_1_9/cond/Merge:0)
  %normal_A_block_9_1/normal_bn_1_9/cond/Merge:0_pooling0 = AveragePool[auto_pad = 'SAME_UPPER', ceil_mode = 0, kernel_shape = [3, 3], strides = [1, 1]](%input_transposed14)
  %normal_A_block_9_1/normal_bn_1_9/cond/Merge:0_transpose0 = Transpose[perm = [0, 2, 3, 1]](%normal_A_block_9_1/normal_bn_1_9/cond/Merge:0_pooling0)
  %normal_A_block_9_1/block_3/normal_add_3_9/add:0 = Add(%normal_A_block_9_1/normal_bn_1_9/cond/Merge:0_transpose0, %normal_A_block_9_1/adjust_block/adjust_reduction_block_9/adjust_bn_9/cond/Merge:0)
  %normal_A_block_9_1/block_5/normal_add_5_9/add:0 = Add(%normal_A_block_9_1/block_5/separable_conv_block_normal_left5_9/separable_conv_2_bn_normal_left5_9/cond/Merge:0, %normal_A_block_9_1/normal_bn_1_9/cond/Merge:0)
  %normal_A_block_9_1/normal_concat_9/concat:0 = Concat[axis = 3](%normal_A_block_9_1/adjust_block/adjust_reduction_block_9/adjust_bn_9/cond/Merge:0, %fan_out_adjustment_out582, %fan_out_adjustment_out583, %normal_A_block_9_1/block_3/normal_add_3_9/add:0, %fan_out_adjustment_out584, %normal_A_block_9_1/block_5/normal_add_5_9/add:0)
  %normal_A_block_11_1/adjust_block/adjust_projection_block_11/activation_352/Relu:0 = Relu(%normal_A_block_9_1/normal_concat_9/concat:0)
  %normal_A_block_10_1/activation_341/Relu:0 = Relu(%normal_A_block_9_1/normal_concat_9/concat:0)
  %adjusted_input19 = Transpose[perm = [0, 3, 1, 2]](%normal_A_block_11_1/adjust_block/adjust_projection_block_11/activation_352/Relu:0)
  %convolution_output34 = Conv[auto_pad = 'NOTSET', dilations = [1, 1], group = 1, kernel_shape = [1, 1], pads = [0, 0, 0, 0], strides = [1, 1]](%adjusted_input19, %normal_A_block_11_1/adjust_block/adjust_projection_block_11/adjust_conv_projection_11/kernel:0)
  %adjusted_input18 = Transpose[perm = [0, 3, 1, 2]](%normal_A_block_10_1/activation_341/Relu:0)
  %convolution_output33 = Conv[auto_pad = 'NOTSET', dilations = [1, 1], group = 1, kernel_shape = [1, 1], pads = [0, 0, 0, 0], strides = [1, 1]](%adjusted_input18, %normal_A_block_10_1/normal_conv_1_10/kernel:0)
  %normal_A_block_10_1/adjust_block/adjust_projection_block_10/activation_340/Relu:0 = Relu(%reduction_A_block_reduce_8_1/reduction_concat_reduce_8/concat:0)
  %batch_norm_output_buffer19 = BatchNormalization[epsilon = 9.99999997475243e-07, momentum = 0.999700009822845](%convolution_output34, %scale19, %bias19, %mean19, %var19)
  %normal_A_block_11_1/adjust_block/adjust_projection_block_11/adjust_bn_11/cond/Merge:0 = Transpose[perm = [0, 2, 3, 1]](%batch_norm_output_buffer19)
  %normal_A_block_11_1/block_2/separable_conv_block_normal_right2_11/activation_360/Relu:0 = Relu(%normal_A_block_11_1/adjust_block/adjust_projection_block_11/adjust_bn_11/cond/Merge:0)
  %adjusted_input37 = Transpose[perm = [0, 3, 1, 2]](%normal_A_block_11_1/block_2/separable_conv_block_normal_right2_11/activation_360/Relu:0)
  %convolution_output68 = Conv[auto_pad = 'NOTSET', dilations = [1, 1], group = 176, kernel_shape = [3, 3], pads = [1, 1, 1, 1], strides = [1, 1]](%adjusted_input37, %normal_A_block_11_1/block_2/separable_conv_block_normal_right2_11/separable_conv_1_normal_right2_11/depthwise_kernel:0)
  %convolution_output69 = Conv[auto_pad = 'NOTSET', dilations = [1, 1], group = 1, kernel_shape = [1, 1], strides = [1, 1]](%convolution_output68, %W31)
  %batch_norm_output_buffer38 = BatchNormalization[epsilon = 9.99999997475243e-07, momentum = 0.999700009822845](%convolution_output69, %scale38, %bias38, %mean38, %var38)
  %normal_A_block_11_1/block_2/separable_conv_block_normal_right2_11/activation_361/Relu:0 = Relu(%batch_norm_output_buffer38)
  %convolution_output41 = Conv[auto_pad = 'NOTSET', dilations = [1, 1], group = 176, kernel_shape = [3, 3], pads = [1, 1, 1, 1], strides = [1, 1]](%normal_A_block_11_1/block_2/separable_conv_block_normal_right2_11/activation_361/Relu:0, %normal_A_block_11_1/block_2/separable_conv_block_normal_right2_11/separable_conv_2_normal_right2_11/depthwise_kernel:0)
  %convolution_output42 = Conv[auto_pad = 'NOTSET', dilations = [1, 1], group = 1, kernel_shape = [1, 1], strides = [1, 1]](%convolution_output41, %W18)
  %batch_norm_output_buffer23 = BatchNormalization[epsilon = 9.99999997475243e-07, momentum = 0.999700009822845](%convolution_output42, %scale23, %bias23, %mean23, %var23)
  %normal_A_block_11_1/block_2/separable_conv_block_normal_left2_11/activation_358/Relu:0 = Relu(%normal_A_block_11_1/adjust_block/adjust_projection_block_11/adjust_bn_11/cond/Merge:0)
  %adjusted_input36 = Transpose[perm = [0, 3, 1, 2]](%normal_A_block_11_1/block_2/separable_conv_block_normal_left2_11/activation_358/Relu:0)
  %convolution_output66 = Conv[auto_pad = 'NOTSET', dilations = [1, 1], group = 176, kernel_shape = [5, 5], pads = [2, 2, 2, 2], strides = [1, 1]](%adjusted_input36, %normal_A_block_11_1/block_2/separable_conv_block_normal_left2_11/separable_conv_1_normal_left2_11/depthwise_kernel:0)
  %convolution_output67 = Conv[auto_pad = 'NOTSET', dilations = [1, 1], group = 1, kernel_shape = [1, 1], strides = [1, 1]](%convolution_output66, %W30)
  %batch_norm_output_buffer37 = BatchNormalization[epsilon = 9.99999997475243e-07, momentum = 0.999700009822845](%convolution_output67, %scale37, %bias37, %mean37, %var37)
  %normal_A_block_11_1/block_2/separable_conv_block_normal_left2_11/activation_359/Relu:0 = Relu(%batch_norm_output_buffer37)
  %convolution_output39 = Conv[auto_pad = 'NOTSET', dilations = [1, 1], group = 176, kernel_shape = [5, 5], pads = [2, 2, 2, 2], strides = [1, 1]](%normal_A_block_11_1/block_2/separable_conv_block_normal_left2_11/activation_359/Relu:0, %normal_A_block_11_1/block_2/separable_conv_block_normal_left2_11/separable_conv_2_normal_left2_11/depthwise_kernel:0)
  %convolution_output40 = Conv[auto_pad = 'NOTSET', dilations = [1, 1], group = 1, kernel_shape = [1, 1], strides = [1, 1]](%convolution_output39, %W17)
  %batch_norm_output_buffer22 = BatchNormalization[epsilon = 9.99999997475243e-07, momentum = 0.999700009822845](%convolution_output40, %scale22, %bias22, %mean22, %var22)
  %normal_A_block_11_1/block_2/normal_add_2_11/add:0 = Add(%batch_norm_output_buffer22, %batch_norm_output_buffer23)
  %fan_out_adjustment_out573 = Transpose[perm = [0, 2, 3, 1]](%normal_A_block_11_1/block_2/normal_add_2_11/add:0)
  %normal_A_block_11_1/block_1/separable_conv_block_normal_right1_11/activation_356/Relu:0 = Relu(%normal_A_block_11_1/adjust_block/adjust_projection_block_11/adjust_bn_11/cond/Merge:0)
  %adjusted_input35 = Transpose[perm = [0, 3, 1, 2]](%normal_A_block_11_1/block_1/separable_conv_block_normal_right1_11/activation_356/Relu:0)
  %convolution_output64 = Conv[auto_pad = 'NOTSET', dilations = [1, 1], group = 176, kernel_shape = [3, 3], pads = [1, 1, 1, 1], strides = [1, 1]](%adjusted_input35, %normal_A_block_11_1/block_1/separable_conv_block_normal_right1_11/separable_conv_1_normal_right1_11/depthwise_kernel:0)
  %convolution_output65 = Conv[auto_pad = 'NOTSET', dilations = [1, 1], group = 1, kernel_shape = [1, 1], strides = [1, 1]](%convolution_output64, %W29)
  %batch_norm_output_buffer36 = BatchNormalization[epsilon = 9.99999997475243e-07, momentum = 0.999700009822845](%convolution_output65, %scale36, %bias36, %mean36, %var36)
  %normal_A_block_11_1/block_1/separable_conv_block_normal_right1_11/activation_357/Relu:0 = Relu(%batch_norm_output_buffer36)
  %convolution_output37 = Conv[auto_pad = 'NOTSET', dilations = [1, 1], group = 176, kernel_shape = [3, 3], pads = [1, 1, 1, 1], strides = [1, 1]](%normal_A_block_11_1/block_1/separable_conv_block_normal_right1_11/activation_357/Relu:0, %normal_A_block_11_1/block_1/separable_conv_block_normal_right1_11/separable_conv_2_normal_right1_11/depthwise_kernel:0)
  %convolution_output38 = Conv[auto_pad = 'NOTSET', dilations = [1, 1], group = 1, kernel_shape = [1, 1], strides = [1, 1]](%convolution_output37, %W16)
  %batch_norm_output_buffer21 = BatchNormalization[epsilon = 9.99999997475243e-07, momentum = 0.999700009822845](%convolution_output38, %scale21, %bias21, %mean21, %var21)
  %input_transposed9 = Transpose[perm = [0, 3, 1, 2]](%normal_A_block_11_1/adjust_block/adjust_projection_block_11/adjust_bn_11/cond/Merge:0)
  %normal_A_block_11_1/adjust_block/adjust_projection_block_11/adjust_bn_11/cond/Merge:0_pooling01 = AveragePool[auto_pad = 'SAME_UPPER', ceil_mode = 0, kernel_shape = [3, 3], strides = [1, 1]](%input_transposed9)
  %input_transposed8 = Transpose[perm = [0, 3, 1, 2]](%normal_A_block_11_1/adjust_block/adjust_projection_block_11/adjust_bn_11/cond/Merge:0)
  %normal_A_block_11_1/adjust_block/adjust_projection_block_11/adjust_bn_11/cond/Merge:0_pooling0 = AveragePool[auto_pad = 'SAME_UPPER', ceil_mode = 0, kernel_shape = [3, 3], strides = [1, 1]](%input_transposed8)
  %normal_A_block_11_1/block_4/normal_add_4_11/add:0 = Add(%normal_A_block_11_1/adjust_block/adjust_projection_block_11/adjust_bn_11/cond/Merge:0_pooling0, %normal_A_block_11_1/adjust_block/adjust_projection_block_11/adjust_bn_11/cond/Merge:0_pooling01)
  %fan_out_adjustment_out574 = Transpose[perm = [0, 2, 3, 1]](%normal_A_block_11_1/block_4/normal_add_4_11/add:0)
  %batch_norm_output_buffer18 = BatchNormalization[epsilon = 9.99999997475243e-07, momentum = 0.999700009822845](%convolution_output33, %scale18, %bias18, %mean18, %var18)
  %normal_A_block_10_1/normal_bn_1_10/cond/Merge:0 = Transpose[perm = [0, 2, 3, 1]](%batch_norm_output_buffer18)
  %normal_A_block_10_1/block_5/separable_conv_block_normal_left5_10/activation_350/Relu:0 = Relu(%normal_A_block_10_1/normal_bn_1_10/cond/Merge:0)
  %adjusted_input30 = Transpose[perm = [0, 3, 1, 2]](%normal_A_block_10_1/block_5/separable_conv_block_normal_left5_10/activation_350/Relu:0)
  %convolution_output54 = Conv[auto_pad = 'NOTSET', dilations = [1, 1], group = 176, kernel_shape = [3, 3], pads = [1, 1, 1, 1], strides = [1, 1]](%adjusted_input30, %normal_A_block_10_1/block_5/separable_conv_block_normal_left5_10/separable_conv_1_normal_left5_10/depthwise_kernel:0)
  %convolution_output55 = Conv[auto_pad = 'NOTSET', dilations = [1, 1], group = 1, kernel_shape = [1, 1], strides = [1, 1]](%convolution_output54, %W24)
  %batch_norm_output_buffer30 = BatchNormalization[epsilon = 9.99999997475243e-07, momentum = 0.999700009822845](%convolution_output55, %scale30, %bias30, %mean30, %var30)
  %normal_A_block_10_1/block_5/separable_conv_block_normal_left5_10/activation_351/Relu:0 = Relu(%batch_norm_output_buffer30)
  %convolution_output31 = Conv[auto_pad = 'NOTSET', dilations = [1, 1], group = 176, kernel_shape = [3, 3], pads = [1, 1, 1, 1], strides = [1, 1]](%normal_A_block_10_1/block_5/separable_conv_block_normal_left5_10/activation_351/Relu:0, %normal_A_block_10_1/block_5/separable_conv_block_normal_left5_10/separable_conv_2_normal_left5_10/depthwise_kernel:0)
  %convolution_output32 = Conv[auto_pad = 'NOTSET', dilations = [1, 1], group = 1, kernel_shape = [1, 1], strides = [1, 1]](%convolution_output31, %W14)
  %normal_A_block_10_1/block_1/separable_conv_block_normal_left1_10/activation_342/Relu:0 = Relu(%normal_A_block_10_1/normal_bn_1_10/cond/Merge:0)
  %adjusted_input26 = Transpose[perm = [0, 3, 1, 2]](%normal_A_block_10_1/block_1/separable_conv_block_normal_left1_10/activation_342/Relu:0)
  %convolution_output46 = Conv[auto_pad = 'NOTSET', dilations = [1, 1], group = 176, kernel_shape = [5, 5], pads = [2, 2, 2, 2], strides = [1, 1]](%adjusted_input26, %normal_A_block_10_1/block_1/separable_conv_block_normal_left1_10/separable_conv_1_normal_left1_10/depthwise_kernel:0)
  %convolution_output47 = Conv[auto_pad = 'NOTSET', dilations = [1, 1], group = 1, kernel_shape = [1, 1], strides = [1, 1]](%convolution_output46, %W20)
  %batch_norm_output_buffer26 = BatchNormalization[epsilon = 9.99999997475243e-07, momentum = 0.999700009822845](%convolution_output47, %scale26, %bias26, %mean26, %var26)
  %normal_A_block_10_1/block_1/separable_conv_block_normal_left1_10/activation_343/Relu:0 = Relu(%batch_norm_output_buffer26)
  %convolution_output23 = Conv[auto_pad = 'NOTSET', dilations = [1, 1], group = 176, kernel_shape = [5, 5], pads = [2, 2, 2, 2], strides = [1, 1]](%normal_A_block_10_1/block_1/separable_conv_block_normal_left1_10/activation_343/Relu:0, %normal_A_block_10_1/block_1/separable_conv_block_normal_left1_10/separable_conv_2_normal_left1_10/depthwise_kernel:0)
  %convolution_output24 = Conv[auto_pad = 'NOTSET', dilations = [1, 1], group = 1, kernel_shape = [1, 1], strides = [1, 1]](%convolution_output23, %W10)
  %batch_norm_output_buffer17 = BatchNormalization[epsilon = 9.99999997475243e-07, momentum = 0.999700009822845](%convolution_output32, %scale17, %bias17, %mean17, %var17)
  %normal_A_block_10_1/block_5/separable_conv_block_normal_left5_10/separable_conv_2_bn_normal_left5_10/cond/Merge:0 = Transpose[perm = [0, 2, 3, 1]](%batch_norm_output_buffer17)
  %input_transposed4 = Transpose[perm = [0, 3, 1, 2]](%normal_A_block_10_1/normal_bn_1_10/cond/Merge:0)
  %normal_A_block_10_1/normal_bn_1_10/cond/Merge:0_pooling0 = AveragePool[auto_pad = 'SAME_UPPER', ceil_mode = 0, kernel_shape = [3, 3], strides = [1, 1]](%input_transposed4)
  %normal_A_block_10_1/normal_bn_1_10/cond/Merge:0_transpose0 = Transpose[perm = [0, 2, 3, 1]](%normal_A_block_10_1/normal_bn_1_10/cond/Merge:0_pooling0)
  %batch_norm_output_buffer13 = BatchNormalization[epsilon = 9.99999997475243e-07, momentum = 0.999700009822845](%convolution_output24, %scale13, %bias13, %mean13, %var13)
  %convolution_output12 = Conv[auto_pad = 'NOTSET', dilations = [1, 1], group = 1, kernel_shape = [1, 1], pads = [0, 0, 0, 0], strides = [1, 1]](%normal_A_block_10_1/adjust_block/adjust_projection_block_10/activation_340/Relu:0, %normal_A_block_10_1/adjust_block/adjust_projection_block_10/adjust_conv_projection_10/kernel:0)
  %normal_A_block_10_1/block_5/normal_add_5_10/add:0 = Add(%normal_A_block_10_1/block_5/separable_conv_block_normal_left5_10/separable_conv_2_bn_normal_left5_10/cond/Merge:0, %normal_A_block_10_1/normal_bn_1_10/cond/Merge:0)
  %batch_norm_output_buffer7 = BatchNormalization[epsilon = 9.99999997475243e-07, momentum = 0.999700009822845](%convolution_output12, %scale7, %bias7, %mean7, %var7)
  %normal_A_block_10_1/adjust_block/adjust_projection_block_10/adjust_bn_10/cond/Merge:0 = Transpose[perm = [0, 2, 3, 1]](%batch_norm_output_buffer7)
  %normal_A_block_10_1/block_2/separable_conv_block_normal_right2_10/activation_348/Relu:0 = Relu(%normal_A_block_10_1/adjust_block/adjust_projection_block_10/adjust_bn_10/cond/Merge:0)
  %adjusted_input29 = Transpose[perm = [0, 3, 1, 2]](%normal_A_block_10_1/block_2/separable_conv_block_normal_right2_10/activation_348/Relu:0)
  %convolution_output52 = Conv[auto_pad = 'NOTSET', dilations = [1, 1], group = 176, kernel_shape = [3, 3], pads = [1, 1, 1, 1], strides = [1, 1]](%adjusted_input29, %normal_A_block_10_1/block_2/separable_conv_block_normal_right2_10/separable_conv_1_normal_right2_10/depthwise_kernel:0)
  %convolution_output53 = Conv[auto_pad = 'NOTSET', dilations = [1, 1], group = 1, kernel_shape = [1, 1], strides = [1, 1]](%convolution_output52, %W23)
  %batch_norm_output_buffer29 = BatchNormalization[epsilon = 9.99999997475243e-07, momentum = 0.999700009822845](%convolution_output53, %scale29, %bias29, %mean29, %var29)
  %normal_A_block_10_1/block_2/separable_conv_block_normal_right2_10/activation_349/Relu:0 = Relu(%batch_norm_output_buffer29)
  %convolution_output29 = Conv[auto_pad = 'NOTSET', dilations = [1, 1], group = 176, kernel_shape = [3, 3], pads = [1, 1, 1, 1], strides = [1, 1]](%normal_A_block_10_1/block_2/separable_conv_block_normal_right2_10/activation_349/Relu:0, %normal_A_block_10_1/block_2/separable_conv_block_normal_right2_10/separable_conv_2_normal_right2_10/depthwise_kernel:0)
  %convolution_output30 = Conv[auto_pad = 'NOTSET', dilations = [1, 1], group = 1, kernel_shape = [1, 1], strides = [1, 1]](%convolution_output29, %W13)
  %batch_norm_output_buffer16 = BatchNormalization[epsilon = 9.99999997475243e-07, momentum = 0.999700009822845](%convolution_output30, %scale16, %bias16, %mean16, %var16)
  %normal_A_block_10_1/block_2/separable_conv_block_normal_left2_10/activation_346/Relu:0 = Relu(%normal_A_block_10_1/adjust_block/adjust_projection_block_10/adjust_bn_10/cond/Merge:0)
  %adjusted_input28 = Transpose[perm = [0, 3, 1, 2]](%normal_A_block_10_1/block_2/separable_conv_block_normal_left2_10/activation_346/Relu:0)
  %convolution_output50 = Conv[auto_pad = 'NOTSET', dilations = [1, 1], group = 176, kernel_shape = [5, 5], pads = [2, 2, 2, 2], strides = [1, 1]](%adjusted_input28, %normal_A_block_10_1/block_2/separable_conv_block_normal_left2_10/separable_conv_1_normal_left2_10/depthwise_kernel:0)
  %convolution_output51 = Conv[auto_pad = 'NOTSET', dilations = [1, 1], group = 1, kernel_shape = [1, 1], strides = [1, 1]](%convolution_output50, %W22)
  %batch_norm_output_buffer28 = BatchNormalization[epsilon = 9.99999997475243e-07, momentum = 0.999700009822845](%convolution_output51, %scale28, %bias28, %mean28, %var28)
  %normal_A_block_10_1/block_2/separable_conv_block_normal_left2_10/activation_347/Relu:0 = Relu(%batch_norm_output_buffer28)
  %convolution_output27 = Conv[auto_pad = 'NOTSET', dilations = [1, 1], group = 176, kernel_shape = [5, 5], pads = [2, 2, 2, 2], strides = [1, 1]](%normal_A_block_10_1/block_2/separable_conv_block_normal_left2_10/activation_347/Relu:0, %normal_A_block_10_1/block_2/separable_conv_block_normal_left2_10/separable_conv_2_normal_left2_10/depthwise_kernel:0)
  %convolution_output28 = Conv[auto_pad = 'NOTSET', dilations = [1, 1], group = 1, kernel_shape = [1, 1], strides = [1, 1]](%convolution_output27, %W12)
  %batch_norm_output_buffer15 = BatchNormalization[epsilon = 9.99999997475243e-07, momentum = 0.999700009822845](%convolution_output28, %scale15, %bias15, %mean15, %var15)
  %normal_A_block_10_1/block_2/normal_add_2_10/add:0 = Add(%batch_norm_output_buffer15, %batch_norm_output_buffer16)
  %fan_out_adjustment_out570 = Transpose[perm = [0, 2, 3, 1]](%normal_A_block_10_1/block_2/normal_add_2_10/add:0)
  %normal_A_block_10_1/block_1/separable_conv_block_normal_right1_10/activation_344/Relu:0 = Relu(%normal_A_block_10_1/adjust_block/adjust_projection_block_10/adjust_bn_10/cond/Merge:0)
  %adjusted_input27 = Transpose[perm = [0, 3, 1, 2]](%normal_A_block_10_1/block_1/separable_conv_block_normal_right1_10/activation_344/Relu:0)
  %convolution_output48 = Conv[auto_pad = 'NOTSET', dilations = [1, 1], group = 176, kernel_shape = [3, 3], pads = [1, 1, 1, 1], strides = [1, 1]](%adjusted_input27, %normal_A_block_10_1/block_1/separable_conv_block_normal_right1_10/separable_conv_1_normal_right1_10/depthwise_kernel:0)
  %convolution_output49 = Conv[auto_pad = 'NOTSET', dilations = [1, 1], group = 1, kernel_shape = [1, 1], strides = [1, 1]](%convolution_output48, %W21)
  %batch_norm_output_buffer27 = BatchNormalization[epsilon = 9.99999997475243e-07, momentum = 0.999700009822845](%convolution_output49, %scale27, %bias27, %mean27, %var27)
  %normal_A_block_10_1/block_1/separable_conv_block_normal_right1_10/activation_345/Relu:0 = Relu(%batch_norm_output_buffer27)
  %convolution_output25 = Conv[auto_pad = 'NOTSET', dilations = [1, 1], group = 176, kernel_shape = [3, 3], pads = [1, 1, 1, 1], strides = [1, 1]](%normal_A_block_10_1/block_1/separable_conv_block_normal_right1_10/activation_345/Relu:0, %normal_A_block_10_1/block_1/separable_conv_block_normal_right1_10/separable_conv_2_normal_right1_10/depthwise_kernel:0)
  %convolution_output26 = Conv[auto_pad = 'NOTSET', dilations = [1, 1], group = 1, kernel_shape = [1, 1], strides = [1, 1]](%convolution_output25, %W11)
  %batch_norm_output_buffer14 = BatchNormalization[epsilon = 9.99999997475243e-07, momentum = 0.999700009822845](%convolution_output26, %scale14, %bias14, %mean14, %var14)
  %normal_A_block_10_1/block_1/normal_add_1_10/add:0 = Add(%batch_norm_output_buffer13, %batch_norm_output_buffer14)
  %fan_out_adjustment_out569 = Transpose[perm = [0, 2, 3, 1]](%normal_A_block_10_1/block_1/normal_add_1_10/add:0)
  %input_transposed6 = Transpose[perm = [0, 3, 1, 2]](%normal_A_block_10_1/adjust_block/adjust_projection_block_10/adjust_bn_10/cond/Merge:0)
  %normal_A_block_10_1/adjust_block/adjust_projection_block_10/adjust_bn_10/cond/Merge:0_pooling01 = AveragePool[auto_pad = 'SAME_UPPER', ceil_mode = 0, kernel_shape = [3, 3], strides = [1, 1]](%input_transposed6)
  %input_transposed5 = Transpose[perm = [0, 3, 1, 2]](%normal_A_block_10_1/adjust_block/adjust_projection_block_10/adjust_bn_10/cond/Merge:0)
  %normal_A_block_10_1/adjust_block/adjust_projection_block_10/adjust_bn_10/cond/Merge:0_pooling0 = AveragePool[auto_pad = 'SAME_UPPER', ceil_mode = 0, kernel_shape = [3, 3], strides = [1, 1]](%input_transposed5)
  %normal_A_block_10_1/block_4/normal_add_4_10/add:0 = Add(%normal_A_block_10_1/adjust_block/adjust_projection_block_10/adjust_bn_10/cond/Merge:0_pooling0, %normal_A_block_10_1/adjust_block/adjust_projection_block_10/adjust_bn_10/cond/Merge:0_pooling01)
  %fan_out_adjustment_out571 = Transpose[perm = [0, 2, 3, 1]](%normal_A_block_10_1/block_4/normal_add_4_10/add:0)
  %normal_A_block_10_1/block_3/normal_add_3_10/add:0 = Add(%normal_A_block_10_1/normal_bn_1_10/cond/Merge:0_transpose0, %normal_A_block_10_1/adjust_block/adjust_projection_block_10/adjust_bn_10/cond/Merge:0)
  %normal_A_block_10_1/normal_concat_10/concat:0 = Concat[axis = 3](%normal_A_block_10_1/adjust_block/adjust_projection_block_10/adjust_bn_10/cond/Merge:0, %fan_out_adjustment_out569, %fan_out_adjustment_out570, %normal_A_block_10_1/block_3/normal_add_3_10/add:0, %fan_out_adjustment_out571, %normal_A_block_10_1/block_5/normal_add_5_10/add:0)
  %normal_A_block_11_1/activation_353/Relu:0 = Relu(%normal_A_block_10_1/normal_concat_10/concat:0)
  %adjusted_input25 = Transpose[perm = [0, 3, 1, 2]](%normal_A_block_11_1/activation_353/Relu:0)
  %convolution_output45 = Conv[auto_pad = 'NOTSET', dilations = [1, 1], group = 1, kernel_shape = [1, 1], pads = [0, 0, 0, 0], strides = [1, 1]](%adjusted_input25, %normal_A_block_11_1/normal_conv_1_11/kernel:0)
  %batch_norm_output_buffer25 = BatchNormalization[epsilon = 9.99999997475243e-07, momentum = 0.999700009822845](%convolution_output45, %scale25, %bias25, %mean25, %var25)
  %normal_A_block_11_1/normal_bn_1_11/cond/Merge:0 = Transpose[perm = [0, 2, 3, 1]](%batch_norm_output_buffer25)
  %normal_A_block_11_1/block_5/separable_conv_block_normal_left5_11/activation_362/Relu:0 = Relu(%normal_A_block_11_1/normal_bn_1_11/cond/Merge:0)
  %adjusted_input38 = Transpose[perm = [0, 3, 1, 2]](%normal_A_block_11_1/block_5/separable_conv_block_normal_left5_11/activation_362/Relu:0)
  %convolution_output70 = Conv[auto_pad = 'NOTSET', dilations = [1, 1], group = 176, kernel_shape = [3, 3], pads = [1, 1, 1, 1], strides = [1, 1]](%adjusted_input38, %normal_A_block_11_1/block_5/separable_conv_block_normal_left5_11/separable_conv_1_normal_left5_11/depthwise_kernel:0)
  %convolution_output71 = Conv[auto_pad = 'NOTSET', dilations = [1, 1], group = 1, kernel_shape = [1, 1], strides = [1, 1]](%convolution_output70, %W32)
  %batch_norm_output_buffer39 = BatchNormalization[epsilon = 9.99999997475243e-07, momentum = 0.999700009822845](%convolution_output71, %scale39, %bias39, %mean39, %var39)
  %normal_A_block_11_1/block_5/separable_conv_block_normal_left5_11/activation_363/Relu:0 = Relu(%batch_norm_output_buffer39)
  %convolution_output43 = Conv[auto_pad = 'NOTSET', dilations = [1, 1], group = 176, kernel_shape = [3, 3], pads = [1, 1, 1, 1], strides = [1, 1]](%normal_A_block_11_1/block_5/separable_conv_block_normal_left5_11/activation_363/Relu:0, %normal_A_block_11_1/block_5/separable_conv_block_normal_left5_11/separable_conv_2_normal_left5_11/depthwise_kernel:0)
  %convolution_output44 = Conv[auto_pad = 'NOTSET', dilations = [1, 1], group = 1, kernel_shape = [1, 1], strides = [1, 1]](%convolution_output43, %W19)
  %batch_norm_output_buffer24 = BatchNormalization[epsilon = 9.99999997475243e-07, momentum = 0.999700009822845](%convolution_output44, %scale24, %bias24, %mean24, %var24)
  %normal_A_block_11_1/block_5/separable_conv_block_normal_left5_11/separable_conv_2_bn_normal_left5_11/cond/Merge:0 = Transpose[perm = [0, 2, 3, 1]](%batch_norm_output_buffer24)
  %normal_A_block_11_1/block_1/separable_conv_block_normal_left1_11/activation_354/Relu:0 = Relu(%normal_A_block_11_1/normal_bn_1_11/cond/Merge:0)
  %adjusted_input34 = Transpose[perm = [0, 3, 1, 2]](%normal_A_block_11_1/block_1/separable_conv_block_normal_left1_11/activation_354/Relu:0)
  %convolution_output62 = Conv[auto_pad = 'NOTSET', dilations = [1, 1], group = 176, kernel_shape = [5, 5], pads = [2, 2, 2, 2], strides = [1, 1]](%adjusted_input34, %normal_A_block_11_1/block_1/separable_conv_block_normal_left1_11/separable_conv_1_normal_left1_11/depthwise_kernel:0)
  %convolution_output63 = Conv[auto_pad = 'NOTSET', dilations = [1, 1], group = 1, kernel_shape = [1, 1], strides = [1, 1]](%convolution_output62, %W28)
  %batch_norm_output_buffer35 = BatchNormalization[epsilon = 9.99999997475243e-07, momentum = 0.999700009822845](%convolution_output63, %scale35, %bias35, %mean35, %var35)
  %normal_A_block_11_1/block_1/separable_conv_block_normal_left1_11/activation_355/Relu:0 = Relu(%batch_norm_output_buffer35)
  %convolution_output35 = Conv[auto_pad = 'NOTSET', dilations = [1, 1], group = 176, kernel_shape = [5, 5], pads = [2, 2, 2, 2], strides = [1, 1]](%normal_A_block_11_1/block_1/separable_conv_block_normal_left1_11/activation_355/Relu:0, %normal_A_block_11_1/block_1/separable_conv_block_normal_left1_11/separable_conv_2_normal_left1_11/depthwise_kernel:0)
  %convolution_output36 = Conv[auto_pad = 'NOTSET', dilations = [1, 1], group = 1, kernel_shape = [1, 1], strides = [1, 1]](%convolution_output35, %W15)
  %batch_norm_output_buffer20 = BatchNormalization[epsilon = 9.99999997475243e-07, momentum = 0.999700009822845](%convolution_output36, %scale20, %bias20, %mean20, %var20)
  %normal_A_block_11_1/block_1/normal_add_1_11/add:0 = Add(%batch_norm_output_buffer20, %batch_norm_output_buffer21)
  %fan_out_adjustment_out572 = Transpose[perm = [0, 2, 3, 1]](%normal_A_block_11_1/block_1/normal_add_1_11/add:0)
  %input_transposed7 = Transpose[perm = [0, 3, 1, 2]](%normal_A_block_11_1/normal_bn_1_11/cond/Merge:0)
  %normal_A_block_11_1/normal_bn_1_11/cond/Merge:0_pooling0 = AveragePool[auto_pad = 'SAME_UPPER', ceil_mode = 0, kernel_shape = [3, 3], strides = [1, 1]](%input_transposed7)
  %normal_A_block_11_1/normal_bn_1_11/cond/Merge:0_transpose0 = Transpose[perm = [0, 2, 3, 1]](%normal_A_block_11_1/normal_bn_1_11/cond/Merge:0_pooling0)
  %normal_A_block_11_1/block_3/normal_add_3_11/add:0 = Add(%normal_A_block_11_1/normal_bn_1_11/cond/Merge:0_transpose0, %normal_A_block_11_1/adjust_block/adjust_projection_block_11/adjust_bn_11/cond/Merge:0)
  %normal_A_block_11_1/block_5/normal_add_5_11/add:0 = Add(%normal_A_block_11_1/block_5/separable_conv_block_normal_left5_11/separable_conv_2_bn_normal_left5_11/cond/Merge:0, %normal_A_block_11_1/normal_bn_1_11/cond/Merge:0)
  %normal_A_block_11_1/normal_concat_11/concat:0 = Concat[axis = 3](%normal_A_block_11_1/adjust_block/adjust_projection_block_11/adjust_bn_11/cond/Merge:0, %fan_out_adjustment_out572, %fan_out_adjustment_out573, %normal_A_block_11_1/block_3/normal_add_3_11/add:0, %fan_out_adjustment_out574, %normal_A_block_11_1/block_5/normal_add_5_11/add:0)
  %normal_A_block_12_1/activation_365/Relu:0 = Relu(%normal_A_block_11_1/normal_concat_11/concat:0)
  %adjusted_input6 = Transpose[perm = [0, 3, 1, 2]](%normal_A_block_12_1/activation_365/Relu:0)
  %convolution_output11 = Conv[auto_pad = 'NOTSET', dilations = [1, 1], group = 1, kernel_shape = [1, 1], pads = [0, 0, 0, 0], strides = [1, 1]](%adjusted_input6, %normal_A_block_12_1/normal_conv_1_12/kernel:0)
  %normal_A_block_12_1/adjust_block/adjust_projection_block_12/activation_364/Relu:0 = Relu(%normal_A_block_10_1/normal_concat_10/concat:0)
  %batch_norm_output_buffer6 = BatchNormalization[epsilon = 9.99999997475243e-07, momentum = 0.999700009822845](%convolution_output11, %scale6, %bias6, %mean6, %var6)
  %normal_A_block_12_1/normal_bn_1_12/cond/Merge:0 = Transpose[perm = [0, 2, 3, 1]](%batch_norm_output_buffer6)
  %normal_A_block_12_1/block_5/separable_conv_block_normal_left5_12/activation_374/Relu:0 = Relu(%normal_A_block_12_1/normal_bn_1_12/cond/Merge:0)
  %adjusted_input12 = Transpose[perm = [0, 3, 1, 2]](%normal_A_block_12_1/block_5/separable_conv_block_normal_left5_12/activation_374/Relu:0)
  %convolution_output21 = Conv[auto_pad = 'NOTSET', dilations = [1, 1], group = 176, kernel_shape = [3, 3], pads = [1, 1, 1, 1], strides = [1, 1]](%adjusted_input12, %normal_A_block_12_1/block_5/separable_conv_block_normal_left5_12/separable_conv_1_normal_left5_12/depthwise_kernel:0)
  %convolution_output22 = Conv[auto_pad = 'NOTSET', dilations = [1, 1], group = 1, kernel_shape = [1, 1], strides = [1, 1]](%convolution_output21, %W9)
  %batch_norm_output_buffer12 = BatchNormalization[epsilon = 9.99999997475243e-07, momentum = 0.999700009822845](%convolution_output22, %scale12, %bias12, %mean12, %var12)
  %normal_A_block_12_1/block_5/separable_conv_block_normal_left5_12/activation_375/Relu:0 = Relu(%batch_norm_output_buffer12)
  %convolution_output9 = Conv[auto_pad = 'NOTSET', dilations = [1, 1], group = 176, kernel_shape = [3, 3], pads = [1, 1, 1, 1], strides = [1, 1]](%normal_A_block_12_1/block_5/separable_conv_block_normal_left5_12/activation_375/Relu:0, %normal_A_block_12_1/block_5/separable_conv_block_normal_left5_12/separable_conv_2_normal_left5_12/depthwise_kernel:0)
  %convolution_output10 = Conv[auto_pad = 'NOTSET', dilations = [1, 1], group = 1, kernel_shape = [1, 1], strides = [1, 1]](%convolution_output9, %W4)
  %normal_A_block_12_1/block_1/separable_conv_block_normal_left1_12/activation_366/Relu:0 = Relu(%normal_A_block_12_1/normal_bn_1_12/cond/Merge:0)
  %adjusted_input8 = Transpose[perm = [0, 3, 1, 2]](%normal_A_block_12_1/block_1/separable_conv_block_normal_left1_12/activation_366/Relu:0)
  %convolution_output13 = Conv[auto_pad = 'NOTSET', dilations = [1, 1], group = 176, kernel_shape = [5, 5], pads = [2, 2, 2, 2], strides = [1, 1]](%adjusted_input8, %normal_A_block_12_1/block_1/separable_conv_block_normal_left1_12/separable_conv_1_normal_left1_12/depthwise_kernel:0)
  %convolution_output14 = Conv[auto_pad = 'NOTSET', dilations = [1, 1], group = 1, kernel_shape = [1, 1], strides = [1, 1]](%convolution_output13, %W5)
  %batch_norm_output_buffer8 = BatchNormalization[epsilon = 9.99999997475243e-07, momentum = 0.999700009822845](%convolution_output14, %scale8, %bias8, %mean8, %var8)
  %normal_A_block_12_1/block_1/separable_conv_block_normal_left1_12/activation_367/Relu:0 = Relu(%batch_norm_output_buffer8)
  %convolution_output1 = Conv[auto_pad = 'NOTSET', dilations = [1, 1], group = 176, kernel_shape = [5, 5], pads = [2, 2, 2, 2], strides = [1, 1]](%normal_A_block_12_1/block_1/separable_conv_block_normal_left1_12/activation_367/Relu:0, %normal_A_block_12_1/block_1/separable_conv_block_normal_left1_12/separable_conv_2_normal_left1_12/depthwise_kernel:0)
  %convolution_output2 = Conv[auto_pad = 'NOTSET', dilations = [1, 1], group = 1, kernel_shape = [1, 1], strides = [1, 1]](%convolution_output1, %W)
  %batch_norm_output_buffer5 = BatchNormalization[epsilon = 9.99999997475243e-07, momentum = 0.999700009822845](%convolution_output10, %scale5, %bias5, %mean5, %var5)
  %normal_A_block_12_1/block_5/separable_conv_block_normal_left5_12/separable_conv_2_bn_normal_left5_12/cond/Merge:0 = Transpose[perm = [0, 2, 3, 1]](%batch_norm_output_buffer5)
  %input_transposed1 = Transpose[perm = [0, 3, 1, 2]](%normal_A_block_12_1/normal_bn_1_12/cond/Merge:0)
  %normal_A_block_12_1/normal_bn_1_12/cond/Merge:0_pooling0 = AveragePool[auto_pad = 'SAME_UPPER', ceil_mode = 0, kernel_shape = [3, 3], strides = [1, 1]](%input_transposed1)
  %normal_A_block_12_1/normal_bn_1_12/cond/Merge:0_transpose0 = Transpose[perm = [0, 2, 3, 1]](%normal_A_block_12_1/normal_bn_1_12/cond/Merge:0_pooling0)
  %batch_norm_output_buffer1 = BatchNormalization[epsilon = 9.99999997475243e-07, momentum = 0.999700009822845](%convolution_output2, %scale1, %bias1, %mean1, %var1)
  %adjusted_input = Transpose[perm = [0, 3, 1, 2]](%normal_A_block_12_1/adjust_block/adjust_projection_block_12/activation_364/Relu:0)
  %convolution_output = Conv[auto_pad = 'NOTSET', dilations = [1, 1], group = 1, kernel_shape = [1, 1], pads = [0, 0, 0, 0], strides = [1, 1]](%adjusted_input, %normal_A_block_12_1/adjust_block/adjust_projection_block_12/adjust_conv_projection_12/kernel:0)
  %normal_A_block_12_1/block_5/normal_add_5_12/add:0 = Add(%normal_A_block_12_1/block_5/separable_conv_block_normal_left5_12/separable_conv_2_bn_normal_left5_12/cond/Merge:0, %normal_A_block_12_1/normal_bn_1_12/cond/Merge:0)
  %batch_norm_output_buffer = BatchNormalization[epsilon = 9.99999997475243e-07, momentum = 0.999700009822845](%convolution_output, %scale, %bias, %mean, %var)
  %normal_A_block_12_1/adjust_block/adjust_projection_block_12/adjust_bn_12/cond/Merge:0 = Transpose[perm = [0, 2, 3, 1]](%batch_norm_output_buffer)
  %normal_A_block_12_1/block_2/separable_conv_block_normal_right2_12/activation_372/Relu:0 = Relu(%normal_A_block_12_1/adjust_block/adjust_projection_block_12/adjust_bn_12/cond/Merge:0)
  %adjusted_input11 = Transpose[perm = [0, 3, 1, 2]](%normal_A_block_12_1/block_2/separable_conv_block_normal_right2_12/activation_372/Relu:0)
  %convolution_output19 = Conv[auto_pad = 'NOTSET', dilations = [1, 1], group = 176, kernel_shape = [3, 3], pads = [1, 1, 1, 1], strides = [1, 1]](%adjusted_input11, %normal_A_block_12_1/block_2/separable_conv_block_normal_right2_12/separable_conv_1_normal_right2_12/depthwise_kernel:0)
  %convolution_output20 = Conv[auto_pad = 'NOTSET', dilations = [1, 1], group = 1, kernel_shape = [1, 1], strides = [1, 1]](%convolution_output19, %W8)
  %batch_norm_output_buffer11 = BatchNormalization[epsilon = 9.99999997475243e-07, momentum = 0.999700009822845](%convolution_output20, %scale11, %bias11, %mean11, %var11)
  %normal_A_block_12_1/block_2/separable_conv_block_normal_right2_12/activation_373/Relu:0 = Relu(%batch_norm_output_buffer11)
  %convolution_output7 = Conv[auto_pad = 'NOTSET', dilations = [1, 1], group = 176, kernel_shape = [3, 3], pads = [1, 1, 1, 1], strides = [1, 1]](%normal_A_block_12_1/block_2/separable_conv_block_normal_right2_12/activation_373/Relu:0, %normal_A_block_12_1/block_2/separable_conv_block_normal_right2_12/separable_conv_2_normal_right2_12/depthwise_kernel:0)
  %convolution_output8 = Conv[auto_pad = 'NOTSET', dilations = [1, 1], group = 1, kernel_shape = [1, 1], strides = [1, 1]](%convolution_output7, %W3)
  %batch_norm_output_buffer4 = BatchNormalization[epsilon = 9.99999997475243e-07, momentum = 0.999700009822845](%convolution_output8, %scale4, %bias4, %mean4, %var4)
  %normal_A_block_12_1/block_2/separable_conv_block_normal_left2_12/activation_370/Relu:0 = Relu(%normal_A_block_12_1/adjust_block/adjust_projection_block_12/adjust_bn_12/cond/Merge:0)
  %adjusted_input10 = Transpose[perm = [0, 3, 1, 2]](%normal_A_block_12_1/block_2/separable_conv_block_normal_left2_12/activation_370/Relu:0)
  %convolution_output17 = Conv[auto_pad = 'NOTSET', dilations = [1, 1], group = 176, kernel_shape = [5, 5], pads = [2, 2, 2, 2], strides = [1, 1]](%adjusted_input10, %normal_A_block_12_1/block_2/separable_conv_block_normal_left2_12/separable_conv_1_normal_left2_12/depthwise_kernel:0)
  %convolution_output18 = Conv[auto_pad = 'NOTSET', dilations = [1, 1], group = 1, kernel_shape = [1, 1], strides = [1, 1]](%convolution_output17, %W7)
  %batch_norm_output_buffer10 = BatchNormalization[epsilon = 9.99999997475243e-07, momentum = 0.999700009822845](%convolution_output18, %scale10, %bias10, %mean10, %var10)
  %normal_A_block_12_1/block_2/separable_conv_block_normal_left2_12/activation_371/Relu:0 = Relu(%batch_norm_output_buffer10)
  %convolution_output5 = Conv[auto_pad = 'NOTSET', dilations = [1, 1], group = 176, kernel_shape = [5, 5], pads = [2, 2, 2, 2], strides = [1, 1]](%normal_A_block_12_1/block_2/separable_conv_block_normal_left2_12/activation_371/Relu:0, %normal_A_block_12_1/block_2/separable_conv_block_normal_left2_12/separable_conv_2_normal_left2_12/depthwise_kernel:0)
  %convolution_output6 = Conv[auto_pad = 'NOTSET', dilations = [1, 1], group = 1, kernel_shape = [1, 1], strides = [1, 1]](%convolution_output5, %W2)
  %batch_norm_output_buffer3 = BatchNormalization[epsilon = 9.99999997475243e-07, momentum = 0.999700009822845](%convolution_output6, %scale3, %bias3, %mean3, %var3)
  %normal_A_block_12_1/block_2/normal_add_2_12/add:0 = Add(%batch_norm_output_buffer3, %batch_norm_output_buffer4)
  %fan_out_adjustment_out567 = Transpose[perm = [0, 2, 3, 1]](%normal_A_block_12_1/block_2/normal_add_2_12/add:0)
  %normal_A_block_12_1/block_1/separable_conv_block_normal_right1_12/activation_368/Relu:0 = Relu(%normal_A_block_12_1/adjust_block/adjust_projection_block_12/adjust_bn_12/cond/Merge:0)
  %adjusted_input9 = Transpose[perm = [0, 3, 1, 2]](%normal_A_block_12_1/block_1/separable_conv_block_normal_right1_12/activation_368/Relu:0)
  %convolution_output15 = Conv[auto_pad = 'NOTSET', dilations = [1, 1], group = 176, kernel_shape = [3, 3], pads = [1, 1, 1, 1], strides = [1, 1]](%adjusted_input9, %normal_A_block_12_1/block_1/separable_conv_block_normal_right1_12/separable_conv_1_normal_right1_12/depthwise_kernel:0)
  %convolution_output16 = Conv[auto_pad = 'NOTSET', dilations = [1, 1], group = 1, kernel_shape = [1, 1], strides = [1, 1]](%convolution_output15, %W6)
  %batch_norm_output_buffer9 = BatchNormalization[epsilon = 9.99999997475243e-07, momentum = 0.999700009822845](%convolution_output16, %scale9, %bias9, %mean9, %var9)
  %normal_A_block_12_1/block_1/separable_conv_block_normal_right1_12/activation_369/Relu:0 = Relu(%batch_norm_output_buffer9)
  %convolution_output3 = Conv[auto_pad = 'NOTSET', dilations = [1, 1], group = 176, kernel_shape = [3, 3], pads = [1, 1, 1, 1], strides = [1, 1]](%normal_A_block_12_1/block_1/separable_conv_block_normal_right1_12/activation_369/Relu:0, %normal_A_block_12_1/block_1/separable_conv_block_normal_right1_12/separable_conv_2_normal_right1_12/depthwise_kernel:0)
  %convolution_output4 = Conv[auto_pad = 'NOTSET', dilations = [1, 1], group = 1, kernel_shape = [1, 1], strides = [1, 1]](%convolution_output3, %W1)
  %batch_norm_output_buffer2 = BatchNormalization[epsilon = 9.99999997475243e-07, momentum = 0.999700009822845](%convolution_output4, %scale2, %bias2, %mean2, %var2)
  %normal_A_block_12_1/block_1/normal_add_1_12/add:0 = Add(%batch_norm_output_buffer1, %batch_norm_output_buffer2)
  %fan_out_adjustment_out566 = Transpose[perm = [0, 2, 3, 1]](%normal_A_block_12_1/block_1/normal_add_1_12/add:0)
  %input_transposed3 = Transpose[perm = [0, 3, 1, 2]](%normal_A_block_12_1/adjust_block/adjust_projection_block_12/adjust_bn_12/cond/Merge:0)
  %normal_A_block_12_1/adjust_block/adjust_projection_block_12/adjust_bn_12/cond/Merge:0_pooling01 = AveragePool[auto_pad = 'SAME_UPPER', ceil_mode = 0, kernel_shape = [3, 3], strides = [1, 1]](%input_transposed3)
  %input_transposed2 = Transpose[perm = [0, 3, 1, 2]](%normal_A_block_12_1/adjust_block/adjust_projection_block_12/adjust_bn_12/cond/Merge:0)
  %normal_A_block_12_1/adjust_block/adjust_projection_block_12/adjust_bn_12/cond/Merge:0_pooling0 = AveragePool[auto_pad = 'SAME_UPPER', ceil_mode = 0, kernel_shape = [3, 3], strides = [1, 1]](%input_transposed2)
  %normal_A_block_12_1/block_4/normal_add_4_12/add:0 = Add(%normal_A_block_12_1/adjust_block/adjust_projection_block_12/adjust_bn_12/cond/Merge:0_pooling0, %normal_A_block_12_1/adjust_block/adjust_projection_block_12/adjust_bn_12/cond/Merge:0_pooling01)
  %fan_out_adjustment_out568 = Transpose[perm = [0, 2, 3, 1]](%normal_A_block_12_1/block_4/normal_add_4_12/add:0)
  %normal_A_block_12_1/block_3/normal_add_3_12/add:0 = Add(%normal_A_block_12_1/normal_bn_1_12/cond/Merge:0_transpose0, %normal_A_block_12_1/adjust_block/adjust_projection_block_12/adjust_bn_12/cond/Merge:0)
  %normal_A_block_12_1/normal_concat_12/concat:0 = Concat[axis = 3](%normal_A_block_12_1/adjust_block/adjust_projection_block_12/adjust_bn_12/cond/Merge:0, %fan_out_adjustment_out566, %fan_out_adjustment_out567, %normal_A_block_12_1/block_3/normal_add_3_12/add:0, %fan_out_adjustment_out568, %normal_A_block_12_1/block_5/normal_add_5_12/add:0)
  %activation_376/Relu:0 = Relu(%normal_A_block_12_1/normal_concat_12/concat:0)
  %input_transposed = Transpose[perm = [0, 3, 1, 2]](%activation_376/Relu:0)
  %activation_376/Relu:0_pooling0 = GlobalAveragePool(%input_transposed)
  %activation_376/Relu:0_transpose0 = Transpose[perm = [0, 2, 3, 1]](%activation_376/Relu:0_pooling0)
  %activation_376/Relu:0_reshape0 = Reshape(%activation_376/Relu:0_transpose0, %activation_376/Relu:0_reshape_start)
  %transformed_tensor = MatMul(%activation_376/Relu:0_reshape0, %predictions_1/kernel:0)
  %biased_tensor_name = Add(%transformed_tensor, %predictions_1/bias:0)
  %predictions_1/Softmax:01 = Softmax[axis = -1](%biased_tensor_name)
  %predictions = Identity(%predictions_1/Softmax:01)
  return %predictions
}