graph inception_resnetv2 (
  %input_2[FLOAT, Nx299x299x3]
) initializers (
  %predictions_1/kernel:0[FLOAT, 1536x1000]
  %predictions_1/bias:0[FLOAT, 1000]
  %conv_7b_ac/Relu:0_reshape_start[INT64, 2]
  %scale[FLOAT, 1536]
  %bias[FLOAT, 1536]
  %mean[FLOAT, 1536]
  %var[FLOAT, 1536]
  %conv_7b/kernel:0[FLOAT, 1536x2080x1x1]
  %TFNodes/block8_10/mul/y:0[FLOAT, scalar]
  %block8_10_conv/kernel:0[FLOAT, 2080x448x1x1]
  %block8_10_conv/bias:0[FLOAT, 2080]
  %TFNodes1/block8_9/mul/y:0[FLOAT, scalar]
  %block8_9_conv/kernel:0[FLOAT, 2080x448x1x1]
  %block8_9_conv/bias:0[FLOAT, 2080]
  %TFNodes2/block8_8/mul/y:0[FLOAT, scalar]
  %scale1[FLOAT, 192]
  %bias1[FLOAT, 192]
  %mean1[FLOAT, 192]
  %var1[FLOAT, 192]
  %scale2[FLOAT, 256]
  %bias2[FLOAT, 256]
  %mean2[FLOAT, 256]
  %var2[FLOAT, 256]
  %block8_8_conv/kernel:0[FLOAT, 2080x448x1x1]
  %block8_8_conv/bias:0[FLOAT, 2080]
  %conv2d_294/kernel:0[FLOAT, 192x2080x1x1]
  %conv2d_297/kernel:0[FLOAT, 256x224x3x1]
  %TFNodes3/block8_7/mul/y:0[FLOAT, scalar]
  %scale3[FLOAT, 192]
  %bias3[FLOAT, 192]
  %mean3[FLOAT, 192]
  %var3[FLOAT, 192]
  %scale4[FLOAT, 256]
  %bias4[FLOAT, 256]
  %mean4[FLOAT, 256]
  %var4[FLOAT, 256]
  %block8_7_conv/kernel:0[FLOAT, 2080x448x1x1]
  %block8_7_conv/bias:0[FLOAT, 2080]
  %conv2d_290/kernel:0[FLOAT, 192x2080x1x1]
  %conv2d_293/kernel:0[FLOAT, 256x224x3x1]
  %scale5[FLOAT, 224]
  %bias5[FLOAT, 224]
  %mean5[FLOAT, 224]
  %var5[FLOAT, 224]
  %TFNodes4/block8_6/mul/y:0[FLOAT, scalar]
  %scale6[FLOAT, 192]
  %bias6[FLOAT, 192]
  %mean6[FLOAT, 192]
  %var6[FLOAT, 192]
  %scale7[FLOAT, 256]
  %bias7[FLOAT, 256]
  %mean7[FLOAT, 256]
  %var7[FLOAT, 256]
  %conv2d_296/kernel:0[FLOAT, 224x192x1x3]
  %block8_6_conv/kernel:0[FLOAT, 2080x448x1x1]
  %block8_6_conv/bias:0[FLOAT, 2080]
  %conv2d_286/kernel:0[FLOAT, 192x2080x1x1]
  %conv2d_289/kernel:0[FLOAT, 256x224x3x1]
  %scale8[FLOAT, 224]
  %bias8[FLOAT, 224]
  %mean8[FLOAT, 224]
  %var8[FLOAT, 224]
  %TFNodes5/block8_5/mul/y:0[FLOAT, scalar]
  %scale9[FLOAT, 192]
  %bias9[FLOAT, 192]
  %mean9[FLOAT, 192]
  %var9[FLOAT, 192]
  %scale10[FLOAT, 256]
  %bias10[FLOAT, 256]
  %mean10[FLOAT, 256]
  %var10[FLOAT, 256]
  %conv2d_292/kernel:0[FLOAT, 224x192x1x3]
  %scale11[FLOAT, 192]
  %bias11[FLOAT, 192]
  %mean11[FLOAT, 192]
  %var11[FLOAT, 192]
  %block8_5_conv/kernel:0[FLOAT, 2080x448x1x1]
  %block8_5_conv/bias:0[FLOAT, 2080]
  %conv2d_282/kernel:0[FLOAT, 192x2080x1x1]
  %conv2d_285/kernel:0[FLOAT, 256x224x3x1]
  %scale12[FLOAT, 224]
  %bias12[FLOAT, 224]
  %mean12[FLOAT, 224]
  %var12[FLOAT, 224]
  %conv2d_295/kernel:0[FLOAT, 192x2080x1x1]
  %TFNodes6/block8_4/mul/y:0[FLOAT, scalar]
  %scale13[FLOAT, 192]
  %bias13[FLOAT, 192]
  %mean13[FLOAT, 192]
  %var13[FLOAT, 192]
  %scale14[FLOAT, 256]
  %bias14[FLOAT, 256]
  %mean14[FLOAT, 256]
  %var14[FLOAT, 256]
  %conv2d_288/kernel:0[FLOAT, 224x192x1x3]
  %scale15[FLOAT, 192]
  %bias15[FLOAT, 192]
  %mean15[FLOAT, 192]
  %var15[FLOAT, 192]
  %block8_4_conv/kernel:0[FLOAT, 2080x448x1x1]
  %block8_4_conv/bias:0[FLOAT, 2080]
  %conv2d_278/kernel:0[FLOAT, 192x2080x1x1]
  %conv2d_281/kernel:0[FLOAT, 256x224x3x1]
  %scale16[FLOAT, 224]
  %bias16[FLOAT, 224]
  %mean16[FLOAT, 224]
  %var16[FLOAT, 224]
  %conv2d_291/kernel:0[FLOAT, 192x2080x1x1]
  %TFNodes7/block8_3/mul/y:0[FLOAT, scalar]
  %scale17[FLOAT, 192]
  %bias17[FLOAT, 192]
  %mean17[FLOAT, 192]
  %var17[FLOAT, 192]
  %scale18[FLOAT, 256]
  %bias18[FLOAT, 256]
  %mean18[FLOAT, 256]
  %var18[FLOAT, 256]
  %conv2d_284/kernel:0[FLOAT, 224x192x1x3]
  %scale19[FLOAT, 192]
  %bias19[FLOAT, 192]
  %mean19[FLOAT, 192]
  %var19[FLOAT, 192]
  %block8_3_conv/kernel:0[FLOAT, 2080x448x1x1]
  %block8_3_conv/bias:0[FLOAT, 2080]
  %conv2d_274/kernel:0[FLOAT, 192x2080x1x1]
  %conv2d_277/kernel:0[FLOAT, 256x224x3x1]
  %scale20[FLOAT, 224]
  %bias20[FLOAT, 224]
  %mean20[FLOAT, 224]
  %var20[FLOAT, 224]
  %conv2d_287/kernel:0[FLOAT, 192x2080x1x1]
  %TFNodes8/block8_2/mul/y:0[FLOAT, scalar]
  %scale21[FLOAT, 192]
  %bias21[FLOAT, 192]
  %mean21[FLOAT, 192]
  %var21[FLOAT, 192]
  %scale22[FLOAT, 256]
  %bias22[FLOAT, 256]
  %mean22[FLOAT, 256]
  %var22[FLOAT, 256]
  %conv2d_280/kernel:0[FLOAT, 224x192x1x3]
  %scale23[FLOAT, 192]
  %bias23[FLOAT, 192]
  %mean23[FLOAT, 192]
  %var23[FLOAT, 192]
  %block8_2_conv/kernel:0[FLOAT, 2080x448x1x1]
  %block8_2_conv/bias:0[FLOAT, 2080]
  %conv2d_270/kernel:0[FLOAT, 192x2080x1x1]
  %conv2d_273/kernel:0[FLOAT, 256x224x3x1]
  %scale24[FLOAT, 224]
  %bias24[FLOAT, 224]
  %mean24[FLOAT, 224]
  %var24[FLOAT, 224]
  %conv2d_283/kernel:0[FLOAT, 192x2080x1x1]
  %TFNodes9/block8_1/mul/y:0[FLOAT, scalar]
  %scale25[FLOAT, 192]
  %bias25[FLOAT, 192]
  %mean25[FLOAT, 192]
  %var25[FLOAT, 192]
  %scale26[FLOAT, 256]
  %bias26[FLOAT, 256]
  %mean26[FLOAT, 256]
  %var26[FLOAT, 256]
  %conv2d_276/kernel:0[FLOAT, 224x192x1x3]
  %scale27[FLOAT, 192]
  %bias27[FLOAT, 192]
  %mean27[FLOAT, 192]
  %var27[FLOAT, 192]
  %block8_1_conv/kernel:0[FLOAT, 2080x448x1x1]
  %block8_1_conv/bias:0[FLOAT, 2080]
  %conv2d_266/kernel:0[FLOAT, 192x2080x1x1]
  %conv2d_269/kernel:0[FLOAT, 256x224x3x1]
  %scale28[FLOAT, 224]
  %bias28[FLOAT, 224]
  %mean28[FLOAT, 224]
  %var28[FLOAT, 224]
  %conv2d_279/kernel:0[FLOAT, 192x2080x1x1]
  %scale29[FLOAT, 192]
  %bias29[FLOAT, 192]
  %mean29[FLOAT, 192]
  %var29[FLOAT, 192]
  %scale30[FLOAT, 256]
  %bias30[FLOAT, 256]
  %mean30[FLOAT, 256]
  %var30[FLOAT, 256]
  %conv2d_272/kernel:0[FLOAT, 224x192x1x3]
  %scale31[FLOAT, 192]
  %bias31[FLOAT, 192]
  %mean31[FLOAT, 192]
  %var31[FLOAT, 192]
  %scale32[FLOAT, 384]
  %bias32[FLOAT, 384]
  %mean32[FLOAT, 384]
  %var32[FLOAT, 384]
  %scale33[FLOAT, 288]
  %bias33[FLOAT, 288]
  %mean33[FLOAT, 288]
  %var33[FLOAT, 288]
  %scale34[FLOAT, 320]
  %bias34[FLOAT, 320]
  %mean34[FLOAT, 320]
  %var34[FLOAT, 320]
  %conv2d_262/kernel:0[FLOAT, 192x2080x1x1]
  %conv2d_265/kernel:0[FLOAT, 256x224x3x1]
  %scale35[FLOAT, 224]
  %bias35[FLOAT, 224]
  %mean35[FLOAT, 224]
  %var35[FLOAT, 224]
  %conv2d_275/kernel:0[FLOAT, 192x2080x1x1]
  %conv2d_252/kernel:0[FLOAT, 384x256x3x3]
  %conv2d_254/kernel:0[FLOAT, 288x256x3x3]
  %conv2d_257/kernel:0[FLOAT, 320x288x3x3]
  %TFNodes10/block17_20/mul/y:0[FLOAT, scalar]
  %scale36[FLOAT, 192]
  %bias36[FLOAT, 192]
  %mean36[FLOAT, 192]
  %var36[FLOAT, 192]
  %scale37[FLOAT, 256]
  %bias37[FLOAT, 256]
  %mean37[FLOAT, 256]
  %var37[FLOAT, 256]
  %conv2d_268/kernel:0[FLOAT, 224x192x1x3]
  %scale38[FLOAT, 192]
  %bias38[FLOAT, 192]
  %mean38[FLOAT, 192]
  %var38[FLOAT, 192]
  %block17_20_conv/kernel:0[FLOAT, 1088x384x1x1]
  %block17_20_conv/bias:0[FLOAT, 1088]
  %conv2d_258/kernel:0[FLOAT, 192x2080x1x1]
  %conv2d_261/kernel:0[FLOAT, 256x224x3x1]
  %scale39[FLOAT, 224]
  %bias39[FLOAT, 224]
  %mean39[FLOAT, 224]
  %var39[FLOAT, 224]
  %conv2d_271/kernel:0[FLOAT, 192x2080x1x1]
  %scale40[FLOAT, 256]
  %bias40[FLOAT, 256]
  %mean40[FLOAT, 256]
  %var40[FLOAT, 256]
  %scale41[FLOAT, 256]
  %bias41[FLOAT, 256]
  %mean41[FLOAT, 256]
  %var41[FLOAT, 256]
  %scale42[FLOAT, 288]
  %bias42[FLOAT, 288]
  %mean42[FLOAT, 288]
  %var42[FLOAT, 288]
  %TFNodes11/block17_19/mul/y:0[FLOAT, scalar]
  %conv2d_264/kernel:0[FLOAT, 224x192x1x3]
  %scale43[FLOAT, 192]
  %bias43[FLOAT, 192]
  %mean43[FLOAT, 192]
  %var43[FLOAT, 192]
  %conv2d_251/kernel:0[FLOAT, 256x1088x1x1]
  %conv2d_253/kernel:0[FLOAT, 256x1088x1x1]
  %conv2d_256/kernel:0[FLOAT, 288x256x3x3]
  %block17_19_conv/kernel:0[FLOAT, 1088x384x1x1]
  %block17_19_conv/bias:0[FLOAT, 1088]
  %scale44[FLOAT, 224]
  %bias44[FLOAT, 224]
  %mean44[FLOAT, 224]
  %var44[FLOAT, 224]
  %conv2d_267/kernel:0[FLOAT, 192x2080x1x1]
  %TFNodes12/block17_18/mul/y:0[FLOAT, scalar]
  %scale45[FLOAT, 192]
  %bias45[FLOAT, 192]
  %mean45[FLOAT, 192]
  %var45[FLOAT, 192]
  %scale46[FLOAT, 192]
  %bias46[FLOAT, 192]
  %mean46[FLOAT, 192]
  %var46[FLOAT, 192]
  %conv2d_260/kernel:0[FLOAT, 224x192x1x3]
  %scale47[FLOAT, 192]
  %bias47[FLOAT, 192]
  %mean47[FLOAT, 192]
  %var47[FLOAT, 192]
  %scale48[FLOAT, 256]
  %bias48[FLOAT, 256]
  %mean48[FLOAT, 256]
  %var48[FLOAT, 256]
  %block17_18_conv/kernel:0[FLOAT, 1088x384x1x1]
  %block17_18_conv/bias:0[FLOAT, 1088]
  %conv2d_247/kernel:0[FLOAT, 192x1088x1x1]
  %conv2d_250/kernel:0[FLOAT, 192x160x7x1]
  %conv2d_263/kernel:0[FLOAT, 192x2080x1x1]
  %conv2d_255/kernel:0[FLOAT, 256x1088x1x1]
  %TFNodes13/block17_17/mul/y:0[FLOAT, scalar]
  %scale49[FLOAT, 192]
  %bias49[FLOAT, 192]
  %mean49[FLOAT, 192]
  %var49[FLOAT, 192]
  %scale50[FLOAT, 192]
  %bias50[FLOAT, 192]
  %mean50[FLOAT, 192]
  %var50[FLOAT, 192]
  %scale51[FLOAT, 192]
  %bias51[FLOAT, 192]
  %mean51[FLOAT, 192]
  %var51[FLOAT, 192]
  %block17_17_conv/kernel:0[FLOAT, 1088x384x1x1]
  %block17_17_conv/bias:0[FLOAT, 1088]
  %conv2d_243/kernel:0[FLOAT, 192x1088x1x1]
  %conv2d_246/kernel:0[FLOAT, 192x160x7x1]
  %scale52[FLOAT, 160]
  %bias52[FLOAT, 160]
  %mean52[FLOAT, 160]
  %var52[FLOAT, 160]
  %conv2d_259/kernel:0[FLOAT, 192x2080x1x1]
  %TFNodes14/block17_16/mul/y:0[FLOAT, scalar]
  %scale53[FLOAT, 192]
  %bias53[FLOAT, 192]
  %mean53[FLOAT, 192]
  %var53[FLOAT, 192]
  %scale54[FLOAT, 192]
  %bias54[FLOAT, 192]
  %mean54[FLOAT, 192]
  %var54[FLOAT, 192]
  %conv2d_249/kernel:0[FLOAT, 160x128x1x7]
  %block17_16_conv/kernel:0[FLOAT, 1088x384x1x1]
  %block17_16_conv/bias:0[FLOAT, 1088]
  %conv2d_239/kernel:0[FLOAT, 192x1088x1x1]
  %conv2d_242/kernel:0[FLOAT, 192x160x7x1]
  %scale55[FLOAT, 160]
  %bias55[FLOAT, 160]
  %mean55[FLOAT, 160]
  %var55[FLOAT, 160]
  %TFNodes15/block17_15/mul/y:0[FLOAT, scalar]
  %scale56[FLOAT, 192]
  %bias56[FLOAT, 192]
  %mean56[FLOAT, 192]
  %var56[FLOAT, 192]
  %scale57[FLOAT, 192]
  %bias57[FLOAT, 192]
  %mean57[FLOAT, 192]
  %var57[FLOAT, 192]
  %conv2d_245/kernel:0[FLOAT, 160x128x1x7]
  %scale58[FLOAT, 128]
  %bias58[FLOAT, 128]
  %mean58[FLOAT, 128]
  %var58[FLOAT, 128]
  %block17_15_conv/kernel:0[FLOAT, 1088x384x1x1]
  %block17_15_conv/bias:0[FLOAT, 1088]
  %conv2d_235/kernel:0[FLOAT, 192x1088x1x1]
  %conv2d_238/kernel:0[FLOAT, 192x160x7x1]
  %scale59[FLOAT, 160]
  %bias59[FLOAT, 160]
  %mean59[FLOAT, 160]
  %var59[FLOAT, 160]
  %conv2d_248/kernel:0[FLOAT, 128x1088x1x1]
  %TFNodes16/block17_14/mul/y:0[FLOAT, scalar]
  %scale60[FLOAT, 192]
  %bias60[FLOAT, 192]
  %mean60[FLOAT, 192]
  %var60[FLOAT, 192]
  %scale61[FLOAT, 192]
  %bias61[FLOAT, 192]
  %mean61[FLOAT, 192]
  %var61[FLOAT, 192]
  %conv2d_241/kernel:0[FLOAT, 160x128x1x7]
  %scale62[FLOAT, 128]
  %bias62[FLOAT, 128]
  %mean62[FLOAT, 128]
  %var62[FLOAT, 128]
  %block17_14_conv/kernel:0[FLOAT, 1088x384x1x1]
  %block17_14_conv/bias:0[FLOAT, 1088]
  %conv2d_231/kernel:0[FLOAT, 192x1088x1x1]
  %conv2d_234/kernel:0[FLOAT, 192x160x7x1]
  %scale63[FLOAT, 160]
  %bias63[FLOAT, 160]
  %mean63[FLOAT, 160]
  %var63[FLOAT, 160]
  %conv2d_244/kernel:0[FLOAT, 128x1088x1x1]
  %TFNodes17/block17_13/mul/y:0[FLOAT, scalar]
  %scale64[FLOAT, 192]
  %bias64[FLOAT, 192]
  %mean64[FLOAT, 192]
  %var64[FLOAT, 192]
  %scale65[FLOAT, 192]
  %bias65[FLOAT, 192]
  %mean65[FLOAT, 192]
  %var65[FLOAT, 192]
  %conv2d_237/kernel:0[FLOAT, 160x128x1x7]
  %scale66[FLOAT, 128]
  %bias66[FLOAT, 128]
  %mean66[FLOAT, 128]
  %var66[FLOAT, 128]
  %block17_13_conv/kernel:0[FLOAT, 1088x384x1x1]
  %block17_13_conv/bias:0[FLOAT, 1088]
  %conv2d_227/kernel:0[FLOAT, 192x1088x1x1]
  %conv2d_230/kernel:0[FLOAT, 192x160x7x1]
  %scale67[FLOAT, 160]
  %bias67[FLOAT, 160]
  %mean67[FLOAT, 160]
  %var67[FLOAT, 160]
  %conv2d_240/kernel:0[FLOAT, 128x1088x1x1]
  %TFNodes18/block17_12/mul/y:0[FLOAT, scalar]
  %scale68[FLOAT, 192]
  %bias68[FLOAT, 192]
  %mean68[FLOAT, 192]
  %var68[FLOAT, 192]
  %scale69[FLOAT, 192]
  %bias69[FLOAT, 192]
  %mean69[FLOAT, 192]
  %var69[FLOAT, 192]
  %conv2d_233/kernel:0[FLOAT, 160x128x1x7]
  %scale70[FLOAT, 128]
  %bias70[FLOAT, 128]
  %mean70[FLOAT, 128]
  %var70[FLOAT, 128]
  %block17_12_conv/kernel:0[FLOAT, 1088x384x1x1]
  %block17_12_conv/bias:0[FLOAT, 1088]
  %conv2d_223/kernel:0[FLOAT, 192x1088x1x1]
  %conv2d_226/kernel:0[FLOAT, 192x160x7x1]
  %scale71[FLOAT, 160]
  %bias71[FLOAT, 160]
  %mean71[FLOAT, 160]
  %var71[FLOAT, 160]
  %conv2d_236/kernel:0[FLOAT, 128x1088x1x1]
  %TFNodes19/block17_11/mul/y:0[FLOAT, scalar]
  %scale72[FLOAT, 192]
  %bias72[FLOAT, 192]
  %mean72[FLOAT, 192]
  %var72[FLOAT, 192]
  %scale73[FLOAT, 192]
  %bias73[FLOAT, 192]
  %mean73[FLOAT, 192]
  %var73[FLOAT, 192]
  %conv2d_229/kernel:0[FLOAT, 160x128x1x7]
  %scale74[FLOAT, 128]
  %bias74[FLOAT, 128]
  %mean74[FLOAT, 128]
  %var74[FLOAT, 128]
  %block17_11_conv/kernel:0[FLOAT, 1088x384x1x1]
  %block17_11_conv/bias:0[FLOAT, 1088]
  %conv2d_219/kernel:0[FLOAT, 192x1088x1x1]
  %conv2d_222/kernel:0[FLOAT, 192x160x7x1]
  %scale75[FLOAT, 160]
  %bias75[FLOAT, 160]
  %mean75[FLOAT, 160]
  %var75[FLOAT, 160]
  %conv2d_232/kernel:0[FLOAT, 128x1088x1x1]
  %TFNodes20/block17_10/mul/y:0[FLOAT, scalar]
  %scale76[FLOAT, 192]
  %bias76[FLOAT, 192]
  %mean76[FLOAT, 192]
  %var76[FLOAT, 192]
  %scale77[FLOAT, 192]
  %bias77[FLOAT, 192]
  %mean77[FLOAT, 192]
  %var77[FLOAT, 192]
  %conv2d_225/kernel:0[FLOAT, 160x128x1x7]
  %scale78[FLOAT, 128]
  %bias78[FLOAT, 128]
  %mean78[FLOAT, 128]
  %var78[FLOAT, 128]
  %block17_10_conv/kernel:0[FLOAT, 1088x384x1x1]
  %block17_10_conv/bias:0[FLOAT, 1088]
  %conv2d_215/kernel:0[FLOAT, 192x1088x1x1]
  %conv2d_218/kernel:0[FLOAT, 192x160x7x1]
  %scale79[FLOAT, 160]
  %bias79[FLOAT, 160]
  %mean79[FLOAT, 160]
  %var79[FLOAT, 160]
  %conv2d_228/kernel:0[FLOAT, 128x1088x1x1]
  %TFNodes21/block17_9/mul/y:0[FLOAT, scalar]
  %scale80[FLOAT, 192]
  %bias80[FLOAT, 192]
  %mean80[FLOAT, 192]
  %var80[FLOAT, 192]
  %scale81[FLOAT, 192]
  %bias81[FLOAT, 192]
  %mean81[FLOAT, 192]
  %var81[FLOAT, 192]
  %conv2d_221/kernel:0[FLOAT, 160x128x1x7]
  %scale82[FLOAT, 128]
  %bias82[FLOAT, 128]
  %mean82[FLOAT, 128]
  %var82[FLOAT, 128]
  %block17_9_conv/kernel:0[FLOAT, 1088x384x1x1]
  %block17_9_conv/bias:0[FLOAT, 1088]
  %conv2d_211/kernel:0[FLOAT, 192x1088x1x1]
  %conv2d_214/kernel:0[FLOAT, 192x160x7x1]
  %scale83[FLOAT, 160]
  %bias83[FLOAT, 160]
  %mean83[FLOAT, 160]
  %var83[FLOAT, 160]
  %conv2d_224/kernel:0[FLOAT, 128x1088x1x1]
  %TFNodes22/block17_8/mul/y:0[FLOAT, scalar]
  %scale84[FLOAT, 192]
  %bias84[FLOAT, 192]
  %mean84[FLOAT, 192]
  %var84[FLOAT, 192]
  %scale85[FLOAT, 192]
  %bias85[FLOAT, 192]
  %mean85[FLOAT, 192]
  %var85[FLOAT, 192]
  %conv2d_217/kernel:0[FLOAT, 160x128x1x7]
  %scale86[FLOAT, 128]
  %bias86[FLOAT, 128]
  %mean86[FLOAT, 128]
  %var86[FLOAT, 128]
  %block17_8_conv/kernel:0[FLOAT, 1088x384x1x1]
  %block17_8_conv/bias:0[FLOAT, 1088]
  %conv2d_207/kernel:0[FLOAT, 192x1088x1x1]
  %conv2d_210/kernel:0[FLOAT, 192x160x7x1]
  %scale87[FLOAT, 160]
  %bias87[FLOAT, 160]
  %mean87[FLOAT, 160]
  %var87[FLOAT, 160]
  %conv2d_220/kernel:0[FLOAT, 128x1088x1x1]
  %TFNodes23/block17_7/mul/y:0[FLOAT, scalar]
  %scale88[FLOAT, 192]
  %bias88[FLOAT, 192]
  %mean88[FLOAT, 192]
  %var88[FLOAT, 192]
  %scale89[FLOAT, 192]
  %bias89[FLOAT, 192]
  %mean89[FLOAT, 192]
  %var89[FLOAT, 192]
  %conv2d_213/kernel:0[FLOAT, 160x128x1x7]
  %scale90[FLOAT, 128]
  %bias90[FLOAT, 128]
  %mean90[FLOAT, 128]
  %var90[FLOAT, 128]
  %block17_7_conv/kernel:0[FLOAT, 1088x384x1x1]
  %block17_7_conv/bias:0[FLOAT, 1088]
  %conv2d_203/kernel:0[FLOAT, 192x1088x1x1]
  %conv2d_206/kernel:0[FLOAT, 192x160x7x1]
  %scale91[FLOAT, 160]
  %bias91[FLOAT, 160]
  %mean91[FLOAT, 160]
  %var91[FLOAT, 160]
  %conv2d_216/kernel:0[FLOAT, 128x1088x1x1]
  %TFNodes24/block17_6/mul/y:0[FLOAT, scalar]
  %scale92[FLOAT, 192]
  %bias92[FLOAT, 192]
  %mean92[FLOAT, 192]
  %var92[FLOAT, 192]
  %scale93[FLOAT, 192]
  %bias93[FLOAT, 192]
  %mean93[FLOAT, 192]
  %var93[FLOAT, 192]
  %conv2d_209/kernel:0[FLOAT, 160x128x1x7]
  %scale94[FLOAT, 128]
  %bias94[FLOAT, 128]
  %mean94[FLOAT, 128]
  %var94[FLOAT, 128]
  %block17_6_conv/kernel:0[FLOAT, 1088x384x1x1]
  %block17_6_conv/bias:0[FLOAT, 1088]
  %conv2d_199/kernel:0[FLOAT, 192x1088x1x1]
  %conv2d_202/kernel:0[FLOAT, 192x160x7x1]
  %scale95[FLOAT, 160]
  %bias95[FLOAT, 160]
  %mean95[FLOAT, 160]
  %var95[FLOAT, 160]
  %conv2d_212/kernel:0[FLOAT, 128x1088x1x1]
  %TFNodes25/block17_5/mul/y:0[FLOAT, scalar]
  %scale96[FLOAT, 192]
  %bias96[FLOAT, 192]
  %mean96[FLOAT, 192]
  %var96[FLOAT, 192]
  %scale97[FLOAT, 192]
  %bias97[FLOAT, 192]
  %mean97[FLOAT, 192]
  %var97[FLOAT, 192]
  %conv2d_205/kernel:0[FLOAT, 160x128x1x7]
  %scale98[FLOAT, 128]
  %bias98[FLOAT, 128]
  %mean98[FLOAT, 128]
  %var98[FLOAT, 128]
  %block17_5_conv/kernel:0[FLOAT, 1088x384x1x1]
  %block17_5_conv/bias:0[FLOAT, 1088]
  %conv2d_195/kernel:0[FLOAT, 192x1088x1x1]
  %conv2d_198/kernel:0[FLOAT, 192x160x7x1]
  %scale99[FLOAT, 160]
  %bias99[FLOAT, 160]
  %mean99[FLOAT, 160]
  %var99[FLOAT, 160]
  %conv2d_208/kernel:0[FLOAT, 128x1088x1x1]
  %TFNodes26/block17_4/mul/y:0[FLOAT, scalar]
  %scale100[FLOAT, 192]
  %bias100[FLOAT, 192]
  %mean100[FLOAT, 192]
  %var100[FLOAT, 192]
  %scale101[FLOAT, 192]
  %bias101[FLOAT, 192]
  %mean101[FLOAT, 192]
  %var101[FLOAT, 192]
  %conv2d_201/kernel:0[FLOAT, 160x128x1x7]
  %scale102[FLOAT, 128]
  %bias102[FLOAT, 128]
  %mean102[FLOAT, 128]
  %var102[FLOAT, 128]
  %block17_4_conv/kernel:0[FLOAT, 1088x384x1x1]
  %block17_4_conv/bias:0[FLOAT, 1088]
  %conv2d_191/kernel:0[FLOAT, 192x1088x1x1]
  %conv2d_194/kernel:0[FLOAT, 192x160x7x1]
  %scale103[FLOAT, 160]
  %bias103[FLOAT, 160]
  %mean103[FLOAT, 160]
  %var103[FLOAT, 160]
  %conv2d_204/kernel:0[FLOAT, 128x1088x1x1]
  %TFNodes27/block17_3/mul/y:0[FLOAT, scalar]
  %scale104[FLOAT, 192]
  %bias104[FLOAT, 192]
  %mean104[FLOAT, 192]
  %var104[FLOAT, 192]
  %scale105[FLOAT, 192]
  %bias105[FLOAT, 192]
  %mean105[FLOAT, 192]
  %var105[FLOAT, 192]
  %conv2d_197/kernel:0[FLOAT, 160x128x1x7]
  %scale106[FLOAT, 128]
  %bias106[FLOAT, 128]
  %mean106[FLOAT, 128]
  %var106[FLOAT, 128]
  %block17_3_conv/kernel:0[FLOAT, 1088x384x1x1]
  %block17_3_conv/bias:0[FLOAT, 1088]
  %conv2d_187/kernel:0[FLOAT, 192x1088x1x1]
  %conv2d_190/kernel:0[FLOAT, 192x160x7x1]
  %scale107[FLOAT, 160]
  %bias107[FLOAT, 160]
  %mean107[FLOAT, 160]
  %var107[FLOAT, 160]
  %conv2d_200/kernel:0[FLOAT, 128x1088x1x1]
  %TFNodes28/block17_2/mul/y:0[FLOAT, scalar]
  %scale108[FLOAT, 192]
  %bias108[FLOAT, 192]
  %mean108[FLOAT, 192]
  %var108[FLOAT, 192]
  %scale109[FLOAT, 192]
  %bias109[FLOAT, 192]
  %mean109[FLOAT, 192]
  %var109[FLOAT, 192]
  %conv2d_193/kernel:0[FLOAT, 160x128x1x7]
  %scale110[FLOAT, 128]
  %bias110[FLOAT, 128]
  %mean110[FLOAT, 128]
  %var110[FLOAT, 128]
  %block17_2_conv/kernel:0[FLOAT, 1088x384x1x1]
  %block17_2_conv/bias:0[FLOAT, 1088]
  %conv2d_183/kernel:0[FLOAT, 192x1088x1x1]
  %conv2d_186/kernel:0[FLOAT, 192x160x7x1]
  %scale111[FLOAT, 160]
  %bias111[FLOAT, 160]
  %mean111[FLOAT, 160]
  %var111[FLOAT, 160]
  %conv2d_196/kernel:0[FLOAT, 128x1088x1x1]
  %TFNodes29/block17_1/mul/y:0[FLOAT, scalar]
  %scale112[FLOAT, 192]
  %bias112[FLOAT, 192]
  %mean112[FLOAT, 192]
  %var112[FLOAT, 192]
  %scale113[FLOAT, 192]
  %bias113[FLOAT, 192]
  %mean113[FLOAT, 192]
  %var113[FLOAT, 192]
  %conv2d_189/kernel:0[FLOAT, 160x128x1x7]
  %scale114[FLOAT, 128]
  %bias114[FLOAT, 128]
  %mean114[FLOAT, 128]
  %var114[FLOAT, 128]
  %block17_1_conv/kernel:0[FLOAT, 1088x384x1x1]
  %block17_1_conv/bias:0[FLOAT, 1088]
  %conv2d_179/kernel:0[FLOAT, 192x1088x1x1]
  %conv2d_182/kernel:0[FLOAT, 192x160x7x1]
  %scale115[FLOAT, 160]
  %bias115[FLOAT, 160]
  %mean115[FLOAT, 160]
  %var115[FLOAT, 160]
  %conv2d_192/kernel:0[FLOAT, 128x1088x1x1]
  %scale116[FLOAT, 192]
  %bias116[FLOAT, 192]
  %mean116[FLOAT, 192]
  %var116[FLOAT, 192]
  %scale117[FLOAT, 192]
  %bias117[FLOAT, 192]
  %mean117[FLOAT, 192]
  %var117[FLOAT, 192]
  %conv2d_185/kernel:0[FLOAT, 160x128x1x7]
  %scale118[FLOAT, 128]
  %bias118[FLOAT, 128]
  %mean118[FLOAT, 128]
  %var118[FLOAT, 128]
  %scale119[FLOAT, 384]
  %bias119[FLOAT, 384]
  %mean119[FLOAT, 384]
  %var119[FLOAT, 384]
  %scale120[FLOAT, 384]
  %bias120[FLOAT, 384]
  %mean120[FLOAT, 384]
  %var120[FLOAT, 384]
  %conv2d_175/kernel:0[FLOAT, 192x1088x1x1]
  %conv2d_178/kernel:0[FLOAT, 192x160x7x1]
  %scale121[FLOAT, 160]
  %bias121[FLOAT, 160]
  %mean121[FLOAT, 160]
  %var121[FLOAT, 160]
  %conv2d_188/kernel:0[FLOAT, 128x1088x1x1]
  %conv2d_167/kernel:0[FLOAT, 384x320x3x3]
  %conv2d_170/kernel:0[FLOAT, 384x256x3x3]
  %TFNodes30/block35_10/mul/y:0[FLOAT, scalar]
  %scale122[FLOAT, 192]
  %bias122[FLOAT, 192]
  %mean122[FLOAT, 192]
  %var122[FLOAT, 192]
  %scale123[FLOAT, 192]
  %bias123[FLOAT, 192]
  %mean123[FLOAT, 192]
  %var123[FLOAT, 192]
  %conv2d_181/kernel:0[FLOAT, 160x128x1x7]
  %scale124[FLOAT, 128]
  %bias124[FLOAT, 128]
  %mean124[FLOAT, 128]
  %var124[FLOAT, 128]
  %block35_10_conv/kernel:0[FLOAT, 320x128x1x1]
  %block35_10_conv/bias:0[FLOAT, 320]
  %conv2d_171/kernel:0[FLOAT, 192x1088x1x1]
  %conv2d_174/kernel:0[FLOAT, 192x160x7x1]
  %scale125[FLOAT, 160]
  %bias125[FLOAT, 160]
  %mean125[FLOAT, 160]
  %var125[FLOAT, 160]
  %conv2d_184/kernel:0[FLOAT, 128x1088x1x1]
  %scale126[FLOAT, 256]
  %bias126[FLOAT, 256]
  %mean126[FLOAT, 256]
  %var126[FLOAT, 256]
  %TFNodes31/block35_9/mul/y:0[FLOAT, scalar]
  %conv2d_177/kernel:0[FLOAT, 160x128x1x7]
  %scale127[FLOAT, 128]
  %bias127[FLOAT, 128]
  %mean127[FLOAT, 128]
  %var127[FLOAT, 128]
  %conv2d_169/kernel:0[FLOAT, 256x256x3x3]
  %block35_9_conv/kernel:0[FLOAT, 320x128x1x1]
  %block35_9_conv/bias:0[FLOAT, 320]
  %scale128[FLOAT, 160]
  %bias128[FLOAT, 160]
  %mean128[FLOAT, 160]
  %var128[FLOAT, 160]
  %conv2d_180/kernel:0[FLOAT, 128x1088x1x1]
  %TFNodes32/block35_8/mul/y:0[FLOAT, scalar]
  %scale129[FLOAT, 32]
  %bias129[FLOAT, 32]
  %mean129[FLOAT, 32]
  %var129[FLOAT, 32]
  %scale130[FLOAT, 32]
  %bias130[FLOAT, 32]
  %mean130[FLOAT, 32]
  %var130[FLOAT, 32]
  %scale131[FLOAT, 64]
  %bias131[FLOAT, 64]
  %mean131[FLOAT, 64]
  %var131[FLOAT, 64]
  %conv2d_173/kernel:0[FLOAT, 160x128x1x7]
  %scale132[FLOAT, 128]
  %bias132[FLOAT, 128]
  %mean132[FLOAT, 128]
  %var132[FLOAT, 128]
  %scale133[FLOAT, 256]
  %bias133[FLOAT, 256]
  %mean133[FLOAT, 256]
  %var133[FLOAT, 256]
  %block35_8_conv/kernel:0[FLOAT, 320x128x1x1]
  %block35_8_conv/bias:0[FLOAT, 320]
  %conv2d_161/kernel:0[FLOAT, 32x320x1x1]
  %conv2d_163/kernel:0[FLOAT, 32x32x3x3]
  %conv2d_166/kernel:0[FLOAT, 64x48x3x3]
  %conv2d_176/kernel:0[FLOAT, 128x1088x1x1]
  %conv2d_168/kernel:0[FLOAT, 256x320x1x1]
  %TFNodes33/block35_7/mul/y:0[FLOAT, scalar]
  %scale134[FLOAT, 32]
  %bias134[FLOAT, 32]
  %mean134[FLOAT, 32]
  %var134[FLOAT, 32]
  %scale135[FLOAT, 32]
  %bias135[FLOAT, 32]
  %mean135[FLOAT, 32]
  %var135[FLOAT, 32]
  %scale136[FLOAT, 64]
  %bias136[FLOAT, 64]
  %mean136[FLOAT, 64]
  %var136[FLOAT, 64]
  %scale137[FLOAT, 128]
  %bias137[FLOAT, 128]
  %mean137[FLOAT, 128]
  %var137[FLOAT, 128]
  %block35_7_conv/kernel:0[FLOAT, 320x128x1x1]
  %block35_7_conv/bias:0[FLOAT, 320]
  %conv2d_155/kernel:0[FLOAT, 32x320x1x1]
  %conv2d_157/kernel:0[FLOAT, 32x32x3x3]
  %conv2d_160/kernel:0[FLOAT, 64x48x3x3]
  %scale138[FLOAT, 32]
  %bias138[FLOAT, 32]
  %mean138[FLOAT, 32]
  %var138[FLOAT, 32]
  %scale139[FLOAT, 48]
  %bias139[FLOAT, 48]
  %mean139[FLOAT, 48]
  %var139[FLOAT, 48]
  %conv2d_172/kernel:0[FLOAT, 128x1088x1x1]
  %TFNodes34/block35_6/mul/y:0[FLOAT, scalar]
  %scale140[FLOAT, 32]
  %bias140[FLOAT, 32]
  %mean140[FLOAT, 32]
  %var140[FLOAT, 32]
  %scale141[FLOAT, 32]
  %bias141[FLOAT, 32]
  %mean141[FLOAT, 32]
  %var141[FLOAT, 32]
  %scale142[FLOAT, 64]
  %bias142[FLOAT, 64]
  %mean142[FLOAT, 64]
  %var142[FLOAT, 64]
  %conv2d_162/kernel:0[FLOAT, 32x320x1x1]
  %conv2d_165/kernel:0[FLOAT, 48x32x3x3]
  %block35_6_conv/kernel:0[FLOAT, 320x128x1x1]
  %block35_6_conv/bias:0[FLOAT, 320]
  %conv2d_149/kernel:0[FLOAT, 32x320x1x1]
  %conv2d_151/kernel:0[FLOAT, 32x32x3x3]
  %conv2d_154/kernel:0[FLOAT, 64x48x3x3]
  %scale143[FLOAT, 32]
  %bias143[FLOAT, 32]
  %mean143[FLOAT, 32]
  %var143[FLOAT, 32]
  %scale144[FLOAT, 48]
  %bias144[FLOAT, 48]
  %mean144[FLOAT, 48]
  %var144[FLOAT, 48]
  %TFNodes35/block35_5/mul/y:0[FLOAT, scalar]
  %scale145[FLOAT, 32]
  %bias145[FLOAT, 32]
  %mean145[FLOAT, 32]
  %var145[FLOAT, 32]
  %scale146[FLOAT, 32]
  %bias146[FLOAT, 32]
  %mean146[FLOAT, 32]
  %var146[FLOAT, 32]
  %scale147[FLOAT, 64]
  %bias147[FLOAT, 64]
  %mean147[FLOAT, 64]
  %var147[FLOAT, 64]
  %conv2d_156/kernel:0[FLOAT, 32x320x1x1]
  %conv2d_159/kernel:0[FLOAT, 48x32x3x3]
  %scale148[FLOAT, 32]
  %bias148[FLOAT, 32]
  %mean148[FLOAT, 32]
  %var148[FLOAT, 32]
  %block35_5_conv/kernel:0[FLOAT, 320x128x1x1]
  %block35_5_conv/bias:0[FLOAT, 320]
  %conv2d_143/kernel:0[FLOAT, 32x320x1x1]
  %conv2d_145/kernel:0[FLOAT, 32x32x3x3]
  %conv2d_148/kernel:0[FLOAT, 64x48x3x3]
  %scale149[FLOAT, 32]
  %bias149[FLOAT, 32]
  %mean149[FLOAT, 32]
  %var149[FLOAT, 32]
  %scale150[FLOAT, 48]
  %bias150[FLOAT, 48]
  %mean150[FLOAT, 48]
  %var150[FLOAT, 48]
  %conv2d_164/kernel:0[FLOAT, 32x320x1x1]
  %TFNodes36/block35_4/mul/y:0[FLOAT, scalar]
  %scale151[FLOAT, 32]
  %bias151[FLOAT, 32]
  %mean151[FLOAT, 32]
  %var151[FLOAT, 32]
  %scale152[FLOAT, 32]
  %bias152[FLOAT, 32]
  %mean152[FLOAT, 32]
  %var152[FLOAT, 32]
  %scale153[FLOAT, 64]
  %bias153[FLOAT, 64]
  %mean153[FLOAT, 64]
  %var153[FLOAT, 64]
  %conv2d_150/kernel:0[FLOAT, 32x320x1x1]
  %conv2d_153/kernel:0[FLOAT, 48x32x3x3]
  %scale154[FLOAT, 32]
  %bias154[FLOAT, 32]
  %mean154[FLOAT, 32]
  %var154[FLOAT, 32]
  %block35_4_conv/kernel:0[FLOAT, 320x128x1x1]
  %block35_4_conv/bias:0[FLOAT, 320]
  %conv2d_137/kernel:0[FLOAT, 32x320x1x1]
  %conv2d_139/kernel:0[FLOAT, 32x32x3x3]
  %conv2d_142/kernel:0[FLOAT, 64x48x3x3]
  %scale155[FLOAT, 32]
  %bias155[FLOAT, 32]
  %mean155[FLOAT, 32]
  %var155[FLOAT, 32]
  %scale156[FLOAT, 48]
  %bias156[FLOAT, 48]
  %mean156[FLOAT, 48]
  %var156[FLOAT, 48]
  %conv2d_158/kernel:0[FLOAT, 32x320x1x1]
  %TFNodes37/block35_3/mul/y:0[FLOAT, scalar]
  %scale157[FLOAT, 32]
  %bias157[FLOAT, 32]
  %mean157[FLOAT, 32]
  %var157[FLOAT, 32]
  %scale158[FLOAT, 32]
  %bias158[FLOAT, 32]
  %mean158[FLOAT, 32]
  %var158[FLOAT, 32]
  %scale159[FLOAT, 64]
  %bias159[FLOAT, 64]
  %mean159[FLOAT, 64]
  %var159[FLOAT, 64]
  %conv2d_144/kernel:0[FLOAT, 32x320x1x1]
  %conv2d_147/kernel:0[FLOAT, 48x32x3x3]
  %scale160[FLOAT, 32]
  %bias160[FLOAT, 32]
  %mean160[FLOAT, 32]
  %var160[FLOAT, 32]
  %block35_3_conv/kernel:0[FLOAT, 320x128x1x1]
  %block35_3_conv/bias:0[FLOAT, 320]
  %conv2d_131/kernel:0[FLOAT, 32x320x1x1]
  %conv2d_133/kernel:0[FLOAT, 32x32x3x3]
  %conv2d_136/kernel:0[FLOAT, 64x48x3x3]
  %scale161[FLOAT, 32]
  %bias161[FLOAT, 32]
  %mean161[FLOAT, 32]
  %var161[FLOAT, 32]
  %scale162[FLOAT, 48]
  %bias162[FLOAT, 48]
  %mean162[FLOAT, 48]
  %var162[FLOAT, 48]
  %conv2d_152/kernel:0[FLOAT, 32x320x1x1]
  %TFNodes38/block35_2/mul/y:0[FLOAT, scalar]
  %scale163[FLOAT, 32]
  %bias163[FLOAT, 32]
  %mean163[FLOAT, 32]
  %var163[FLOAT, 32]
  %scale164[FLOAT, 32]
  %bias164[FLOAT, 32]
  %mean164[FLOAT, 32]
  %var164[FLOAT, 32]
  %scale165[FLOAT, 64]
  %bias165[FLOAT, 64]
  %mean165[FLOAT, 64]
  %var165[FLOAT, 64]
  %conv2d_138/kernel:0[FLOAT, 32x320x1x1]
  %conv2d_141/kernel:0[FLOAT, 48x32x3x3]
  %scale166[FLOAT, 32]
  %bias166[FLOAT, 32]
  %mean166[FLOAT, 32]
  %var166[FLOAT, 32]
  %block35_2_conv/kernel:0[FLOAT, 320x128x1x1]
  %block35_2_conv/bias:0[FLOAT, 320]
  %conv2d_125/kernel:0[FLOAT, 32x320x1x1]
  %conv2d_127/kernel:0[FLOAT, 32x32x3x3]
  %conv2d_130/kernel:0[FLOAT, 64x48x3x3]
  %scale167[FLOAT, 32]
  %bias167[FLOAT, 32]
  %mean167[FLOAT, 32]
  %var167[FLOAT, 32]
  %scale168[FLOAT, 48]
  %bias168[FLOAT, 48]
  %mean168[FLOAT, 48]
  %var168[FLOAT, 48]
  %conv2d_146/kernel:0[FLOAT, 32x320x1x1]
  %TFNodes39/block35_1/mul/y:0[FLOAT, scalar]
  %scale169[FLOAT, 32]
  %bias169[FLOAT, 32]
  %mean169[FLOAT, 32]
  %var169[FLOAT, 32]
  %scale170[FLOAT, 32]
  %bias170[FLOAT, 32]
  %mean170[FLOAT, 32]
  %var170[FLOAT, 32]
  %scale171[FLOAT, 64]
  %bias171[FLOAT, 64]
  %mean171[FLOAT, 64]
  %var171[FLOAT, 64]
  %conv2d_132/kernel:0[FLOAT, 32x320x1x1]
  %conv2d_135/kernel:0[FLOAT, 48x32x3x3]
  %scale172[FLOAT, 32]
  %bias172[FLOAT, 32]
  %mean172[FLOAT, 32]
  %var172[FLOAT, 32]
  %block35_1_conv/kernel:0[FLOAT, 320x128x1x1]
  %block35_1_conv/bias:0[FLOAT, 320]
  %conv2d_119/kernel:0[FLOAT, 32x320x1x1]
  %conv2d_121/kernel:0[FLOAT, 32x32x3x3]
  %conv2d_124/kernel:0[FLOAT, 64x48x3x3]
  %scale173[FLOAT, 32]
  %bias173[FLOAT, 32]
  %mean173[FLOAT, 32]
  %var173[FLOAT, 32]
  %scale174[FLOAT, 48]
  %bias174[FLOAT, 48]
  %mean174[FLOAT, 48]
  %var174[FLOAT, 48]
  %conv2d_140/kernel:0[FLOAT, 32x320x1x1]
  %scale175[FLOAT, 32]
  %bias175[FLOAT, 32]
  %mean175[FLOAT, 32]
  %var175[FLOAT, 32]
  %scale176[FLOAT, 32]
  %bias176[FLOAT, 32]
  %mean176[FLOAT, 32]
  %var176[FLOAT, 32]
  %scale177[FLOAT, 64]
  %bias177[FLOAT, 64]
  %mean177[FLOAT, 64]
  %var177[FLOAT, 64]
  %conv2d_126/kernel:0[FLOAT, 32x320x1x1]
  %conv2d_129/kernel:0[FLOAT, 48x32x3x3]
  %scale178[FLOAT, 32]
  %bias178[FLOAT, 32]
  %mean178[FLOAT, 32]
  %var178[FLOAT, 32]
  %scale179[FLOAT, 96]
  %bias179[FLOAT, 96]
  %mean179[FLOAT, 96]
  %var179[FLOAT, 96]
  %scale180[FLOAT, 64]
  %bias180[FLOAT, 64]
  %mean180[FLOAT, 64]
  %var180[FLOAT, 64]
  %scale181[FLOAT, 96]
  %bias181[FLOAT, 96]
  %mean181[FLOAT, 96]
  %var181[FLOAT, 96]
  %scale182[FLOAT, 64]
  %bias182[FLOAT, 64]
  %mean182[FLOAT, 64]
  %var182[FLOAT, 64]
  %conv2d_113/kernel:0[FLOAT, 32x320x1x1]
  %conv2d_115/kernel:0[FLOAT, 32x32x3x3]
  %conv2d_118/kernel:0[FLOAT, 64x48x3x3]
  %scale183[FLOAT, 32]
  %bias183[FLOAT, 32]
  %mean183[FLOAT, 32]
  %var183[FLOAT, 32]
  %scale184[FLOAT, 48]
  %bias184[FLOAT, 48]
  %mean184[FLOAT, 48]
  %var184[FLOAT, 48]
  %conv2d_134/kernel:0[FLOAT, 32x320x1x1]
  %conv2d_100/kernel:0[FLOAT, 96x192x1x1]
  %conv2d_102/kernel:0[FLOAT, 64x48x5x5]
  %conv2d_105/kernel:0[FLOAT, 96x96x3x3]
  %conv2d_106/kernel:0[FLOAT, 64x192x1x1]
  %scale185[FLOAT, 32]
  %bias185[FLOAT, 32]
  %mean185[FLOAT, 32]
  %var185[FLOAT, 32]
  %scale186[FLOAT, 32]
  %bias186[FLOAT, 32]
  %mean186[FLOAT, 32]
  %var186[FLOAT, 32]
  %scale187[FLOAT, 64]
  %bias187[FLOAT, 64]
  %mean187[FLOAT, 64]
  %var187[FLOAT, 64]
  %conv2d_120/kernel:0[FLOAT, 32x320x1x1]
  %conv2d_123/kernel:0[FLOAT, 48x32x3x3]
  %scale188[FLOAT, 32]
  %bias188[FLOAT, 32]
  %mean188[FLOAT, 32]
  %var188[FLOAT, 32]
  %conv2d_107/kernel:0[FLOAT, 32x320x1x1]
  %conv2d_109/kernel:0[FLOAT, 32x32x3x3]
  %conv2d_112/kernel:0[FLOAT, 64x48x3x3]
  %scale189[FLOAT, 32]
  %bias189[FLOAT, 32]
  %mean189[FLOAT, 32]
  %var189[FLOAT, 32]
  %scale190[FLOAT, 48]
  %bias190[FLOAT, 48]
  %mean190[FLOAT, 48]
  %var190[FLOAT, 48]
  %conv2d_128/kernel:0[FLOAT, 32x320x1x1]
  %scale191[FLOAT, 48]
  %bias191[FLOAT, 48]
  %mean191[FLOAT, 48]
  %var191[FLOAT, 48]
  %scale192[FLOAT, 96]
  %bias192[FLOAT, 96]
  %mean192[FLOAT, 96]
  %var192[FLOAT, 96]
  %conv2d_114/kernel:0[FLOAT, 32x320x1x1]
  %conv2d_117/kernel:0[FLOAT, 48x32x3x3]
  %scale193[FLOAT, 32]
  %bias193[FLOAT, 32]
  %mean193[FLOAT, 32]
  %var193[FLOAT, 32]
  %scale194[FLOAT, 192]
  %bias194[FLOAT, 192]
  %mean194[FLOAT, 192]
  %var194[FLOAT, 192]
  %conv2d_101/kernel:0[FLOAT, 48x192x1x1]
  %conv2d_104/kernel:0[FLOAT, 96x64x3x3]
  %scale195[FLOAT, 32]
  %bias195[FLOAT, 32]
  %mean195[FLOAT, 32]
  %var195[FLOAT, 32]
  %scale196[FLOAT, 48]
  %bias196[FLOAT, 48]
  %mean196[FLOAT, 48]
  %var196[FLOAT, 48]
  %conv2d_122/kernel:0[FLOAT, 32x320x1x1]
  %conv2d_99/kernel:0[FLOAT, 192x80x3x3]
  %conv2d_108/kernel:0[FLOAT, 32x320x1x1]
  %conv2d_111/kernel:0[FLOAT, 48x32x3x3]
  %scale197[FLOAT, 32]
  %bias197[FLOAT, 32]
  %mean197[FLOAT, 32]
  %var197[FLOAT, 32]
  %scale198[FLOAT, 64]
  %bias198[FLOAT, 64]
  %mean198[FLOAT, 64]
  %var198[FLOAT, 64]
  %conv2d_116/kernel:0[FLOAT, 32x320x1x1]
  %scale199[FLOAT, 80]
  %bias199[FLOAT, 80]
  %mean199[FLOAT, 80]
  %var199[FLOAT, 80]
  %conv2d_103/kernel:0[FLOAT, 64x192x1x1]
  %scale200[FLOAT, 32]
  %bias200[FLOAT, 32]
  %mean200[FLOAT, 32]
  %var200[FLOAT, 32]
  %conv2d_98/kernel:0[FLOAT, 80x64x1x1]
  %conv2d_110/kernel:0[FLOAT, 32x320x1x1]
  %scale201[FLOAT, 64]
  %bias201[FLOAT, 64]
  %mean201[FLOAT, 64]
  %var201[FLOAT, 64]
  %conv2d_97/kernel:0[FLOAT, 64x32x3x3]
  %scale202[FLOAT, 32]
  %bias202[FLOAT, 32]
  %mean202[FLOAT, 32]
  %var202[FLOAT, 32]
  %conv2d_96/kernel:0[FLOAT, 32x32x3x3]
  %scale203[FLOAT, 32]
  %bias203[FLOAT, 32]
  %mean203[FLOAT, 32]
  %var203[FLOAT, 32]
  %conv2d_95/kernel:0[FLOAT, 32x3x3x3]
) {
  %adjusted_input243 = Transpose[perm = [0, 3, 1, 2]](%input_2)
  %convolution_output243 = Conv[auto_pad = 'VALID', dilations = [1, 1], group = 1, kernel_shape = [3, 3], strides = [2, 2]](%adjusted_input243, %conv2d_95/kernel:0)
  %batch_norm_output_buffer203 = BatchNormalization[epsilon = 9.99999997475243e-07, momentum = 0.990000009536743](%convolution_output243, %scale203, %bias203, %mean203, %var203)
  %activation_95/Relu:0 = Relu(%batch_norm_output_buffer203)
  %convolution_output242 = Conv[auto_pad = 'VALID', dilations = [1, 1], group = 1, kernel_shape = [3, 3], strides = [1, 1]](%activation_95/Relu:0, %conv2d_96/kernel:0)
  %batch_norm_output_buffer202 = BatchNormalization[epsilon = 9.99999997475243e-07, momentum = 0.990000009536743](%convolution_output242, %scale202, %bias202, %mean202, %var202)
  %activation_96/Relu:0 = Relu(%batch_norm_output_buffer202)
  %convolution_output241 = Conv[auto_pad = 'NOTSET', dilations = [1, 1], group = 1, kernel_shape = [3, 3], pads = [1, 1, 1, 1], strides = [1, 1]](%activation_96/Relu:0, %conv2d_97/kernel:0)
  %batch_norm_output_buffer201 = BatchNormalization[epsilon = 9.99999997475243e-07, momentum = 0.990000009536743](%convolution_output241, %scale201, %bias201, %mean201, %var201)
  %activation_97/Relu:0 = Relu(%batch_norm_output_buffer201)
  %activation_97/Relu:0_pooling0 = MaxPool[auto_pad = 'VALID', ceil_mode = 0, kernel_shape = [3, 3], strides = [2, 2]](%activation_97/Relu:0)
  %convolution_output239 = Conv[auto_pad = 'VALID', dilations = [1, 1], group = 1, kernel_shape = [1, 1], strides = [1, 1]](%activation_97/Relu:0_pooling0, %conv2d_98/kernel:0)
  %batch_norm_output_buffer199 = BatchNormalization[epsilon = 9.99999997475243e-07, momentum = 0.990000009536743](%convolution_output239, %scale199, %bias199, %mean199, %var199)
  %activation_98/Relu:0 = Relu(%batch_norm_output_buffer199)
  %convolution_output234 = Conv[auto_pad = 'VALID', dilations = [1, 1], group = 1, kernel_shape = [3, 3], strides = [1, 1]](%activation_98/Relu:0, %conv2d_99/kernel:0)
  %batch_norm_output_buffer194 = BatchNormalization[epsilon = 9.99999997475243e-07, momentum = 0.990000009536743](%convolution_output234, %scale194, %bias194, %mean194, %var194)
  %activation_99/Relu:0 = Relu(%batch_norm_output_buffer194)
  %activation_99/Relu:0_pooling0 = MaxPool[auto_pad = 'VALID', ceil_mode = 0, kernel_shape = [3, 3], strides = [2, 2]](%activation_99/Relu:0)
  %max_pooling2d_6/MaxPool:0 = Identity(%activation_99/Relu:0_pooling0)
  %convolution_output238 = Conv[auto_pad = 'NOTSET', dilations = [1, 1], group = 1, kernel_shape = [1, 1], pads = [0, 0, 0, 0], strides = [1, 1]](%max_pooling2d_6/MaxPool:0, %conv2d_103/kernel:0)
  %batch_norm_output_buffer198 = BatchNormalization[epsilon = 9.99999997475243e-07, momentum = 0.990000009536743](%convolution_output238, %scale198, %bias198, %mean198, %var198)
  %activation_103/Relu:0 = Relu(%batch_norm_output_buffer198)
  %convolution_output232 = Conv[auto_pad = 'NOTSET', dilations = [1, 1], group = 1, kernel_shape = [3, 3], pads = [1, 1, 1, 1], strides = [1, 1]](%activation_103/Relu:0, %conv2d_104/kernel:0)
  %batch_norm_output_buffer192 = BatchNormalization[epsilon = 9.99999997475243e-07, momentum = 0.990000009536743](%convolution_output232, %scale192, %bias192, %mean192, %var192)
  %activation_104/Relu:0 = Relu(%batch_norm_output_buffer192)
  %convolution_output231 = Conv[auto_pad = 'NOTSET', dilations = [1, 1], group = 1, kernel_shape = [1, 1], pads = [0, 0, 0, 0], strides = [1, 1]](%max_pooling2d_6/MaxPool:0, %conv2d_101/kernel:0)
  %batch_norm_output_buffer191 = BatchNormalization[epsilon = 9.99999997475243e-07, momentum = 0.990000009536743](%convolution_output231, %scale191, %bias191, %mean191, %var191)
  %activation_101/Relu:0 = Relu(%batch_norm_output_buffer191)
  %max_pooling2d_6/MaxPool:0_pooling0 = AveragePool[auto_pad = 'SAME_UPPER', ceil_mode = 0, kernel_shape = [3, 3], strides = [1, 1]](%max_pooling2d_6/MaxPool:0)
  %convolution_output222 = Conv[auto_pad = 'NOTSET', dilations = [1, 1], group = 1, kernel_shape = [1, 1], pads = [0, 0, 0, 0], strides = [1, 1]](%max_pooling2d_6/MaxPool:0_pooling0, %conv2d_106/kernel:0)
  %convolution_output221 = Conv[auto_pad = 'NOTSET', dilations = [1, 1], group = 1, kernel_shape = [3, 3], pads = [1, 1, 1, 1], strides = [1, 1]](%activation_104/Relu:0, %conv2d_105/kernel:0)
  %convolution_output220 = Conv[auto_pad = 'NOTSET', dilations = [1, 1], group = 1, kernel_shape = [5, 5], pads = [2, 2, 2, 2], strides = [1, 1]](%activation_101/Relu:0, %conv2d_102/kernel:0)
  %convolution_output219 = Conv[auto_pad = 'NOTSET', dilations = [1, 1], group = 1, kernel_shape = [1, 1], pads = [0, 0, 0, 0], strides = [1, 1]](%max_pooling2d_6/MaxPool:0, %conv2d_100/kernel:0)
  %batch_norm_output_buffer182 = BatchNormalization[epsilon = 9.99999997475243e-07, momentum = 0.990000009536743](%convolution_output222, %scale182, %bias182, %mean182, %var182)
  %batch_norm_output_buffer181 = BatchNormalization[epsilon = 9.99999997475243e-07, momentum = 0.990000009536743](%convolution_output221, %scale181, %bias181, %mean181, %var181)
  %batch_norm_output_buffer180 = BatchNormalization[epsilon = 9.99999997475243e-07, momentum = 0.990000009536743](%convolution_output220, %scale180, %bias180, %mean180, %var180)
  %batch_norm_output_buffer179 = BatchNormalization[epsilon = 9.99999997475243e-07, momentum = 0.990000009536743](%convolution_output219, %scale179, %bias179, %mean179, %var179)
  %activation_106/Relu:0 = Relu(%batch_norm_output_buffer182)
  %activation_105/Relu:0 = Relu(%batch_norm_output_buffer181)
  %activation_102/Relu:0 = Relu(%batch_norm_output_buffer180)
  %activation_100/Relu:0 = Relu(%batch_norm_output_buffer179)
  %mixed_5b/concat:0 = Concat[axis = 1](%activation_100/Relu:0, %activation_102/Relu:0, %activation_105/Relu:0, %activation_106/Relu:0)
  %convolution_output240 = Conv[auto_pad = 'NOTSET', dilations = [1, 1], group = 1, kernel_shape = [1, 1], pads = [0, 0, 0, 0], strides = [1, 1]](%mixed_5b/concat:0, %conv2d_110/kernel:0)
  %batch_norm_output_buffer200 = BatchNormalization[epsilon = 9.99999997475243e-07, momentum = 0.990000009536743](%convolution_output240, %scale200, %bias200, %mean200, %var200)
  %activation_110/Relu:0 = Relu(%batch_norm_output_buffer200)
  %convolution_output236 = Conv[auto_pad = 'NOTSET', dilations = [1, 1], group = 1, kernel_shape = [3, 3], pads = [1, 1, 1, 1], strides = [1, 1]](%activation_110/Relu:0, %conv2d_111/kernel:0)
  %batch_norm_output_buffer196 = BatchNormalization[epsilon = 9.99999997475243e-07, momentum = 0.990000009536743](%convolution_output236, %scale196, %bias196, %mean196, %var196)
  %activation_111/Relu:0 = Relu(%batch_norm_output_buffer196)
  %convolution_output227 = Conv[auto_pad = 'NOTSET', dilations = [1, 1], group = 1, kernel_shape = [3, 3], pads = [1, 1, 1, 1], strides = [1, 1]](%activation_111/Relu:0, %conv2d_112/kernel:0)
  %batch_norm_output_buffer187 = BatchNormalization[epsilon = 9.99999997475243e-07, momentum = 0.990000009536743](%convolution_output227, %scale187, %bias187, %mean187, %var187)
  %activation_112/Relu:0 = Relu(%batch_norm_output_buffer187)
  %convolution_output235 = Conv[auto_pad = 'NOTSET', dilations = [1, 1], group = 1, kernel_shape = [1, 1], pads = [0, 0, 0, 0], strides = [1, 1]](%mixed_5b/concat:0, %conv2d_108/kernel:0)
  %batch_norm_output_buffer195 = BatchNormalization[epsilon = 9.99999997475243e-07, momentum = 0.990000009536743](%convolution_output235, %scale195, %bias195, %mean195, %var195)
  %activation_108/Relu:0 = Relu(%batch_norm_output_buffer195)
  %convolution_output226 = Conv[auto_pad = 'NOTSET', dilations = [1, 1], group = 1, kernel_shape = [3, 3], pads = [1, 1, 1, 1], strides = [1, 1]](%activation_108/Relu:0, %conv2d_109/kernel:0)
  %batch_norm_output_buffer186 = BatchNormalization[epsilon = 9.99999997475243e-07, momentum = 0.990000009536743](%convolution_output226, %scale186, %bias186, %mean186, %var186)
  %activation_109/Relu:0 = Relu(%batch_norm_output_buffer186)
  %convolution_output225 = Conv[auto_pad = 'NOTSET', dilations = [1, 1], group = 1, kernel_shape = [1, 1], pads = [0, 0, 0, 0], strides = [1, 1]](%mixed_5b/concat:0, %conv2d_107/kernel:0)
  %batch_norm_output_buffer185 = BatchNormalization[epsilon = 9.99999997475243e-07, momentum = 0.990000009536743](%convolution_output225, %scale185, %bias185, %mean185, %var185)
  %activation_107/Relu:0 = Relu(%batch_norm_output_buffer185)
  %block35_1_mixed/concat:0 = Concat[axis = 1](%activation_107/Relu:0, %activation_109/Relu:0, %activation_112/Relu:0)
  %convolution_output208 = Conv[auto_pad = 'NOTSET', dilations = [1, 1], group = 1, kernel_shape = [1, 1], pads = [0, 0, 0, 0], strides = [1, 1]](%block35_1_mixed/concat:0, %block35_1_conv/kernel:0, %block35_1_conv/bias:0)
  %transpose_output208 = Transpose[perm = [0, 2, 3, 1]](%convolution_output208)
  %fan_out_adjustment_out100 = Transpose[perm = [0, 2, 3, 1]](%mixed_5b/concat:0)
  %TFNodes39/block35_1/mul:0 = Mul(%transpose_output208, %TFNodes39/block35_1/mul/y:0)
  %TFNodes39/block35_1/add:0 = Add(%fan_out_adjustment_out100, %TFNodes39/block35_1/mul:0)
  %block35_1_ac/Relu:0 = Relu(%TFNodes39/block35_1/add:0)
  %adjusted_input237 = Transpose[perm = [0, 3, 1, 2]](%block35_1_ac/Relu:0)
  %convolution_output237 = Conv[auto_pad = 'NOTSET', dilations = [1, 1], group = 1, kernel_shape = [1, 1], pads = [0, 0, 0, 0], strides = [1, 1]](%adjusted_input237, %conv2d_116/kernel:0)
  %batch_norm_output_buffer197 = BatchNormalization[epsilon = 9.99999997475243e-07, momentum = 0.990000009536743](%convolution_output237, %scale197, %bias197, %mean197, %var197)
  %activation_116/Relu:0 = Relu(%batch_norm_output_buffer197)
  %convolution_output230 = Conv[auto_pad = 'NOTSET', dilations = [1, 1], group = 1, kernel_shape = [3, 3], pads = [1, 1, 1, 1], strides = [1, 1]](%activation_116/Relu:0, %conv2d_117/kernel:0)
  %batch_norm_output_buffer190 = BatchNormalization[epsilon = 9.99999997475243e-07, momentum = 0.990000009536743](%convolution_output230, %scale190, %bias190, %mean190, %var190)
  %activation_117/Relu:0 = Relu(%batch_norm_output_buffer190)
  %convolution_output217 = Conv[auto_pad = 'NOTSET', dilations = [1, 1], group = 1, kernel_shape = [3, 3], pads = [1, 1, 1, 1], strides = [1, 1]](%activation_117/Relu:0, %conv2d_118/kernel:0)
  %batch_norm_output_buffer177 = BatchNormalization[epsilon = 9.99999997475243e-07, momentum = 0.990000009536743](%convolution_output217, %scale177, %bias177, %mean177, %var177)
  %activation_118/Relu:0 = Relu(%batch_norm_output_buffer177)
  %adjusted_input229 = Transpose[perm = [0, 3, 1, 2]](%block35_1_ac/Relu:0)
  %convolution_output229 = Conv[auto_pad = 'NOTSET', dilations = [1, 1], group = 1, kernel_shape = [1, 1], pads = [0, 0, 0, 0], strides = [1, 1]](%adjusted_input229, %conv2d_114/kernel:0)
  %batch_norm_output_buffer189 = BatchNormalization[epsilon = 9.99999997475243e-07, momentum = 0.990000009536743](%convolution_output229, %scale189, %bias189, %mean189, %var189)
  %activation_114/Relu:0 = Relu(%batch_norm_output_buffer189)
  %convolution_output216 = Conv[auto_pad = 'NOTSET', dilations = [1, 1], group = 1, kernel_shape = [3, 3], pads = [1, 1, 1, 1], strides = [1, 1]](%activation_114/Relu:0, %conv2d_115/kernel:0)
  %batch_norm_output_buffer176 = BatchNormalization[epsilon = 9.99999997475243e-07, momentum = 0.990000009536743](%convolution_output216, %scale176, %bias176, %mean176, %var176)
  %activation_115/Relu:0 = Relu(%batch_norm_output_buffer176)
  %adjusted_input215 = Transpose[perm = [0, 3, 1, 2]](%block35_1_ac/Relu:0)
  %convolution_output215 = Conv[auto_pad = 'NOTSET', dilations = [1, 1], group = 1, kernel_shape = [1, 1], pads = [0, 0, 0, 0], strides = [1, 1]](%adjusted_input215, %conv2d_113/kernel:0)
  %batch_norm_output_buffer175 = BatchNormalization[epsilon = 9.99999997475243e-07, momentum = 0.990000009536743](%convolution_output215, %scale175, %bias175, %mean175, %var175)
  %activation_113/Relu:0 = Relu(%batch_norm_output_buffer175)
  %block35_2_mixed/concat:0 = Concat[axis = 1](%activation_113/Relu:0, %activation_115/Relu:0, %activation_118/Relu:0)
  %convolution_output201 = Conv[auto_pad = 'NOTSET', dilations = [1, 1], group = 1, kernel_shape = [1, 1], pads = [0, 0, 0, 0], strides = [1, 1]](%block35_2_mixed/concat:0, %block35_2_conv/kernel:0, %block35_2_conv/bias:0)
  %transpose_output201 = Transpose[perm = [0, 2, 3, 1]](%convolution_output201)
  %TFNodes38/block35_2/mul:0 = Mul(%transpose_output201, %TFNodes38/block35_2/mul/y:0)
  %TFNodes38/block35_2/add:0 = Add(%block35_1_ac/Relu:0, %TFNodes38/block35_2/mul:0)
  %block35_2_ac/Relu:0 = Relu(%TFNodes38/block35_2/add:0)
  %adjusted_input233 = Transpose[perm = [0, 3, 1, 2]](%block35_2_ac/Relu:0)
  %convolution_output233 = Conv[auto_pad = 'NOTSET', dilations = [1, 1], group = 1, kernel_shape = [1, 1], pads = [0, 0, 0, 0], strides = [1, 1]](%adjusted_input233, %conv2d_122/kernel:0)
  %batch_norm_output_buffer193 = BatchNormalization[epsilon = 9.99999997475243e-07, momentum = 0.990000009536743](%convolution_output233, %scale193, %bias193, %mean193, %var193)
  %activation_122/Relu:0 = Relu(%batch_norm_output_buffer193)
  %convolution_output224 = Conv[auto_pad = 'NOTSET', dilations = [1, 1], group = 1, kernel_shape = [3, 3], pads = [1, 1, 1, 1], strides = [1, 1]](%activation_122/Relu:0, %conv2d_123/kernel:0)
  %batch_norm_output_buffer184 = BatchNormalization[epsilon = 9.99999997475243e-07, momentum = 0.990000009536743](%convolution_output224, %scale184, %bias184, %mean184, %var184)
  %activation_123/Relu:0 = Relu(%batch_norm_output_buffer184)
  %convolution_output211 = Conv[auto_pad = 'NOTSET', dilations = [1, 1], group = 1, kernel_shape = [3, 3], pads = [1, 1, 1, 1], strides = [1, 1]](%activation_123/Relu:0, %conv2d_124/kernel:0)
  %batch_norm_output_buffer171 = BatchNormalization[epsilon = 9.99999997475243e-07, momentum = 0.990000009536743](%convolution_output211, %scale171, %bias171, %mean171, %var171)
  %activation_124/Relu:0 = Relu(%batch_norm_output_buffer171)
  %adjusted_input223 = Transpose[perm = [0, 3, 1, 2]](%block35_2_ac/Relu:0)
  %convolution_output223 = Conv[auto_pad = 'NOTSET', dilations = [1, 1], group = 1, kernel_shape = [1, 1], pads = [0, 0, 0, 0], strides = [1, 1]](%adjusted_input223, %conv2d_120/kernel:0)
  %batch_norm_output_buffer183 = BatchNormalization[epsilon = 9.99999997475243e-07, momentum = 0.990000009536743](%convolution_output223, %scale183, %bias183, %mean183, %var183)
  %activation_120/Relu:0 = Relu(%batch_norm_output_buffer183)
  %convolution_output210 = Conv[auto_pad = 'NOTSET', dilations = [1, 1], group = 1, kernel_shape = [3, 3], pads = [1, 1, 1, 1], strides = [1, 1]](%activation_120/Relu:0, %conv2d_121/kernel:0)
  %batch_norm_output_buffer170 = BatchNormalization[epsilon = 9.99999997475243e-07, momentum = 0.990000009536743](%convolution_output210, %scale170, %bias170, %mean170, %var170)
  %activation_121/Relu:0 = Relu(%batch_norm_output_buffer170)
  %adjusted_input209 = Transpose[perm = [0, 3, 1, 2]](%block35_2_ac/Relu:0)
  %convolution_output209 = Conv[auto_pad = 'NOTSET', dilations = [1, 1], group = 1, kernel_shape = [1, 1], pads = [0, 0, 0, 0], strides = [1, 1]](%adjusted_input209, %conv2d_119/kernel:0)
  %batch_norm_output_buffer169 = BatchNormalization[epsilon = 9.99999997475243e-07, momentum = 0.990000009536743](%convolution_output209, %scale169, %bias169, %mean169, %var169)
  %activation_119/Relu:0 = Relu(%batch_norm_output_buffer169)
  %block35_3_mixed/concat:0 = Concat[axis = 1](%activation_119/Relu:0, %activation_121/Relu:0, %activation_124/Relu:0)
  %convolution_output194 = Conv[auto_pad = 'NOTSET', dilations = [1, 1], group = 1, kernel_shape = [1, 1], pads = [0, 0, 0, 0], strides = [1, 1]](%block35_3_mixed/concat:0, %block35_3_conv/kernel:0, %block35_3_conv/bias:0)
  %transpose_output194 = Transpose[perm = [0, 2, 3, 1]](%convolution_output194)
  %TFNodes37/block35_3/mul:0 = Mul(%transpose_output194, %TFNodes37/block35_3/mul/y:0)
  %TFNodes37/block35_3/add:0 = Add(%block35_2_ac/Relu:0, %TFNodes37/block35_3/mul:0)
  %block35_3_ac/Relu:0 = Relu(%TFNodes37/block35_3/add:0)
  %adjusted_input228 = Transpose[perm = [0, 3, 1, 2]](%block35_3_ac/Relu:0)
  %convolution_output228 = Conv[auto_pad = 'NOTSET', dilations = [1, 1], group = 1, kernel_shape = [1, 1], pads = [0, 0, 0, 0], strides = [1, 1]](%adjusted_input228, %conv2d_128/kernel:0)
  %batch_norm_output_buffer188 = BatchNormalization[epsilon = 9.99999997475243e-07, momentum = 0.990000009536743](%convolution_output228, %scale188, %bias188, %mean188, %var188)
  %activation_128/Relu:0 = Relu(%batch_norm_output_buffer188)
  %convolution_output214 = Conv[auto_pad = 'NOTSET', dilations = [1, 1], group = 1, kernel_shape = [3, 3], pads = [1, 1, 1, 1], strides = [1, 1]](%activation_128/Relu:0, %conv2d_129/kernel:0)
  %batch_norm_output_buffer174 = BatchNormalization[epsilon = 9.99999997475243e-07, momentum = 0.990000009536743](%convolution_output214, %scale174, %bias174, %mean174, %var174)
  %activation_129/Relu:0 = Relu(%batch_norm_output_buffer174)
  %convolution_output204 = Conv[auto_pad = 'NOTSET', dilations = [1, 1], group = 1, kernel_shape = [3, 3], pads = [1, 1, 1, 1], strides = [1, 1]](%activation_129/Relu:0, %conv2d_130/kernel:0)
  %batch_norm_output_buffer165 = BatchNormalization[epsilon = 9.99999997475243e-07, momentum = 0.990000009536743](%convolution_output204, %scale165, %bias165, %mean165, %var165)
  %activation_130/Relu:0 = Relu(%batch_norm_output_buffer165)
  %adjusted_input213 = Transpose[perm = [0, 3, 1, 2]](%block35_3_ac/Relu:0)
  %convolution_output213 = Conv[auto_pad = 'NOTSET', dilations = [1, 1], group = 1, kernel_shape = [1, 1], pads = [0, 0, 0, 0], strides = [1, 1]](%adjusted_input213, %conv2d_126/kernel:0)
  %batch_norm_output_buffer173 = BatchNormalization[epsilon = 9.99999997475243e-07, momentum = 0.990000009536743](%convolution_output213, %scale173, %bias173, %mean173, %var173)
  %activation_126/Relu:0 = Relu(%batch_norm_output_buffer173)
  %convolution_output203 = Conv[auto_pad = 'NOTSET', dilations = [1, 1], group = 1, kernel_shape = [3, 3], pads = [1, 1, 1, 1], strides = [1, 1]](%activation_126/Relu:0, %conv2d_127/kernel:0)
  %batch_norm_output_buffer164 = BatchNormalization[epsilon = 9.99999997475243e-07, momentum = 0.990000009536743](%convolution_output203, %scale164, %bias164, %mean164, %var164)
  %activation_127/Relu:0 = Relu(%batch_norm_output_buffer164)
  %adjusted_input202 = Transpose[perm = [0, 3, 1, 2]](%block35_3_ac/Relu:0)
  %convolution_output202 = Conv[auto_pad = 'NOTSET', dilations = [1, 1], group = 1, kernel_shape = [1, 1], pads = [0, 0, 0, 0], strides = [1, 1]](%adjusted_input202, %conv2d_125/kernel:0)
  %batch_norm_output_buffer163 = BatchNormalization[epsilon = 9.99999997475243e-07, momentum = 0.990000009536743](%convolution_output202, %scale163, %bias163, %mean163, %var163)
  %activation_125/Relu:0 = Relu(%batch_norm_output_buffer163)
  %block35_4_mixed/concat:0 = Concat[axis = 1](%activation_125/Relu:0, %activation_127/Relu:0, %activation_130/Relu:0)
  %convolution_output187 = Conv[auto_pad = 'NOTSET', dilations = [1, 1], group = 1, kernel_shape = [1, 1], pads = [0, 0, 0, 0], strides = [1, 1]](%block35_4_mixed/concat:0, %block35_4_conv/kernel:0, %block35_4_conv/bias:0)
  %transpose_output187 = Transpose[perm = [0, 2, 3, 1]](%convolution_output187)
  %TFNodes36/block35_4/mul:0 = Mul(%transpose_output187, %TFNodes36/block35_4/mul/y:0)
  %TFNodes36/block35_4/add:0 = Add(%block35_3_ac/Relu:0, %TFNodes36/block35_4/mul:0)
  %block35_4_ac/Relu:0 = Relu(%TFNodes36/block35_4/add:0)
  %adjusted_input218 = Transpose[perm = [0, 3, 1, 2]](%block35_4_ac/Relu:0)
  %convolution_output218 = Conv[auto_pad = 'NOTSET', dilations = [1, 1], group = 1, kernel_shape = [1, 1], pads = [0, 0, 0, 0], strides = [1, 1]](%adjusted_input218, %conv2d_134/kernel:0)
  %batch_norm_output_buffer178 = BatchNormalization[epsilon = 9.99999997475243e-07, momentum = 0.990000009536743](%convolution_output218, %scale178, %bias178, %mean178, %var178)
  %activation_134/Relu:0 = Relu(%batch_norm_output_buffer178)
  %convolution_output207 = Conv[auto_pad = 'NOTSET', dilations = [1, 1], group = 1, kernel_shape = [3, 3], pads = [1, 1, 1, 1], strides = [1, 1]](%activation_134/Relu:0, %conv2d_135/kernel:0)
  %batch_norm_output_buffer168 = BatchNormalization[epsilon = 9.99999997475243e-07, momentum = 0.990000009536743](%convolution_output207, %scale168, %bias168, %mean168, %var168)
  %activation_135/Relu:0 = Relu(%batch_norm_output_buffer168)
  %convolution_output197 = Conv[auto_pad = 'NOTSET', dilations = [1, 1], group = 1, kernel_shape = [3, 3], pads = [1, 1, 1, 1], strides = [1, 1]](%activation_135/Relu:0, %conv2d_136/kernel:0)
  %batch_norm_output_buffer159 = BatchNormalization[epsilon = 9.99999997475243e-07, momentum = 0.990000009536743](%convolution_output197, %scale159, %bias159, %mean159, %var159)
  %activation_136/Relu:0 = Relu(%batch_norm_output_buffer159)
  %adjusted_input206 = Transpose[perm = [0, 3, 1, 2]](%block35_4_ac/Relu:0)
  %convolution_output206 = Conv[auto_pad = 'NOTSET', dilations = [1, 1], group = 1, kernel_shape = [1, 1], pads = [0, 0, 0, 0], strides = [1, 1]](%adjusted_input206, %conv2d_132/kernel:0)
  %batch_norm_output_buffer167 = BatchNormalization[epsilon = 9.99999997475243e-07, momentum = 0.990000009536743](%convolution_output206, %scale167, %bias167, %mean167, %var167)
  %activation_132/Relu:0 = Relu(%batch_norm_output_buffer167)
  %convolution_output196 = Conv[auto_pad = 'NOTSET', dilations = [1, 1], group = 1, kernel_shape = [3, 3], pads = [1, 1, 1, 1], strides = [1, 1]](%activation_132/Relu:0, %conv2d_133/kernel:0)
  %batch_norm_output_buffer158 = BatchNormalization[epsilon = 9.99999997475243e-07, momentum = 0.990000009536743](%convolution_output196, %scale158, %bias158, %mean158, %var158)
  %activation_133/Relu:0 = Relu(%batch_norm_output_buffer158)
  %adjusted_input195 = Transpose[perm = [0, 3, 1, 2]](%block35_4_ac/Relu:0)
  %convolution_output195 = Conv[auto_pad = 'NOTSET', dilations = [1, 1], group = 1, kernel_shape = [1, 1], pads = [0, 0, 0, 0], strides = [1, 1]](%adjusted_input195, %conv2d_131/kernel:0)
  %batch_norm_output_buffer157 = BatchNormalization[epsilon = 9.99999997475243e-07, momentum = 0.990000009536743](%convolution_output195, %scale157, %bias157, %mean157, %var157)
  %activation_131/Relu:0 = Relu(%batch_norm_output_buffer157)
  %block35_5_mixed/concat:0 = Concat[axis = 1](%activation_131/Relu:0, %activation_133/Relu:0, %activation_136/Relu:0)
  %convolution_output180 = Conv[auto_pad = 'NOTSET', dilations = [1, 1], group = 1, kernel_shape = [1, 1], pads = [0, 0, 0, 0], strides = [1, 1]](%block35_5_mixed/concat:0, %block35_5_conv/kernel:0, %block35_5_conv/bias:0)
  %transpose_output180 = Transpose[perm = [0, 2, 3, 1]](%convolution_output180)
  %TFNodes35/block35_5/mul:0 = Mul(%transpose_output180, %TFNodes35/block35_5/mul/y:0)
  %TFNodes35/block35_5/add:0 = Add(%block35_4_ac/Relu:0, %TFNodes35/block35_5/mul:0)
  %block35_5_ac/Relu:0 = Relu(%TFNodes35/block35_5/add:0)
  %adjusted_input212 = Transpose[perm = [0, 3, 1, 2]](%block35_5_ac/Relu:0)
  %convolution_output212 = Conv[auto_pad = 'NOTSET', dilations = [1, 1], group = 1, kernel_shape = [1, 1], pads = [0, 0, 0, 0], strides = [1, 1]](%adjusted_input212, %conv2d_140/kernel:0)
  %batch_norm_output_buffer172 = BatchNormalization[epsilon = 9.99999997475243e-07, momentum = 0.990000009536743](%convolution_output212, %scale172, %bias172, %mean172, %var172)
  %activation_140/Relu:0 = Relu(%batch_norm_output_buffer172)
  %convolution_output200 = Conv[auto_pad = 'NOTSET', dilations = [1, 1], group = 1, kernel_shape = [3, 3], pads = [1, 1, 1, 1], strides = [1, 1]](%activation_140/Relu:0, %conv2d_141/kernel:0)
  %batch_norm_output_buffer162 = BatchNormalization[epsilon = 9.99999997475243e-07, momentum = 0.990000009536743](%convolution_output200, %scale162, %bias162, %mean162, %var162)
  %activation_141/Relu:0 = Relu(%batch_norm_output_buffer162)
  %convolution_output190 = Conv[auto_pad = 'NOTSET', dilations = [1, 1], group = 1, kernel_shape = [3, 3], pads = [1, 1, 1, 1], strides = [1, 1]](%activation_141/Relu:0, %conv2d_142/kernel:0)
  %batch_norm_output_buffer153 = BatchNormalization[epsilon = 9.99999997475243e-07, momentum = 0.990000009536743](%convolution_output190, %scale153, %bias153, %mean153, %var153)
  %activation_142/Relu:0 = Relu(%batch_norm_output_buffer153)
  %adjusted_input199 = Transpose[perm = [0, 3, 1, 2]](%block35_5_ac/Relu:0)
  %convolution_output199 = Conv[auto_pad = 'NOTSET', dilations = [1, 1], group = 1, kernel_shape = [1, 1], pads = [0, 0, 0, 0], strides = [1, 1]](%adjusted_input199, %conv2d_138/kernel:0)
  %batch_norm_output_buffer161 = BatchNormalization[epsilon = 9.99999997475243e-07, momentum = 0.990000009536743](%convolution_output199, %scale161, %bias161, %mean161, %var161)
  %activation_138/Relu:0 = Relu(%batch_norm_output_buffer161)
  %convolution_output189 = Conv[auto_pad = 'NOTSET', dilations = [1, 1], group = 1, kernel_shape = [3, 3], pads = [1, 1, 1, 1], strides = [1, 1]](%activation_138/Relu:0, %conv2d_139/kernel:0)
  %batch_norm_output_buffer152 = BatchNormalization[epsilon = 9.99999997475243e-07, momentum = 0.990000009536743](%convolution_output189, %scale152, %bias152, %mean152, %var152)
  %activation_139/Relu:0 = Relu(%batch_norm_output_buffer152)
  %adjusted_input188 = Transpose[perm = [0, 3, 1, 2]](%block35_5_ac/Relu:0)
  %convolution_output188 = Conv[auto_pad = 'NOTSET', dilations = [1, 1], group = 1, kernel_shape = [1, 1], pads = [0, 0, 0, 0], strides = [1, 1]](%adjusted_input188, %conv2d_137/kernel:0)
  %batch_norm_output_buffer151 = BatchNormalization[epsilon = 9.99999997475243e-07, momentum = 0.990000009536743](%convolution_output188, %scale151, %bias151, %mean151, %var151)
  %activation_137/Relu:0 = Relu(%batch_norm_output_buffer151)
  %block35_6_mixed/concat:0 = Concat[axis = 1](%activation_137/Relu:0, %activation_139/Relu:0, %activation_142/Relu:0)
  %convolution_output174 = Conv[auto_pad = 'NOTSET', dilations = [1, 1], group = 1, kernel_shape = [1, 1], pads = [0, 0, 0, 0], strides = [1, 1]](%block35_6_mixed/concat:0, %block35_6_conv/kernel:0, %block35_6_conv/bias:0)
  %transpose_output174 = Transpose[perm = [0, 2, 3, 1]](%convolution_output174)
  %TFNodes34/block35_6/mul:0 = Mul(%transpose_output174, %TFNodes34/block35_6/mul/y:0)
  %TFNodes34/block35_6/add:0 = Add(%block35_5_ac/Relu:0, %TFNodes34/block35_6/mul:0)
  %block35_6_ac/Relu:0 = Relu(%TFNodes34/block35_6/add:0)
  %adjusted_input205 = Transpose[perm = [0, 3, 1, 2]](%block35_6_ac/Relu:0)
  %convolution_output205 = Conv[auto_pad = 'NOTSET', dilations = [1, 1], group = 1, kernel_shape = [1, 1], pads = [0, 0, 0, 0], strides = [1, 1]](%adjusted_input205, %conv2d_146/kernel:0)
  %batch_norm_output_buffer166 = BatchNormalization[epsilon = 9.99999997475243e-07, momentum = 0.990000009536743](%convolution_output205, %scale166, %bias166, %mean166, %var166)
  %activation_146/Relu:0 = Relu(%batch_norm_output_buffer166)
  %convolution_output193 = Conv[auto_pad = 'NOTSET', dilations = [1, 1], group = 1, kernel_shape = [3, 3], pads = [1, 1, 1, 1], strides = [1, 1]](%activation_146/Relu:0, %conv2d_147/kernel:0)
  %batch_norm_output_buffer156 = BatchNormalization[epsilon = 9.99999997475243e-07, momentum = 0.990000009536743](%convolution_output193, %scale156, %bias156, %mean156, %var156)
  %activation_147/Relu:0 = Relu(%batch_norm_output_buffer156)
  %convolution_output183 = Conv[auto_pad = 'NOTSET', dilations = [1, 1], group = 1, kernel_shape = [3, 3], pads = [1, 1, 1, 1], strides = [1, 1]](%activation_147/Relu:0, %conv2d_148/kernel:0)
  %batch_norm_output_buffer147 = BatchNormalization[epsilon = 9.99999997475243e-07, momentum = 0.990000009536743](%convolution_output183, %scale147, %bias147, %mean147, %var147)
  %activation_148/Relu:0 = Relu(%batch_norm_output_buffer147)
  %adjusted_input192 = Transpose[perm = [0, 3, 1, 2]](%block35_6_ac/Relu:0)
  %convolution_output192 = Conv[auto_pad = 'NOTSET', dilations = [1, 1], group = 1, kernel_shape = [1, 1], pads = [0, 0, 0, 0], strides = [1, 1]](%adjusted_input192, %conv2d_144/kernel:0)
  %batch_norm_output_buffer155 = BatchNormalization[epsilon = 9.99999997475243e-07, momentum = 0.990000009536743](%convolution_output192, %scale155, %bias155, %mean155, %var155)
  %activation_144/Relu:0 = Relu(%batch_norm_output_buffer155)
  %convolution_output182 = Conv[auto_pad = 'NOTSET', dilations = [1, 1], group = 1, kernel_shape = [3, 3], pads = [1, 1, 1, 1], strides = [1, 1]](%activation_144/Relu:0, %conv2d_145/kernel:0)
  %batch_norm_output_buffer146 = BatchNormalization[epsilon = 9.99999997475243e-07, momentum = 0.990000009536743](%convolution_output182, %scale146, %bias146, %mean146, %var146)
  %activation_145/Relu:0 = Relu(%batch_norm_output_buffer146)
  %adjusted_input181 = Transpose[perm = [0, 3, 1, 2]](%block35_6_ac/Relu:0)
  %convolution_output181 = Conv[auto_pad = 'NOTSET', dilations = [1, 1], group = 1, kernel_shape = [1, 1], pads = [0, 0, 0, 0], strides = [1, 1]](%adjusted_input181, %conv2d_143/kernel:0)
  %batch_norm_output_buffer145 = BatchNormalization[epsilon = 9.99999997475243e-07, momentum = 0.990000009536743](%convolution_output181, %scale145, %bias145, %mean145, %var145)
  %activation_143/Relu:0 = Relu(%batch_norm_output_buffer145)
  %block35_7_mixed/concat:0 = Concat[axis = 1](%activation_143/Relu:0, %activation_145/Relu:0, %activation_148/Relu:0)
  %convolution_output167 = Conv[auto_pad = 'NOTSET', dilations = [1, 1], group = 1, kernel_shape = [1, 1], pads = [0, 0, 0, 0], strides = [1, 1]](%block35_7_mixed/concat:0, %block35_7_conv/kernel:0, %block35_7_conv/bias:0)
  %transpose_output167 = Transpose[perm = [0, 2, 3, 1]](%convolution_output167)
  %TFNodes33/block35_7/mul:0 = Mul(%transpose_output167, %TFNodes33/block35_7/mul/y:0)
  %TFNodes33/block35_7/add:0 = Add(%block35_6_ac/Relu:0, %TFNodes33/block35_7/mul:0)
  %block35_7_ac/Relu:0 = Relu(%TFNodes33/block35_7/add:0)
  %adjusted_input198 = Transpose[perm = [0, 3, 1, 2]](%block35_7_ac/Relu:0)
  %convolution_output198 = Conv[auto_pad = 'NOTSET', dilations = [1, 1], group = 1, kernel_shape = [1, 1], pads = [0, 0, 0, 0], strides = [1, 1]](%adjusted_input198, %conv2d_152/kernel:0)
  %batch_norm_output_buffer160 = BatchNormalization[epsilon = 9.99999997475243e-07, momentum = 0.990000009536743](%convolution_output198, %scale160, %bias160, %mean160, %var160)
  %activation_152/Relu:0 = Relu(%batch_norm_output_buffer160)
  %convolution_output186 = Conv[auto_pad = 'NOTSET', dilations = [1, 1], group = 1, kernel_shape = [3, 3], pads = [1, 1, 1, 1], strides = [1, 1]](%activation_152/Relu:0, %conv2d_153/kernel:0)
  %batch_norm_output_buffer150 = BatchNormalization[epsilon = 9.99999997475243e-07, momentum = 0.990000009536743](%convolution_output186, %scale150, %bias150, %mean150, %var150)
  %activation_153/Relu:0 = Relu(%batch_norm_output_buffer150)
  %convolution_output177 = Conv[auto_pad = 'NOTSET', dilations = [1, 1], group = 1, kernel_shape = [3, 3], pads = [1, 1, 1, 1], strides = [1, 1]](%activation_153/Relu:0, %conv2d_154/kernel:0)
  %batch_norm_output_buffer142 = BatchNormalization[epsilon = 9.99999997475243e-07, momentum = 0.990000009536743](%convolution_output177, %scale142, %bias142, %mean142, %var142)
  %activation_154/Relu:0 = Relu(%batch_norm_output_buffer142)
  %adjusted_input185 = Transpose[perm = [0, 3, 1, 2]](%block35_7_ac/Relu:0)
  %convolution_output185 = Conv[auto_pad = 'NOTSET', dilations = [1, 1], group = 1, kernel_shape = [1, 1], pads = [0, 0, 0, 0], strides = [1, 1]](%adjusted_input185, %conv2d_150/kernel:0)
  %batch_norm_output_buffer149 = BatchNormalization[epsilon = 9.99999997475243e-07, momentum = 0.990000009536743](%convolution_output185, %scale149, %bias149, %mean149, %var149)
  %activation_150/Relu:0 = Relu(%batch_norm_output_buffer149)
  %convolution_output176 = Conv[auto_pad = 'NOTSET', dilations = [1, 1], group = 1, kernel_shape = [3, 3], pads = [1, 1, 1, 1], strides = [1, 1]](%activation_150/Relu:0, %conv2d_151/kernel:0)
  %batch_norm_output_buffer141 = BatchNormalization[epsilon = 9.99999997475243e-07, momentum = 0.990000009536743](%convolution_output176, %scale141, %bias141, %mean141, %var141)
  %activation_151/Relu:0 = Relu(%batch_norm_output_buffer141)
  %adjusted_input175 = Transpose[perm = [0, 3, 1, 2]](%block35_7_ac/Relu:0)
  %convolution_output175 = Conv[auto_pad = 'NOTSET', dilations = [1, 1], group = 1, kernel_shape = [1, 1], pads = [0, 0, 0, 0], strides = [1, 1]](%adjusted_input175, %conv2d_149/kernel:0)
  %batch_norm_output_buffer140 = BatchNormalization[epsilon = 9.99999997475243e-07, momentum = 0.990000009536743](%convolution_output175, %scale140, %bias140, %mean140, %var140)
  %activation_149/Relu:0 = Relu(%batch_norm_output_buffer140)
  %block35_8_mixed/concat:0 = Concat[axis = 1](%activation_149/Relu:0, %activation_151/Relu:0, %activation_154/Relu:0)
  %convolution_output161 = Conv[auto_pad = 'NOTSET', dilations = [1, 1], group = 1, kernel_shape = [1, 1], pads = [0, 0, 0, 0], strides = [1, 1]](%block35_8_mixed/concat:0, %block35_8_conv/kernel:0, %block35_8_conv/bias:0)
  %transpose_output161 = Transpose[perm = [0, 2, 3, 1]](%convolution_output161)
  %TFNodes32/block35_8/mul:0 = Mul(%transpose_output161, %TFNodes32/block35_8/mul/y:0)
  %TFNodes32/block35_8/add:0 = Add(%block35_7_ac/Relu:0, %TFNodes32/block35_8/mul:0)
  %block35_8_ac/Relu:0 = Relu(%TFNodes32/block35_8/add:0)
  %adjusted_input191 = Transpose[perm = [0, 3, 1, 2]](%block35_8_ac/Relu:0)
  %convolution_output191 = Conv[auto_pad = 'NOTSET', dilations = [1, 1], group = 1, kernel_shape = [1, 1], pads = [0, 0, 0, 0], strides = [1, 1]](%adjusted_input191, %conv2d_158/kernel:0)
  %batch_norm_output_buffer154 = BatchNormalization[epsilon = 9.99999997475243e-07, momentum = 0.990000009536743](%convolution_output191, %scale154, %bias154, %mean154, %var154)
  %activation_158/Relu:0 = Relu(%batch_norm_output_buffer154)
  %convolution_output179 = Conv[auto_pad = 'NOTSET', dilations = [1, 1], group = 1, kernel_shape = [3, 3], pads = [1, 1, 1, 1], strides = [1, 1]](%activation_158/Relu:0, %conv2d_159/kernel:0)
  %batch_norm_output_buffer144 = BatchNormalization[epsilon = 9.99999997475243e-07, momentum = 0.990000009536743](%convolution_output179, %scale144, %bias144, %mean144, %var144)
  %activation_159/Relu:0 = Relu(%batch_norm_output_buffer144)
  %convolution_output170 = Conv[auto_pad = 'NOTSET', dilations = [1, 1], group = 1, kernel_shape = [3, 3], pads = [1, 1, 1, 1], strides = [1, 1]](%activation_159/Relu:0, %conv2d_160/kernel:0)
  %batch_norm_output_buffer136 = BatchNormalization[epsilon = 9.99999997475243e-07, momentum = 0.990000009536743](%convolution_output170, %scale136, %bias136, %mean136, %var136)
  %activation_160/Relu:0 = Relu(%batch_norm_output_buffer136)
  %adjusted_input178 = Transpose[perm = [0, 3, 1, 2]](%block35_8_ac/Relu:0)
  %convolution_output178 = Conv[auto_pad = 'NOTSET', dilations = [1, 1], group = 1, kernel_shape = [1, 1], pads = [0, 0, 0, 0], strides = [1, 1]](%adjusted_input178, %conv2d_156/kernel:0)
  %batch_norm_output_buffer143 = BatchNormalization[epsilon = 9.99999997475243e-07, momentum = 0.990000009536743](%convolution_output178, %scale143, %bias143, %mean143, %var143)
  %activation_156/Relu:0 = Relu(%batch_norm_output_buffer143)
  %convolution_output169 = Conv[auto_pad = 'NOTSET', dilations = [1, 1], group = 1, kernel_shape = [3, 3], pads = [1, 1, 1, 1], strides = [1, 1]](%activation_156/Relu:0, %conv2d_157/kernel:0)
  %batch_norm_output_buffer135 = BatchNormalization[epsilon = 9.99999997475243e-07, momentum = 0.990000009536743](%convolution_output169, %scale135, %bias135, %mean135, %var135)
  %activation_157/Relu:0 = Relu(%batch_norm_output_buffer135)
  %adjusted_input168 = Transpose[perm = [0, 3, 1, 2]](%block35_8_ac/Relu:0)
  %convolution_output168 = Conv[auto_pad = 'NOTSET', dilations = [1, 1], group = 1, kernel_shape = [1, 1], pads = [0, 0, 0, 0], strides = [1, 1]](%adjusted_input168, %conv2d_155/kernel:0)
  %batch_norm_output_buffer134 = BatchNormalization[epsilon = 9.99999997475243e-07, momentum = 0.990000009536743](%convolution_output168, %scale134, %bias134, %mean134, %var134)
  %activation_155/Relu:0 = Relu(%batch_norm_output_buffer134)
  %block35_9_mixed/concat:0 = Concat[axis = 1](%activation_155/Relu:0, %activation_157/Relu:0, %activation_160/Relu:0)
  %convolution_output158 = Conv[auto_pad = 'NOTSET', dilations = [1, 1], group = 1, kernel_shape = [1, 1], pads = [0, 0, 0, 0], strides = [1, 1]](%block35_9_mixed/concat:0, %block35_9_conv/kernel:0, %block35_9_conv/bias:0)
  %transpose_output158 = Transpose[perm = [0, 2, 3, 1]](%convolution_output158)
  %TFNodes31/block35_9/mul:0 = Mul(%transpose_output158, %TFNodes31/block35_9/mul/y:0)
  %TFNodes31/block35_9/add:0 = Add(%block35_8_ac/Relu:0, %TFNodes31/block35_9/mul:0)
  %block35_9_ac/Relu:0 = Relu(%TFNodes31/block35_9/add:0)
  %adjusted_input184 = Transpose[perm = [0, 3, 1, 2]](%block35_9_ac/Relu:0)
  %convolution_output184 = Conv[auto_pad = 'NOTSET', dilations = [1, 1], group = 1, kernel_shape = [1, 1], pads = [0, 0, 0, 0], strides = [1, 1]](%adjusted_input184, %conv2d_164/kernel:0)
  %batch_norm_output_buffer148 = BatchNormalization[epsilon = 9.99999997475243e-07, momentum = 0.990000009536743](%convolution_output184, %scale148, %bias148, %mean148, %var148)
  %activation_164/Relu:0 = Relu(%batch_norm_output_buffer148)
  %convolution_output173 = Conv[auto_pad = 'NOTSET', dilations = [1, 1], group = 1, kernel_shape = [3, 3], pads = [1, 1, 1, 1], strides = [1, 1]](%activation_164/Relu:0, %conv2d_165/kernel:0)
  %batch_norm_output_buffer139 = BatchNormalization[epsilon = 9.99999997475243e-07, momentum = 0.990000009536743](%convolution_output173, %scale139, %bias139, %mean139, %var139)
  %activation_165/Relu:0 = Relu(%batch_norm_output_buffer139)
  %convolution_output164 = Conv[auto_pad = 'NOTSET', dilations = [1, 1], group = 1, kernel_shape = [3, 3], pads = [1, 1, 1, 1], strides = [1, 1]](%activation_165/Relu:0, %conv2d_166/kernel:0)
  %batch_norm_output_buffer131 = BatchNormalization[epsilon = 9.99999997475243e-07, momentum = 0.990000009536743](%convolution_output164, %scale131, %bias131, %mean131, %var131)
  %activation_166/Relu:0 = Relu(%batch_norm_output_buffer131)
  %adjusted_input172 = Transpose[perm = [0, 3, 1, 2]](%block35_9_ac/Relu:0)
  %convolution_output172 = Conv[auto_pad = 'NOTSET', dilations = [1, 1], group = 1, kernel_shape = [1, 1], pads = [0, 0, 0, 0], strides = [1, 1]](%adjusted_input172, %conv2d_162/kernel:0)
  %batch_norm_output_buffer138 = BatchNormalization[epsilon = 9.99999997475243e-07, momentum = 0.990000009536743](%convolution_output172, %scale138, %bias138, %mean138, %var138)
  %activation_162/Relu:0 = Relu(%batch_norm_output_buffer138)
  %convolution_output163 = Conv[auto_pad = 'NOTSET', dilations = [1, 1], group = 1, kernel_shape = [3, 3], pads = [1, 1, 1, 1], strides = [1, 1]](%activation_162/Relu:0, %conv2d_163/kernel:0)
  %batch_norm_output_buffer130 = BatchNormalization[epsilon = 9.99999997475243e-07, momentum = 0.990000009536743](%convolution_output163, %scale130, %bias130, %mean130, %var130)
  %activation_163/Relu:0 = Relu(%batch_norm_output_buffer130)
  %adjusted_input162 = Transpose[perm = [0, 3, 1, 2]](%block35_9_ac/Relu:0)
  %convolution_output162 = Conv[auto_pad = 'NOTSET', dilations = [1, 1], group = 1, kernel_shape = [1, 1], pads = [0, 0, 0, 0], strides = [1, 1]](%adjusted_input162, %conv2d_161/kernel:0)
  %batch_norm_output_buffer129 = BatchNormalization[epsilon = 9.99999997475243e-07, momentum = 0.990000009536743](%convolution_output162, %scale129, %bias129, %mean129, %var129)
  %activation_161/Relu:0 = Relu(%batch_norm_output_buffer129)
  %block35_10_mixed/concat:0 = Concat[axis = 1](%activation_161/Relu:0, %activation_163/Relu:0, %activation_166/Relu:0)
  %convolution_output152 = Conv[auto_pad = 'NOTSET', dilations = [1, 1], group = 1, kernel_shape = [1, 1], pads = [0, 0, 0, 0], strides = [1, 1]](%block35_10_mixed/concat:0, %block35_10_conv/kernel:0, %block35_10_conv/bias:0)
  %transpose_output152 = Transpose[perm = [0, 2, 3, 1]](%convolution_output152)
  %TFNodes30/block35_10/mul:0 = Mul(%transpose_output152, %TFNodes30/block35_10/mul/y:0)
  %TFNodes30/block35_10/add:0 = Add(%block35_9_ac/Relu:0, %TFNodes30/block35_10/mul:0)
  %block35_10_ac/Relu:0 = Relu(%TFNodes30/block35_10/add:0)
  %adjusted_input166 = Transpose[perm = [0, 3, 1, 2]](%block35_10_ac/Relu:0)
  %convolution_output166 = Conv[auto_pad = 'NOTSET', dilations = [1, 1], group = 1, kernel_shape = [1, 1], pads = [0, 0, 0, 0], strides = [1, 1]](%adjusted_input166, %conv2d_168/kernel:0)
  %batch_norm_output_buffer133 = BatchNormalization[epsilon = 9.99999997475243e-07, momentum = 0.990000009536743](%convolution_output166, %scale133, %bias133, %mean133, %var133)
  %activation_168/Relu:0 = Relu(%batch_norm_output_buffer133)
  %convolution_output157 = Conv[auto_pad = 'NOTSET', dilations = [1, 1], group = 1, kernel_shape = [3, 3], pads = [1, 1, 1, 1], strides = [1, 1]](%activation_168/Relu:0, %conv2d_169/kernel:0)
  %batch_norm_output_buffer126 = BatchNormalization[epsilon = 9.99999997475243e-07, momentum = 0.990000009536743](%convolution_output157, %scale126, %bias126, %mean126, %var126)
  %activation_169/Relu:0 = Relu(%batch_norm_output_buffer126)
  %convolution_output150 = Conv[auto_pad = 'VALID', dilations = [1, 1], group = 1, kernel_shape = [3, 3], strides = [2, 2]](%activation_169/Relu:0, %conv2d_170/kernel:0)
  %adjusted_input149 = Transpose[perm = [0, 3, 1, 2]](%block35_10_ac/Relu:0)
  %convolution_output149 = Conv[auto_pad = 'VALID', dilations = [1, 1], group = 1, kernel_shape = [3, 3], strides = [2, 2]](%adjusted_input149, %conv2d_167/kernel:0)
  %batch_norm_output_buffer120 = BatchNormalization[epsilon = 9.99999997475243e-07, momentum = 0.990000009536743](%convolution_output150, %scale120, %bias120, %mean120, %var120)
  %batch_norm_output_buffer119 = BatchNormalization[epsilon = 9.99999997475243e-07, momentum = 0.990000009536743](%convolution_output149, %scale119, %bias119, %mean119, %var119)
  %input_transposed2 = Transpose[perm = [0, 3, 1, 2]](%block35_10_ac/Relu:0)
  %block35_10_ac/Relu:0_pooling0 = MaxPool[auto_pad = 'VALID', ceil_mode = 0, kernel_shape = [3, 3], strides = [2, 2]](%input_transposed2)
  %activation_170/Relu:0 = Relu(%batch_norm_output_buffer120)
  %activation_167/Relu:0 = Relu(%batch_norm_output_buffer119)
  %mixed_6a/concat:0 = Concat[axis = 1](%activation_167/Relu:0, %activation_170/Relu:0, %block35_10_ac/Relu:0_pooling0)
  %convolution_output171 = Conv[auto_pad = 'NOTSET', dilations = [1, 1], group = 1, kernel_shape = [1, 1], pads = [0, 0, 0, 0], strides = [1, 1]](%mixed_6a/concat:0, %conv2d_172/kernel:0)
  %batch_norm_output_buffer137 = BatchNormalization[epsilon = 9.99999997475243e-07, momentum = 0.990000009536743](%convolution_output171, %scale137, %bias137, %mean137, %var137)
  %activation_172/Relu:0 = Relu(%batch_norm_output_buffer137)
  %convolution_output160 = Conv[auto_pad = 'NOTSET', dilations = [1, 1], group = 1, kernel_shape = [1, 7], pads = [0, 3, 0, 3], strides = [1, 1]](%activation_172/Relu:0, %conv2d_173/kernel:0)
  %batch_norm_output_buffer128 = BatchNormalization[epsilon = 9.99999997475243e-07, momentum = 0.990000009536743](%convolution_output160, %scale128, %bias128, %mean128, %var128)
  %activation_173/Relu:0 = Relu(%batch_norm_output_buffer128)
  %convolution_output154 = Conv[auto_pad = 'NOTSET', dilations = [1, 1], group = 1, kernel_shape = [7, 1], pads = [3, 0, 3, 0], strides = [1, 1]](%activation_173/Relu:0, %conv2d_174/kernel:0)
  %batch_norm_output_buffer123 = BatchNormalization[epsilon = 9.99999997475243e-07, momentum = 0.990000009536743](%convolution_output154, %scale123, %bias123, %mean123, %var123)
  %activation_174/Relu:0 = Relu(%batch_norm_output_buffer123)
  %convolution_output153 = Conv[auto_pad = 'NOTSET', dilations = [1, 1], group = 1, kernel_shape = [1, 1], pads = [0, 0, 0, 0], strides = [1, 1]](%mixed_6a/concat:0, %conv2d_171/kernel:0)
  %batch_norm_output_buffer122 = BatchNormalization[epsilon = 9.99999997475243e-07, momentum = 0.990000009536743](%convolution_output153, %scale122, %bias122, %mean122, %var122)
  %activation_171/Relu:0 = Relu(%batch_norm_output_buffer122)
  %block17_1_mixed/concat:0 = Concat[axis = 1](%activation_171/Relu:0, %activation_174/Relu:0)
  %convolution_output141 = Conv[auto_pad = 'NOTSET', dilations = [1, 1], group = 1, kernel_shape = [1, 1], pads = [0, 0, 0, 0], strides = [1, 1]](%block17_1_mixed/concat:0, %block17_1_conv/kernel:0, %block17_1_conv/bias:0)
  %transpose_output141 = Transpose[perm = [0, 2, 3, 1]](%convolution_output141)
  %fan_out_adjustment_out87 = Transpose[perm = [0, 2, 3, 1]](%mixed_6a/concat:0)
  %TFNodes29/block17_1/mul:0 = Mul(%transpose_output141, %TFNodes29/block17_1/mul/y:0)
  %TFNodes29/block17_1/add:0 = Add(%fan_out_adjustment_out87, %TFNodes29/block17_1/mul:0)
  %block17_1_ac/Relu:0 = Relu(%TFNodes29/block17_1/add:0)
  %adjusted_input165 = Transpose[perm = [0, 3, 1, 2]](%block17_1_ac/Relu:0)
  %convolution_output165 = Conv[auto_pad = 'NOTSET', dilations = [1, 1], group = 1, kernel_shape = [1, 1], pads = [0, 0, 0, 0], strides = [1, 1]](%adjusted_input165, %conv2d_176/kernel:0)
  %batch_norm_output_buffer132 = BatchNormalization[epsilon = 9.99999997475243e-07, momentum = 0.990000009536743](%convolution_output165, %scale132, %bias132, %mean132, %var132)
  %activation_176/Relu:0 = Relu(%batch_norm_output_buffer132)
  %convolution_output156 = Conv[auto_pad = 'NOTSET', dilations = [1, 1], group = 1, kernel_shape = [1, 7], pads = [0, 3, 0, 3], strides = [1, 1]](%activation_176/Relu:0, %conv2d_177/kernel:0)
  %batch_norm_output_buffer125 = BatchNormalization[epsilon = 9.99999997475243e-07, momentum = 0.990000009536743](%convolution_output156, %scale125, %bias125, %mean125, %var125)
  %activation_177/Relu:0 = Relu(%batch_norm_output_buffer125)
  %convolution_output147 = Conv[auto_pad = 'NOTSET', dilations = [1, 1], group = 1, kernel_shape = [7, 1], pads = [3, 0, 3, 0], strides = [1, 1]](%activation_177/Relu:0, %conv2d_178/kernel:0)
  %batch_norm_output_buffer117 = BatchNormalization[epsilon = 9.99999997475243e-07, momentum = 0.990000009536743](%convolution_output147, %scale117, %bias117, %mean117, %var117)
  %activation_178/Relu:0 = Relu(%batch_norm_output_buffer117)
  %adjusted_input146 = Transpose[perm = [0, 3, 1, 2]](%block17_1_ac/Relu:0)
  %convolution_output146 = Conv[auto_pad = 'NOTSET', dilations = [1, 1], group = 1, kernel_shape = [1, 1], pads = [0, 0, 0, 0], strides = [1, 1]](%adjusted_input146, %conv2d_175/kernel:0)
  %batch_norm_output_buffer116 = BatchNormalization[epsilon = 9.99999997475243e-07, momentum = 0.990000009536743](%convolution_output146, %scale116, %bias116, %mean116, %var116)
  %activation_175/Relu:0 = Relu(%batch_norm_output_buffer116)
  %block17_2_mixed/concat:0 = Concat[axis = 1](%activation_175/Relu:0, %activation_178/Relu:0)
  %convolution_output136 = Conv[auto_pad = 'NOTSET', dilations = [1, 1], group = 1, kernel_shape = [1, 1], pads = [0, 0, 0, 0], strides = [1, 1]](%block17_2_mixed/concat:0, %block17_2_conv/kernel:0, %block17_2_conv/bias:0)
  %transpose_output136 = Transpose[perm = [0, 2, 3, 1]](%convolution_output136)
  %TFNodes28/block17_2/mul:0 = Mul(%transpose_output136, %TFNodes28/block17_2/mul/y:0)
  %TFNodes28/block17_2/add:0 = Add(%block17_1_ac/Relu:0, %TFNodes28/block17_2/mul:0)
  %block17_2_ac/Relu:0 = Relu(%TFNodes28/block17_2/add:0)
  %adjusted_input159 = Transpose[perm = [0, 3, 1, 2]](%block17_2_ac/Relu:0)
  %convolution_output159 = Conv[auto_pad = 'NOTSET', dilations = [1, 1], group = 1, kernel_shape = [1, 1], pads = [0, 0, 0, 0], strides = [1, 1]](%adjusted_input159, %conv2d_180/kernel:0)
  %batch_norm_output_buffer127 = BatchNormalization[epsilon = 9.99999997475243e-07, momentum = 0.990000009536743](%convolution_output159, %scale127, %bias127, %mean127, %var127)
  %activation_180/Relu:0 = Relu(%batch_norm_output_buffer127)
  %convolution_output151 = Conv[auto_pad = 'NOTSET', dilations = [1, 1], group = 1, kernel_shape = [1, 7], pads = [0, 3, 0, 3], strides = [1, 1]](%activation_180/Relu:0, %conv2d_181/kernel:0)
  %batch_norm_output_buffer121 = BatchNormalization[epsilon = 9.99999997475243e-07, momentum = 0.990000009536743](%convolution_output151, %scale121, %bias121, %mean121, %var121)
  %activation_181/Relu:0 = Relu(%batch_norm_output_buffer121)
  %convolution_output143 = Conv[auto_pad = 'NOTSET', dilations = [1, 1], group = 1, kernel_shape = [7, 1], pads = [3, 0, 3, 0], strides = [1, 1]](%activation_181/Relu:0, %conv2d_182/kernel:0)
  %batch_norm_output_buffer113 = BatchNormalization[epsilon = 9.99999997475243e-07, momentum = 0.990000009536743](%convolution_output143, %scale113, %bias113, %mean113, %var113)
  %activation_182/Relu:0 = Relu(%batch_norm_output_buffer113)
  %adjusted_input142 = Transpose[perm = [0, 3, 1, 2]](%block17_2_ac/Relu:0)
  %convolution_output142 = Conv[auto_pad = 'NOTSET', dilations = [1, 1], group = 1, kernel_shape = [1, 1], pads = [0, 0, 0, 0], strides = [1, 1]](%adjusted_input142, %conv2d_179/kernel:0)
  %batch_norm_output_buffer112 = BatchNormalization[epsilon = 9.99999997475243e-07, momentum = 0.990000009536743](%convolution_output142, %scale112, %bias112, %mean112, %var112)
  %activation_179/Relu:0 = Relu(%batch_norm_output_buffer112)
  %block17_3_mixed/concat:0 = Concat[axis = 1](%activation_179/Relu:0, %activation_182/Relu:0)
  %convolution_output131 = Conv[auto_pad = 'NOTSET', dilations = [1, 1], group = 1, kernel_shape = [1, 1], pads = [0, 0, 0, 0], strides = [1, 1]](%block17_3_mixed/concat:0, %block17_3_conv/kernel:0, %block17_3_conv/bias:0)
  %transpose_output131 = Transpose[perm = [0, 2, 3, 1]](%convolution_output131)
  %TFNodes27/block17_3/mul:0 = Mul(%transpose_output131, %TFNodes27/block17_3/mul/y:0)
  %TFNodes27/block17_3/add:0 = Add(%block17_2_ac/Relu:0, %TFNodes27/block17_3/mul:0)
  %block17_3_ac/Relu:0 = Relu(%TFNodes27/block17_3/add:0)
  %adjusted_input155 = Transpose[perm = [0, 3, 1, 2]](%block17_3_ac/Relu:0)
  %convolution_output155 = Conv[auto_pad = 'NOTSET', dilations = [1, 1], group = 1, kernel_shape = [1, 1], pads = [0, 0, 0, 0], strides = [1, 1]](%adjusted_input155, %conv2d_184/kernel:0)
  %batch_norm_output_buffer124 = BatchNormalization[epsilon = 9.99999997475243e-07, momentum = 0.990000009536743](%convolution_output155, %scale124, %bias124, %mean124, %var124)
  %activation_184/Relu:0 = Relu(%batch_norm_output_buffer124)
  %convolution_output145 = Conv[auto_pad = 'NOTSET', dilations = [1, 1], group = 1, kernel_shape = [1, 7], pads = [0, 3, 0, 3], strides = [1, 1]](%activation_184/Relu:0, %conv2d_185/kernel:0)
  %batch_norm_output_buffer115 = BatchNormalization[epsilon = 9.99999997475243e-07, momentum = 0.990000009536743](%convolution_output145, %scale115, %bias115, %mean115, %var115)
  %activation_185/Relu:0 = Relu(%batch_norm_output_buffer115)
  %convolution_output138 = Conv[auto_pad = 'NOTSET', dilations = [1, 1], group = 1, kernel_shape = [7, 1], pads = [3, 0, 3, 0], strides = [1, 1]](%activation_185/Relu:0, %conv2d_186/kernel:0)
  %batch_norm_output_buffer109 = BatchNormalization[epsilon = 9.99999997475243e-07, momentum = 0.990000009536743](%convolution_output138, %scale109, %bias109, %mean109, %var109)
  %activation_186/Relu:0 = Relu(%batch_norm_output_buffer109)
  %adjusted_input137 = Transpose[perm = [0, 3, 1, 2]](%block17_3_ac/Relu:0)
  %convolution_output137 = Conv[auto_pad = 'NOTSET', dilations = [1, 1], group = 1, kernel_shape = [1, 1], pads = [0, 0, 0, 0], strides = [1, 1]](%adjusted_input137, %conv2d_183/kernel:0)
  %batch_norm_output_buffer108 = BatchNormalization[epsilon = 9.99999997475243e-07, momentum = 0.990000009536743](%convolution_output137, %scale108, %bias108, %mean108, %var108)
  %activation_183/Relu:0 = Relu(%batch_norm_output_buffer108)
  %block17_4_mixed/concat:0 = Concat[axis = 1](%activation_183/Relu:0, %activation_186/Relu:0)
  %convolution_output126 = Conv[auto_pad = 'NOTSET', dilations = [1, 1], group = 1, kernel_shape = [1, 1], pads = [0, 0, 0, 0], strides = [1, 1]](%block17_4_mixed/concat:0, %block17_4_conv/kernel:0, %block17_4_conv/bias:0)
  %transpose_output126 = Transpose[perm = [0, 2, 3, 1]](%convolution_output126)
  %TFNodes26/block17_4/mul:0 = Mul(%transpose_output126, %TFNodes26/block17_4/mul/y:0)
  %TFNodes26/block17_4/add:0 = Add(%block17_3_ac/Relu:0, %TFNodes26/block17_4/mul:0)
  %block17_4_ac/Relu:0 = Relu(%TFNodes26/block17_4/add:0)
  %adjusted_input148 = Transpose[perm = [0, 3, 1, 2]](%block17_4_ac/Relu:0)
  %convolution_output148 = Conv[auto_pad = 'NOTSET', dilations = [1, 1], group = 1, kernel_shape = [1, 1], pads = [0, 0, 0, 0], strides = [1, 1]](%adjusted_input148, %conv2d_188/kernel:0)
  %batch_norm_output_buffer118 = BatchNormalization[epsilon = 9.99999997475243e-07, momentum = 0.990000009536743](%convolution_output148, %scale118, %bias118, %mean118, %var118)
  %activation_188/Relu:0 = Relu(%batch_norm_output_buffer118)
  %convolution_output140 = Conv[auto_pad = 'NOTSET', dilations = [1, 1], group = 1, kernel_shape = [1, 7], pads = [0, 3, 0, 3], strides = [1, 1]](%activation_188/Relu:0, %conv2d_189/kernel:0)
  %batch_norm_output_buffer111 = BatchNormalization[epsilon = 9.99999997475243e-07, momentum = 0.990000009536743](%convolution_output140, %scale111, %bias111, %mean111, %var111)
  %activation_189/Relu:0 = Relu(%batch_norm_output_buffer111)
  %convolution_output133 = Conv[auto_pad = 'NOTSET', dilations = [1, 1], group = 1, kernel_shape = [7, 1], pads = [3, 0, 3, 0], strides = [1, 1]](%activation_189/Relu:0, %conv2d_190/kernel:0)
  %batch_norm_output_buffer105 = BatchNormalization[epsilon = 9.99999997475243e-07, momentum = 0.990000009536743](%convolution_output133, %scale105, %bias105, %mean105, %var105)
  %activation_190/Relu:0 = Relu(%batch_norm_output_buffer105)
  %adjusted_input132 = Transpose[perm = [0, 3, 1, 2]](%block17_4_ac/Relu:0)
  %convolution_output132 = Conv[auto_pad = 'NOTSET', dilations = [1, 1], group = 1, kernel_shape = [1, 1], pads = [0, 0, 0, 0], strides = [1, 1]](%adjusted_input132, %conv2d_187/kernel:0)
  %batch_norm_output_buffer104 = BatchNormalization[epsilon = 9.99999997475243e-07, momentum = 0.990000009536743](%convolution_output132, %scale104, %bias104, %mean104, %var104)
  %activation_187/Relu:0 = Relu(%batch_norm_output_buffer104)
  %block17_5_mixed/concat:0 = Concat[axis = 1](%activation_187/Relu:0, %activation_190/Relu:0)
  %convolution_output121 = Conv[auto_pad = 'NOTSET', dilations = [1, 1], group = 1, kernel_shape = [1, 1], pads = [0, 0, 0, 0], strides = [1, 1]](%block17_5_mixed/concat:0, %block17_5_conv/kernel:0, %block17_5_conv/bias:0)
  %transpose_output121 = Transpose[perm = [0, 2, 3, 1]](%convolution_output121)
  %TFNodes25/block17_5/mul:0 = Mul(%transpose_output121, %TFNodes25/block17_5/mul/y:0)
  %TFNodes25/block17_5/add:0 = Add(%block17_4_ac/Relu:0, %TFNodes25/block17_5/mul:0)
  %block17_5_ac/Relu:0 = Relu(%TFNodes25/block17_5/add:0)
  %adjusted_input144 = Transpose[perm = [0, 3, 1, 2]](%block17_5_ac/Relu:0)
  %convolution_output144 = Conv[auto_pad = 'NOTSET', dilations = [1, 1], group = 1, kernel_shape = [1, 1], pads = [0, 0, 0, 0], strides = [1, 1]](%adjusted_input144, %conv2d_192/kernel:0)
  %batch_norm_output_buffer114 = BatchNormalization[epsilon = 9.99999997475243e-07, momentum = 0.990000009536743](%convolution_output144, %scale114, %bias114, %mean114, %var114)
  %activation_192/Relu:0 = Relu(%batch_norm_output_buffer114)
  %convolution_output135 = Conv[auto_pad = 'NOTSET', dilations = [1, 1], group = 1, kernel_shape = [1, 7], pads = [0, 3, 0, 3], strides = [1, 1]](%activation_192/Relu:0, %conv2d_193/kernel:0)
  %batch_norm_output_buffer107 = BatchNormalization[epsilon = 9.99999997475243e-07, momentum = 0.990000009536743](%convolution_output135, %scale107, %bias107, %mean107, %var107)
  %activation_193/Relu:0 = Relu(%batch_norm_output_buffer107)
  %convolution_output128 = Conv[auto_pad = 'NOTSET', dilations = [1, 1], group = 1, kernel_shape = [7, 1], pads = [3, 0, 3, 0], strides = [1, 1]](%activation_193/Relu:0, %conv2d_194/kernel:0)
  %batch_norm_output_buffer101 = BatchNormalization[epsilon = 9.99999997475243e-07, momentum = 0.990000009536743](%convolution_output128, %scale101, %bias101, %mean101, %var101)
  %activation_194/Relu:0 = Relu(%batch_norm_output_buffer101)
  %adjusted_input127 = Transpose[perm = [0, 3, 1, 2]](%block17_5_ac/Relu:0)
  %convolution_output127 = Conv[auto_pad = 'NOTSET', dilations = [1, 1], group = 1, kernel_shape = [1, 1], pads = [0, 0, 0, 0], strides = [1, 1]](%adjusted_input127, %conv2d_191/kernel:0)
  %batch_norm_output_buffer100 = BatchNormalization[epsilon = 9.99999997475243e-07, momentum = 0.990000009536743](%convolution_output127, %scale100, %bias100, %mean100, %var100)
  %activation_191/Relu:0 = Relu(%batch_norm_output_buffer100)
  %block17_6_mixed/concat:0 = Concat[axis = 1](%activation_191/Relu:0, %activation_194/Relu:0)
  %convolution_output116 = Conv[auto_pad = 'NOTSET', dilations = [1, 1], group = 1, kernel_shape = [1, 1], pads = [0, 0, 0, 0], strides = [1, 1]](%block17_6_mixed/concat:0, %block17_6_conv/kernel:0, %block17_6_conv/bias:0)
  %transpose_output116 = Transpose[perm = [0, 2, 3, 1]](%convolution_output116)
  %TFNodes24/block17_6/mul:0 = Mul(%transpose_output116, %TFNodes24/block17_6/mul/y:0)
  %TFNodes24/block17_6/add:0 = Add(%block17_5_ac/Relu:0, %TFNodes24/block17_6/mul:0)
  %block17_6_ac/Relu:0 = Relu(%TFNodes24/block17_6/add:0)
  %adjusted_input139 = Transpose[perm = [0, 3, 1, 2]](%block17_6_ac/Relu:0)
  %convolution_output139 = Conv[auto_pad = 'NOTSET', dilations = [1, 1], group = 1, kernel_shape = [1, 1], pads = [0, 0, 0, 0], strides = [1, 1]](%adjusted_input139, %conv2d_196/kernel:0)
  %batch_norm_output_buffer110 = BatchNormalization[epsilon = 9.99999997475243e-07, momentum = 0.990000009536743](%convolution_output139, %scale110, %bias110, %mean110, %var110)
  %activation_196/Relu:0 = Relu(%batch_norm_output_buffer110)
  %convolution_output130 = Conv[auto_pad = 'NOTSET', dilations = [1, 1], group = 1, kernel_shape = [1, 7], pads = [0, 3, 0, 3], strides = [1, 1]](%activation_196/Relu:0, %conv2d_197/kernel:0)
  %batch_norm_output_buffer103 = BatchNormalization[epsilon = 9.99999997475243e-07, momentum = 0.990000009536743](%convolution_output130, %scale103, %bias103, %mean103, %var103)
  %activation_197/Relu:0 = Relu(%batch_norm_output_buffer103)
  %convolution_output123 = Conv[auto_pad = 'NOTSET', dilations = [1, 1], group = 1, kernel_shape = [7, 1], pads = [3, 0, 3, 0], strides = [1, 1]](%activation_197/Relu:0, %conv2d_198/kernel:0)
  %batch_norm_output_buffer97 = BatchNormalization[epsilon = 9.99999997475243e-07, momentum = 0.990000009536743](%convolution_output123, %scale97, %bias97, %mean97, %var97)
  %activation_198/Relu:0 = Relu(%batch_norm_output_buffer97)
  %adjusted_input122 = Transpose[perm = [0, 3, 1, 2]](%block17_6_ac/Relu:0)
  %convolution_output122 = Conv[auto_pad = 'NOTSET', dilations = [1, 1], group = 1, kernel_shape = [1, 1], pads = [0, 0, 0, 0], strides = [1, 1]](%adjusted_input122, %conv2d_195/kernel:0)
  %batch_norm_output_buffer96 = BatchNormalization[epsilon = 9.99999997475243e-07, momentum = 0.990000009536743](%convolution_output122, %scale96, %bias96, %mean96, %var96)
  %activation_195/Relu:0 = Relu(%batch_norm_output_buffer96)
  %block17_7_mixed/concat:0 = Concat[axis = 1](%activation_195/Relu:0, %activation_198/Relu:0)
  %convolution_output111 = Conv[auto_pad = 'NOTSET', dilations = [1, 1], group = 1, kernel_shape = [1, 1], pads = [0, 0, 0, 0], strides = [1, 1]](%block17_7_mixed/concat:0, %block17_7_conv/kernel:0, %block17_7_conv/bias:0)
  %transpose_output111 = Transpose[perm = [0, 2, 3, 1]](%convolution_output111)
  %TFNodes23/block17_7/mul:0 = Mul(%transpose_output111, %TFNodes23/block17_7/mul/y:0)
  %TFNodes23/block17_7/add:0 = Add(%block17_6_ac/Relu:0, %TFNodes23/block17_7/mul:0)
  %block17_7_ac/Relu:0 = Relu(%TFNodes23/block17_7/add:0)
  %adjusted_input134 = Transpose[perm = [0, 3, 1, 2]](%block17_7_ac/Relu:0)
  %convolution_output134 = Conv[auto_pad = 'NOTSET', dilations = [1, 1], group = 1, kernel_shape = [1, 1], pads = [0, 0, 0, 0], strides = [1, 1]](%adjusted_input134, %conv2d_200/kernel:0)
  %batch_norm_output_buffer106 = BatchNormalization[epsilon = 9.99999997475243e-07, momentum = 0.990000009536743](%convolution_output134, %scale106, %bias106, %mean106, %var106)
  %activation_200/Relu:0 = Relu(%batch_norm_output_buffer106)
  %convolution_output125 = Conv[auto_pad = 'NOTSET', dilations = [1, 1], group = 1, kernel_shape = [1, 7], pads = [0, 3, 0, 3], strides = [1, 1]](%activation_200/Relu:0, %conv2d_201/kernel:0)
  %batch_norm_output_buffer99 = BatchNormalization[epsilon = 9.99999997475243e-07, momentum = 0.990000009536743](%convolution_output125, %scale99, %bias99, %mean99, %var99)
  %activation_201/Relu:0 = Relu(%batch_norm_output_buffer99)
  %convolution_output118 = Conv[auto_pad = 'NOTSET', dilations = [1, 1], group = 1, kernel_shape = [7, 1], pads = [3, 0, 3, 0], strides = [1, 1]](%activation_201/Relu:0, %conv2d_202/kernel:0)
  %batch_norm_output_buffer93 = BatchNormalization[epsilon = 9.99999997475243e-07, momentum = 0.990000009536743](%convolution_output118, %scale93, %bias93, %mean93, %var93)
  %activation_202/Relu:0 = Relu(%batch_norm_output_buffer93)
  %adjusted_input117 = Transpose[perm = [0, 3, 1, 2]](%block17_7_ac/Relu:0)
  %convolution_output117 = Conv[auto_pad = 'NOTSET', dilations = [1, 1], group = 1, kernel_shape = [1, 1], pads = [0, 0, 0, 0], strides = [1, 1]](%adjusted_input117, %conv2d_199/kernel:0)
  %batch_norm_output_buffer92 = BatchNormalization[epsilon = 9.99999997475243e-07, momentum = 0.990000009536743](%convolution_output117, %scale92, %bias92, %mean92, %var92)
  %activation_199/Relu:0 = Relu(%batch_norm_output_buffer92)
  %block17_8_mixed/concat:0 = Concat[axis = 1](%activation_199/Relu:0, %activation_202/Relu:0)
  %convolution_output106 = Conv[auto_pad = 'NOTSET', dilations = [1, 1], group = 1, kernel_shape = [1, 1], pads = [0, 0, 0, 0], strides = [1, 1]](%block17_8_mixed/concat:0, %block17_8_conv/kernel:0, %block17_8_conv/bias:0)
  %transpose_output106 = Transpose[perm = [0, 2, 3, 1]](%convolution_output106)
  %TFNodes22/block17_8/mul:0 = Mul(%transpose_output106, %TFNodes22/block17_8/mul/y:0)
  %TFNodes22/block17_8/add:0 = Add(%block17_7_ac/Relu:0, %TFNodes22/block17_8/mul:0)
  %block17_8_ac/Relu:0 = Relu(%TFNodes22/block17_8/add:0)
  %adjusted_input129 = Transpose[perm = [0, 3, 1, 2]](%block17_8_ac/Relu:0)
  %convolution_output129 = Conv[auto_pad = 'NOTSET', dilations = [1, 1], group = 1, kernel_shape = [1, 1], pads = [0, 0, 0, 0], strides = [1, 1]](%adjusted_input129, %conv2d_204/kernel:0)
  %batch_norm_output_buffer102 = BatchNormalization[epsilon = 9.99999997475243e-07, momentum = 0.990000009536743](%convolution_output129, %scale102, %bias102, %mean102, %var102)
  %activation_204/Relu:0 = Relu(%batch_norm_output_buffer102)
  %convolution_output120 = Conv[auto_pad = 'NOTSET', dilations = [1, 1], group = 1, kernel_shape = [1, 7], pads = [0, 3, 0, 3], strides = [1, 1]](%activation_204/Relu:0, %conv2d_205/kernel:0)
  %batch_norm_output_buffer95 = BatchNormalization[epsilon = 9.99999997475243e-07, momentum = 0.990000009536743](%convolution_output120, %scale95, %bias95, %mean95, %var95)
  %activation_205/Relu:0 = Relu(%batch_norm_output_buffer95)
  %convolution_output113 = Conv[auto_pad = 'NOTSET', dilations = [1, 1], group = 1, kernel_shape = [7, 1], pads = [3, 0, 3, 0], strides = [1, 1]](%activation_205/Relu:0, %conv2d_206/kernel:0)
  %batch_norm_output_buffer89 = BatchNormalization[epsilon = 9.99999997475243e-07, momentum = 0.990000009536743](%convolution_output113, %scale89, %bias89, %mean89, %var89)
  %activation_206/Relu:0 = Relu(%batch_norm_output_buffer89)
  %adjusted_input112 = Transpose[perm = [0, 3, 1, 2]](%block17_8_ac/Relu:0)
  %convolution_output112 = Conv[auto_pad = 'NOTSET', dilations = [1, 1], group = 1, kernel_shape = [1, 1], pads = [0, 0, 0, 0], strides = [1, 1]](%adjusted_input112, %conv2d_203/kernel:0)
  %batch_norm_output_buffer88 = BatchNormalization[epsilon = 9.99999997475243e-07, momentum = 0.990000009536743](%convolution_output112, %scale88, %bias88, %mean88, %var88)
  %activation_203/Relu:0 = Relu(%batch_norm_output_buffer88)
  %block17_9_mixed/concat:0 = Concat[axis = 1](%activation_203/Relu:0, %activation_206/Relu:0)
  %convolution_output101 = Conv[auto_pad = 'NOTSET', dilations = [1, 1], group = 1, kernel_shape = [1, 1], pads = [0, 0, 0, 0], strides = [1, 1]](%block17_9_mixed/concat:0, %block17_9_conv/kernel:0, %block17_9_conv/bias:0)
  %transpose_output101 = Transpose[perm = [0, 2, 3, 1]](%convolution_output101)
  %TFNodes21/block17_9/mul:0 = Mul(%transpose_output101, %TFNodes21/block17_9/mul/y:0)
  %TFNodes21/block17_9/add:0 = Add(%block17_8_ac/Relu:0, %TFNodes21/block17_9/mul:0)
  %block17_9_ac/Relu:0 = Relu(%TFNodes21/block17_9/add:0)
  %adjusted_input124 = Transpose[perm = [0, 3, 1, 2]](%block17_9_ac/Relu:0)
  %convolution_output124 = Conv[auto_pad = 'NOTSET', dilations = [1, 1], group = 1, kernel_shape = [1, 1], pads = [0, 0, 0, 0], strides = [1, 1]](%adjusted_input124, %conv2d_208/kernel:0)
  %batch_norm_output_buffer98 = BatchNormalization[epsilon = 9.99999997475243e-07, momentum = 0.990000009536743](%convolution_output124, %scale98, %bias98, %mean98, %var98)
  %activation_208/Relu:0 = Relu(%batch_norm_output_buffer98)
  %convolution_output115 = Conv[auto_pad = 'NOTSET', dilations = [1, 1], group = 1, kernel_shape = [1, 7], pads = [0, 3, 0, 3], strides = [1, 1]](%activation_208/Relu:0, %conv2d_209/kernel:0)
  %batch_norm_output_buffer91 = BatchNormalization[epsilon = 9.99999997475243e-07, momentum = 0.990000009536743](%convolution_output115, %scale91, %bias91, %mean91, %var91)
  %activation_209/Relu:0 = Relu(%batch_norm_output_buffer91)
  %convolution_output108 = Conv[auto_pad = 'NOTSET', dilations = [1, 1], group = 1, kernel_shape = [7, 1], pads = [3, 0, 3, 0], strides = [1, 1]](%activation_209/Relu:0, %conv2d_210/kernel:0)
  %batch_norm_output_buffer85 = BatchNormalization[epsilon = 9.99999997475243e-07, momentum = 0.990000009536743](%convolution_output108, %scale85, %bias85, %mean85, %var85)
  %activation_210/Relu:0 = Relu(%batch_norm_output_buffer85)
  %adjusted_input107 = Transpose[perm = [0, 3, 1, 2]](%block17_9_ac/Relu:0)
  %convolution_output107 = Conv[auto_pad = 'NOTSET', dilations = [1, 1], group = 1, kernel_shape = [1, 1], pads = [0, 0, 0, 0], strides = [1, 1]](%adjusted_input107, %conv2d_207/kernel:0)
  %batch_norm_output_buffer84 = BatchNormalization[epsilon = 9.99999997475243e-07, momentum = 0.990000009536743](%convolution_output107, %scale84, %bias84, %mean84, %var84)
  %activation_207/Relu:0 = Relu(%batch_norm_output_buffer84)
  %block17_10_mixed/concat:0 = Concat[axis = 1](%activation_207/Relu:0, %activation_210/Relu:0)
  %convolution_output96 = Conv[auto_pad = 'NOTSET', dilations = [1, 1], group = 1, kernel_shape = [1, 1], pads = [0, 0, 0, 0], strides = [1, 1]](%block17_10_mixed/concat:0, %block17_10_conv/kernel:0, %block17_10_conv/bias:0)
  %transpose_output96 = Transpose[perm = [0, 2, 3, 1]](%convolution_output96)
  %TFNodes20/block17_10/mul:0 = Mul(%transpose_output96, %TFNodes20/block17_10/mul/y:0)
  %TFNodes20/block17_10/add:0 = Add(%block17_9_ac/Relu:0, %TFNodes20/block17_10/mul:0)
  %block17_10_ac/Relu:0 = Relu(%TFNodes20/block17_10/add:0)
  %adjusted_input119 = Transpose[perm = [0, 3, 1, 2]](%block17_10_ac/Relu:0)
  %convolution_output119 = Conv[auto_pad = 'NOTSET', dilations = [1, 1], group = 1, kernel_shape = [1, 1], pads = [0, 0, 0, 0], strides = [1, 1]](%adjusted_input119, %conv2d_212/kernel:0)
  %batch_norm_output_buffer94 = BatchNormalization[epsilon = 9.99999997475243e-07, momentum = 0.990000009536743](%convolution_output119, %scale94, %bias94, %mean94, %var94)
  %activation_212/Relu:0 = Relu(%batch_norm_output_buffer94)
  %convolution_output110 = Conv[auto_pad = 'NOTSET', dilations = [1, 1], group = 1, kernel_shape = [1, 7], pads = [0, 3, 0, 3], strides = [1, 1]](%activation_212/Relu:0, %conv2d_213/kernel:0)
  %batch_norm_output_buffer87 = BatchNormalization[epsilon = 9.99999997475243e-07, momentum = 0.990000009536743](%convolution_output110, %scale87, %bias87, %mean87, %var87)
  %activation_213/Relu:0 = Relu(%batch_norm_output_buffer87)
  %convolution_output103 = Conv[auto_pad = 'NOTSET', dilations = [1, 1], group = 1, kernel_shape = [7, 1], pads = [3, 0, 3, 0], strides = [1, 1]](%activation_213/Relu:0, %conv2d_214/kernel:0)
  %batch_norm_output_buffer81 = BatchNormalization[epsilon = 9.99999997475243e-07, momentum = 0.990000009536743](%convolution_output103, %scale81, %bias81, %mean81, %var81)
  %activation_214/Relu:0 = Relu(%batch_norm_output_buffer81)
  %adjusted_input102 = Transpose[perm = [0, 3, 1, 2]](%block17_10_ac/Relu:0)
  %convolution_output102 = Conv[auto_pad = 'NOTSET', dilations = [1, 1], group = 1, kernel_shape = [1, 1], pads = [0, 0, 0, 0], strides = [1, 1]](%adjusted_input102, %conv2d_211/kernel:0)
  %batch_norm_output_buffer80 = BatchNormalization[epsilon = 9.99999997475243e-07, momentum = 0.990000009536743](%convolution_output102, %scale80, %bias80, %mean80, %var80)
  %activation_211/Relu:0 = Relu(%batch_norm_output_buffer80)
  %block17_11_mixed/concat:0 = Concat[axis = 1](%activation_211/Relu:0, %activation_214/Relu:0)
  %convolution_output91 = Conv[auto_pad = 'NOTSET', dilations = [1, 1], group = 1, kernel_shape = [1, 1], pads = [0, 0, 0, 0], strides = [1, 1]](%block17_11_mixed/concat:0, %block17_11_conv/kernel:0, %block17_11_conv/bias:0)
  %transpose_output91 = Transpose[perm = [0, 2, 3, 1]](%convolution_output91)
  %TFNodes19/block17_11/mul:0 = Mul(%transpose_output91, %TFNodes19/block17_11/mul/y:0)
  %TFNodes19/block17_11/add:0 = Add(%block17_10_ac/Relu:0, %TFNodes19/block17_11/mul:0)
  %block17_11_ac/Relu:0 = Relu(%TFNodes19/block17_11/add:0)
  %adjusted_input114 = Transpose[perm = [0, 3, 1, 2]](%block17_11_ac/Relu:0)
  %convolution_output114 = Conv[auto_pad = 'NOTSET', dilations = [1, 1], group = 1, kernel_shape = [1, 1], pads = [0, 0, 0, 0], strides = [1, 1]](%adjusted_input114, %conv2d_216/kernel:0)
  %batch_norm_output_buffer90 = BatchNormalization[epsilon = 9.99999997475243e-07, momentum = 0.990000009536743](%convolution_output114, %scale90, %bias90, %mean90, %var90)
  %activation_216/Relu:0 = Relu(%batch_norm_output_buffer90)
  %convolution_output105 = Conv[auto_pad = 'NOTSET', dilations = [1, 1], group = 1, kernel_shape = [1, 7], pads = [0, 3, 0, 3], strides = [1, 1]](%activation_216/Relu:0, %conv2d_217/kernel:0)
  %batch_norm_output_buffer83 = BatchNormalization[epsilon = 9.99999997475243e-07, momentum = 0.990000009536743](%convolution_output105, %scale83, %bias83, %mean83, %var83)
  %activation_217/Relu:0 = Relu(%batch_norm_output_buffer83)
  %convolution_output98 = Conv[auto_pad = 'NOTSET', dilations = [1, 1], group = 1, kernel_shape = [7, 1], pads = [3, 0, 3, 0], strides = [1, 1]](%activation_217/Relu:0, %conv2d_218/kernel:0)
  %batch_norm_output_buffer77 = BatchNormalization[epsilon = 9.99999997475243e-07, momentum = 0.990000009536743](%convolution_output98, %scale77, %bias77, %mean77, %var77)
  %activation_218/Relu:0 = Relu(%batch_norm_output_buffer77)
  %adjusted_input97 = Transpose[perm = [0, 3, 1, 2]](%block17_11_ac/Relu:0)
  %convolution_output97 = Conv[auto_pad = 'NOTSET', dilations = [1, 1], group = 1, kernel_shape = [1, 1], pads = [0, 0, 0, 0], strides = [1, 1]](%adjusted_input97, %conv2d_215/kernel:0)
  %batch_norm_output_buffer76 = BatchNormalization[epsilon = 9.99999997475243e-07, momentum = 0.990000009536743](%convolution_output97, %scale76, %bias76, %mean76, %var76)
  %activation_215/Relu:0 = Relu(%batch_norm_output_buffer76)
  %block17_12_mixed/concat:0 = Concat[axis = 1](%activation_215/Relu:0, %activation_218/Relu:0)
  %convolution_output86 = Conv[auto_pad = 'NOTSET', dilations = [1, 1], group = 1, kernel_shape = [1, 1], pads = [0, 0, 0, 0], strides = [1, 1]](%block17_12_mixed/concat:0, %block17_12_conv/kernel:0, %block17_12_conv/bias:0)
  %transpose_output86 = Transpose[perm = [0, 2, 3, 1]](%convolution_output86)
  %TFNodes18/block17_12/mul:0 = Mul(%transpose_output86, %TFNodes18/block17_12/mul/y:0)
  %TFNodes18/block17_12/add:0 = Add(%block17_11_ac/Relu:0, %TFNodes18/block17_12/mul:0)
  %block17_12_ac/Relu:0 = Relu(%TFNodes18/block17_12/add:0)
  %adjusted_input109 = Transpose[perm = [0, 3, 1, 2]](%block17_12_ac/Relu:0)
  %convolution_output109 = Conv[auto_pad = 'NOTSET', dilations = [1, 1], group = 1, kernel_shape = [1, 1], pads = [0, 0, 0, 0], strides = [1, 1]](%adjusted_input109, %conv2d_220/kernel:0)
  %batch_norm_output_buffer86 = BatchNormalization[epsilon = 9.99999997475243e-07, momentum = 0.990000009536743](%convolution_output109, %scale86, %bias86, %mean86, %var86)
  %activation_220/Relu:0 = Relu(%batch_norm_output_buffer86)
  %convolution_output100 = Conv[auto_pad = 'NOTSET', dilations = [1, 1], group = 1, kernel_shape = [1, 7], pads = [0, 3, 0, 3], strides = [1, 1]](%activation_220/Relu:0, %conv2d_221/kernel:0)
  %batch_norm_output_buffer79 = BatchNormalization[epsilon = 9.99999997475243e-07, momentum = 0.990000009536743](%convolution_output100, %scale79, %bias79, %mean79, %var79)
  %activation_221/Relu:0 = Relu(%batch_norm_output_buffer79)
  %convolution_output93 = Conv[auto_pad = 'NOTSET', dilations = [1, 1], group = 1, kernel_shape = [7, 1], pads = [3, 0, 3, 0], strides = [1, 1]](%activation_221/Relu:0, %conv2d_222/kernel:0)
  %batch_norm_output_buffer73 = BatchNormalization[epsilon = 9.99999997475243e-07, momentum = 0.990000009536743](%convolution_output93, %scale73, %bias73, %mean73, %var73)
  %activation_222/Relu:0 = Relu(%batch_norm_output_buffer73)
  %adjusted_input92 = Transpose[perm = [0, 3, 1, 2]](%block17_12_ac/Relu:0)
  %convolution_output92 = Conv[auto_pad = 'NOTSET', dilations = [1, 1], group = 1, kernel_shape = [1, 1], pads = [0, 0, 0, 0], strides = [1, 1]](%adjusted_input92, %conv2d_219/kernel:0)
  %batch_norm_output_buffer72 = BatchNormalization[epsilon = 9.99999997475243e-07, momentum = 0.990000009536743](%convolution_output92, %scale72, %bias72, %mean72, %var72)
  %activation_219/Relu:0 = Relu(%batch_norm_output_buffer72)
  %block17_13_mixed/concat:0 = Concat[axis = 1](%activation_219/Relu:0, %activation_222/Relu:0)
  %convolution_output81 = Conv[auto_pad = 'NOTSET', dilations = [1, 1], group = 1, kernel_shape = [1, 1], pads = [0, 0, 0, 0], strides = [1, 1]](%block17_13_mixed/concat:0, %block17_13_conv/kernel:0, %block17_13_conv/bias:0)
  %transpose_output81 = Transpose[perm = [0, 2, 3, 1]](%convolution_output81)
  %TFNodes17/block17_13/mul:0 = Mul(%transpose_output81, %TFNodes17/block17_13/mul/y:0)
  %TFNodes17/block17_13/add:0 = Add(%block17_12_ac/Relu:0, %TFNodes17/block17_13/mul:0)
  %block17_13_ac/Relu:0 = Relu(%TFNodes17/block17_13/add:0)
  %adjusted_input104 = Transpose[perm = [0, 3, 1, 2]](%block17_13_ac/Relu:0)
  %convolution_output104 = Conv[auto_pad = 'NOTSET', dilations = [1, 1], group = 1, kernel_shape = [1, 1], pads = [0, 0, 0, 0], strides = [1, 1]](%adjusted_input104, %conv2d_224/kernel:0)
  %batch_norm_output_buffer82 = BatchNormalization[epsilon = 9.99999997475243e-07, momentum = 0.990000009536743](%convolution_output104, %scale82, %bias82, %mean82, %var82)
  %activation_224/Relu:0 = Relu(%batch_norm_output_buffer82)
  %convolution_output95 = Conv[auto_pad = 'NOTSET', dilations = [1, 1], group = 1, kernel_shape = [1, 7], pads = [0, 3, 0, 3], strides = [1, 1]](%activation_224/Relu:0, %conv2d_225/kernel:0)
  %batch_norm_output_buffer75 = BatchNormalization[epsilon = 9.99999997475243e-07, momentum = 0.990000009536743](%convolution_output95, %scale75, %bias75, %mean75, %var75)
  %activation_225/Relu:0 = Relu(%batch_norm_output_buffer75)
  %convolution_output88 = Conv[auto_pad = 'NOTSET', dilations = [1, 1], group = 1, kernel_shape = [7, 1], pads = [3, 0, 3, 0], strides = [1, 1]](%activation_225/Relu:0, %conv2d_226/kernel:0)
  %batch_norm_output_buffer69 = BatchNormalization[epsilon = 9.99999997475243e-07, momentum = 0.990000009536743](%convolution_output88, %scale69, %bias69, %mean69, %var69)
  %activation_226/Relu:0 = Relu(%batch_norm_output_buffer69)
  %adjusted_input87 = Transpose[perm = [0, 3, 1, 2]](%block17_13_ac/Relu:0)
  %convolution_output87 = Conv[auto_pad = 'NOTSET', dilations = [1, 1], group = 1, kernel_shape = [1, 1], pads = [0, 0, 0, 0], strides = [1, 1]](%adjusted_input87, %conv2d_223/kernel:0)
  %batch_norm_output_buffer68 = BatchNormalization[epsilon = 9.99999997475243e-07, momentum = 0.990000009536743](%convolution_output87, %scale68, %bias68, %mean68, %var68)
  %activation_223/Relu:0 = Relu(%batch_norm_output_buffer68)
  %block17_14_mixed/concat:0 = Concat[axis = 1](%activation_223/Relu:0, %activation_226/Relu:0)
  %convolution_output76 = Conv[auto_pad = 'NOTSET', dilations = [1, 1], group = 1, kernel_shape = [1, 1], pads = [0, 0, 0, 0], strides = [1, 1]](%block17_14_mixed/concat:0, %block17_14_conv/kernel:0, %block17_14_conv/bias:0)
  %transpose_output76 = Transpose[perm = [0, 2, 3, 1]](%convolution_output76)
  %TFNodes16/block17_14/mul:0 = Mul(%transpose_output76, %TFNodes16/block17_14/mul/y:0)
  %TFNodes16/block17_14/add:0 = Add(%block17_13_ac/Relu:0, %TFNodes16/block17_14/mul:0)
  %block17_14_ac/Relu:0 = Relu(%TFNodes16/block17_14/add:0)
  %adjusted_input99 = Transpose[perm = [0, 3, 1, 2]](%block17_14_ac/Relu:0)
  %convolution_output99 = Conv[auto_pad = 'NOTSET', dilations = [1, 1], group = 1, kernel_shape = [1, 1], pads = [0, 0, 0, 0], strides = [1, 1]](%adjusted_input99, %conv2d_228/kernel:0)
  %batch_norm_output_buffer78 = BatchNormalization[epsilon = 9.99999997475243e-07, momentum = 0.990000009536743](%convolution_output99, %scale78, %bias78, %mean78, %var78)
  %activation_228/Relu:0 = Relu(%batch_norm_output_buffer78)
  %convolution_output90 = Conv[auto_pad = 'NOTSET', dilations = [1, 1], group = 1, kernel_shape = [1, 7], pads = [0, 3, 0, 3], strides = [1, 1]](%activation_228/Relu:0, %conv2d_229/kernel:0)
  %batch_norm_output_buffer71 = BatchNormalization[epsilon = 9.99999997475243e-07, momentum = 0.990000009536743](%convolution_output90, %scale71, %bias71, %mean71, %var71)
  %activation_229/Relu:0 = Relu(%batch_norm_output_buffer71)
  %convolution_output83 = Conv[auto_pad = 'NOTSET', dilations = [1, 1], group = 1, kernel_shape = [7, 1], pads = [3, 0, 3, 0], strides = [1, 1]](%activation_229/Relu:0, %conv2d_230/kernel:0)
  %batch_norm_output_buffer65 = BatchNormalization[epsilon = 9.99999997475243e-07, momentum = 0.990000009536743](%convolution_output83, %scale65, %bias65, %mean65, %var65)
  %activation_230/Relu:0 = Relu(%batch_norm_output_buffer65)
  %adjusted_input82 = Transpose[perm = [0, 3, 1, 2]](%block17_14_ac/Relu:0)
  %convolution_output82 = Conv[auto_pad = 'NOTSET', dilations = [1, 1], group = 1, kernel_shape = [1, 1], pads = [0, 0, 0, 0], strides = [1, 1]](%adjusted_input82, %conv2d_227/kernel:0)
  %batch_norm_output_buffer64 = BatchNormalization[epsilon = 9.99999997475243e-07, momentum = 0.990000009536743](%convolution_output82, %scale64, %bias64, %mean64, %var64)
  %activation_227/Relu:0 = Relu(%batch_norm_output_buffer64)
  %block17_15_mixed/concat:0 = Concat[axis = 1](%activation_227/Relu:0, %activation_230/Relu:0)
  %convolution_output71 = Conv[auto_pad = 'NOTSET', dilations = [1, 1], group = 1, kernel_shape = [1, 1], pads = [0, 0, 0, 0], strides = [1, 1]](%block17_15_mixed/concat:0, %block17_15_conv/kernel:0, %block17_15_conv/bias:0)
  %transpose_output71 = Transpose[perm = [0, 2, 3, 1]](%convolution_output71)
  %TFNodes15/block17_15/mul:0 = Mul(%transpose_output71, %TFNodes15/block17_15/mul/y:0)
  %TFNodes15/block17_15/add:0 = Add(%block17_14_ac/Relu:0, %TFNodes15/block17_15/mul:0)
  %block17_15_ac/Relu:0 = Relu(%TFNodes15/block17_15/add:0)
  %adjusted_input94 = Transpose[perm = [0, 3, 1, 2]](%block17_15_ac/Relu:0)
  %convolution_output94 = Conv[auto_pad = 'NOTSET', dilations = [1, 1], group = 1, kernel_shape = [1, 1], pads = [0, 0, 0, 0], strides = [1, 1]](%adjusted_input94, %conv2d_232/kernel:0)
  %batch_norm_output_buffer74 = BatchNormalization[epsilon = 9.99999997475243e-07, momentum = 0.990000009536743](%convolution_output94, %scale74, %bias74, %mean74, %var74)
  %activation_232/Relu:0 = Relu(%batch_norm_output_buffer74)
  %convolution_output85 = Conv[auto_pad = 'NOTSET', dilations = [1, 1], group = 1, kernel_shape = [1, 7], pads = [0, 3, 0, 3], strides = [1, 1]](%activation_232/Relu:0, %conv2d_233/kernel:0)
  %batch_norm_output_buffer67 = BatchNormalization[epsilon = 9.99999997475243e-07, momentum = 0.990000009536743](%convolution_output85, %scale67, %bias67, %mean67, %var67)
  %activation_233/Relu:0 = Relu(%batch_norm_output_buffer67)
  %convolution_output78 = Conv[auto_pad = 'NOTSET', dilations = [1, 1], group = 1, kernel_shape = [7, 1], pads = [3, 0, 3, 0], strides = [1, 1]](%activation_233/Relu:0, %conv2d_234/kernel:0)
  %batch_norm_output_buffer61 = BatchNormalization[epsilon = 9.99999997475243e-07, momentum = 0.990000009536743](%convolution_output78, %scale61, %bias61, %mean61, %var61)
  %activation_234/Relu:0 = Relu(%batch_norm_output_buffer61)
  %adjusted_input77 = Transpose[perm = [0, 3, 1, 2]](%block17_15_ac/Relu:0)
  %convolution_output77 = Conv[auto_pad = 'NOTSET', dilations = [1, 1], group = 1, kernel_shape = [1, 1], pads = [0, 0, 0, 0], strides = [1, 1]](%adjusted_input77, %conv2d_231/kernel:0)
  %batch_norm_output_buffer60 = BatchNormalization[epsilon = 9.99999997475243e-07, momentum = 0.990000009536743](%convolution_output77, %scale60, %bias60, %mean60, %var60)
  %activation_231/Relu:0 = Relu(%batch_norm_output_buffer60)
  %block17_16_mixed/concat:0 = Concat[axis = 1](%activation_231/Relu:0, %activation_234/Relu:0)
  %convolution_output67 = Conv[auto_pad = 'NOTSET', dilations = [1, 1], group = 1, kernel_shape = [1, 1], pads = [0, 0, 0, 0], strides = [1, 1]](%block17_16_mixed/concat:0, %block17_16_conv/kernel:0, %block17_16_conv/bias:0)
  %transpose_output67 = Transpose[perm = [0, 2, 3, 1]](%convolution_output67)
  %TFNodes14/block17_16/mul:0 = Mul(%transpose_output67, %TFNodes14/block17_16/mul/y:0)
  %TFNodes14/block17_16/add:0 = Add(%block17_15_ac/Relu:0, %TFNodes14/block17_16/mul:0)
  %block17_16_ac/Relu:0 = Relu(%TFNodes14/block17_16/add:0)
  %adjusted_input89 = Transpose[perm = [0, 3, 1, 2]](%block17_16_ac/Relu:0)
  %convolution_output89 = Conv[auto_pad = 'NOTSET', dilations = [1, 1], group = 1, kernel_shape = [1, 1], pads = [0, 0, 0, 0], strides = [1, 1]](%adjusted_input89, %conv2d_236/kernel:0)
  %batch_norm_output_buffer70 = BatchNormalization[epsilon = 9.99999997475243e-07, momentum = 0.990000009536743](%convolution_output89, %scale70, %bias70, %mean70, %var70)
  %activation_236/Relu:0 = Relu(%batch_norm_output_buffer70)
  %convolution_output80 = Conv[auto_pad = 'NOTSET', dilations = [1, 1], group = 1, kernel_shape = [1, 7], pads = [0, 3, 0, 3], strides = [1, 1]](%activation_236/Relu:0, %conv2d_237/kernel:0)
  %batch_norm_output_buffer63 = BatchNormalization[epsilon = 9.99999997475243e-07, momentum = 0.990000009536743](%convolution_output80, %scale63, %bias63, %mean63, %var63)
  %activation_237/Relu:0 = Relu(%batch_norm_output_buffer63)
  %convolution_output73 = Conv[auto_pad = 'NOTSET', dilations = [1, 1], group = 1, kernel_shape = [7, 1], pads = [3, 0, 3, 0], strides = [1, 1]](%activation_237/Relu:0, %conv2d_238/kernel:0)
  %batch_norm_output_buffer57 = BatchNormalization[epsilon = 9.99999997475243e-07, momentum = 0.990000009536743](%convolution_output73, %scale57, %bias57, %mean57, %var57)
  %activation_238/Relu:0 = Relu(%batch_norm_output_buffer57)
  %adjusted_input72 = Transpose[perm = [0, 3, 1, 2]](%block17_16_ac/Relu:0)
  %convolution_output72 = Conv[auto_pad = 'NOTSET', dilations = [1, 1], group = 1, kernel_shape = [1, 1], pads = [0, 0, 0, 0], strides = [1, 1]](%adjusted_input72, %conv2d_235/kernel:0)
  %batch_norm_output_buffer56 = BatchNormalization[epsilon = 9.99999997475243e-07, momentum = 0.990000009536743](%convolution_output72, %scale56, %bias56, %mean56, %var56)
  %activation_235/Relu:0 = Relu(%batch_norm_output_buffer56)
  %block17_17_mixed/concat:0 = Concat[axis = 1](%activation_235/Relu:0, %activation_238/Relu:0)
  %convolution_output62 = Conv[auto_pad = 'NOTSET', dilations = [1, 1], group = 1, kernel_shape = [1, 1], pads = [0, 0, 0, 0], strides = [1, 1]](%block17_17_mixed/concat:0, %block17_17_conv/kernel:0, %block17_17_conv/bias:0)
  %transpose_output62 = Transpose[perm = [0, 2, 3, 1]](%convolution_output62)
  %TFNodes13/block17_17/mul:0 = Mul(%transpose_output62, %TFNodes13/block17_17/mul/y:0)
  %TFNodes13/block17_17/add:0 = Add(%block17_16_ac/Relu:0, %TFNodes13/block17_17/mul:0)
  %block17_17_ac/Relu:0 = Relu(%TFNodes13/block17_17/add:0)
  %adjusted_input84 = Transpose[perm = [0, 3, 1, 2]](%block17_17_ac/Relu:0)
  %convolution_output84 = Conv[auto_pad = 'NOTSET', dilations = [1, 1], group = 1, kernel_shape = [1, 1], pads = [0, 0, 0, 0], strides = [1, 1]](%adjusted_input84, %conv2d_240/kernel:0)
  %batch_norm_output_buffer66 = BatchNormalization[epsilon = 9.99999997475243e-07, momentum = 0.990000009536743](%convolution_output84, %scale66, %bias66, %mean66, %var66)
  %activation_240/Relu:0 = Relu(%batch_norm_output_buffer66)
  %convolution_output75 = Conv[auto_pad = 'NOTSET', dilations = [1, 1], group = 1, kernel_shape = [1, 7], pads = [0, 3, 0, 3], strides = [1, 1]](%activation_240/Relu:0, %conv2d_241/kernel:0)
  %batch_norm_output_buffer59 = BatchNormalization[epsilon = 9.99999997475243e-07, momentum = 0.990000009536743](%convolution_output75, %scale59, %bias59, %mean59, %var59)
  %activation_241/Relu:0 = Relu(%batch_norm_output_buffer59)
  %convolution_output69 = Conv[auto_pad = 'NOTSET', dilations = [1, 1], group = 1, kernel_shape = [7, 1], pads = [3, 0, 3, 0], strides = [1, 1]](%activation_241/Relu:0, %conv2d_242/kernel:0)
  %batch_norm_output_buffer54 = BatchNormalization[epsilon = 9.99999997475243e-07, momentum = 0.990000009536743](%convolution_output69, %scale54, %bias54, %mean54, %var54)
  %activation_242/Relu:0 = Relu(%batch_norm_output_buffer54)
  %adjusted_input68 = Transpose[perm = [0, 3, 1, 2]](%block17_17_ac/Relu:0)
  %convolution_output68 = Conv[auto_pad = 'NOTSET', dilations = [1, 1], group = 1, kernel_shape = [1, 1], pads = [0, 0, 0, 0], strides = [1, 1]](%adjusted_input68, %conv2d_239/kernel:0)
  %batch_norm_output_buffer53 = BatchNormalization[epsilon = 9.99999997475243e-07, momentum = 0.990000009536743](%convolution_output68, %scale53, %bias53, %mean53, %var53)
  %activation_239/Relu:0 = Relu(%batch_norm_output_buffer53)
  %block17_18_mixed/concat:0 = Concat[axis = 1](%activation_239/Relu:0, %activation_242/Relu:0)
  %convolution_output57 = Conv[auto_pad = 'NOTSET', dilations = [1, 1], group = 1, kernel_shape = [1, 1], pads = [0, 0, 0, 0], strides = [1, 1]](%block17_18_mixed/concat:0, %block17_18_conv/kernel:0, %block17_18_conv/bias:0)
  %transpose_output57 = Transpose[perm = [0, 2, 3, 1]](%convolution_output57)
  %TFNodes12/block17_18/mul:0 = Mul(%transpose_output57, %TFNodes12/block17_18/mul/y:0)
  %TFNodes12/block17_18/add:0 = Add(%block17_17_ac/Relu:0, %TFNodes12/block17_18/mul:0)
  %block17_18_ac/Relu:0 = Relu(%TFNodes12/block17_18/add:0)
  %adjusted_input79 = Transpose[perm = [0, 3, 1, 2]](%block17_18_ac/Relu:0)
  %convolution_output79 = Conv[auto_pad = 'NOTSET', dilations = [1, 1], group = 1, kernel_shape = [1, 1], pads = [0, 0, 0, 0], strides = [1, 1]](%adjusted_input79, %conv2d_244/kernel:0)
  %batch_norm_output_buffer62 = BatchNormalization[epsilon = 9.99999997475243e-07, momentum = 0.990000009536743](%convolution_output79, %scale62, %bias62, %mean62, %var62)
  %activation_244/Relu:0 = Relu(%batch_norm_output_buffer62)
  %convolution_output70 = Conv[auto_pad = 'NOTSET', dilations = [1, 1], group = 1, kernel_shape = [1, 7], pads = [0, 3, 0, 3], strides = [1, 1]](%activation_244/Relu:0, %conv2d_245/kernel:0)
  %batch_norm_output_buffer55 = BatchNormalization[epsilon = 9.99999997475243e-07, momentum = 0.990000009536743](%convolution_output70, %scale55, %bias55, %mean55, %var55)
  %activation_245/Relu:0 = Relu(%batch_norm_output_buffer55)
  %convolution_output64 = Conv[auto_pad = 'NOTSET', dilations = [1, 1], group = 1, kernel_shape = [7, 1], pads = [3, 0, 3, 0], strides = [1, 1]](%activation_245/Relu:0, %conv2d_246/kernel:0)
  %batch_norm_output_buffer50 = BatchNormalization[epsilon = 9.99999997475243e-07, momentum = 0.990000009536743](%convolution_output64, %scale50, %bias50, %mean50, %var50)
  %activation_246/Relu:0 = Relu(%batch_norm_output_buffer50)
  %adjusted_input63 = Transpose[perm = [0, 3, 1, 2]](%block17_18_ac/Relu:0)
  %convolution_output63 = Conv[auto_pad = 'NOTSET', dilations = [1, 1], group = 1, kernel_shape = [1, 1], pads = [0, 0, 0, 0], strides = [1, 1]](%adjusted_input63, %conv2d_243/kernel:0)
  %batch_norm_output_buffer49 = BatchNormalization[epsilon = 9.99999997475243e-07, momentum = 0.990000009536743](%convolution_output63, %scale49, %bias49, %mean49, %var49)
  %activation_243/Relu:0 = Relu(%batch_norm_output_buffer49)
  %block17_19_mixed/concat:0 = Concat[axis = 1](%activation_243/Relu:0, %activation_246/Relu:0)
  %convolution_output54 = Conv[auto_pad = 'NOTSET', dilations = [1, 1], group = 1, kernel_shape = [1, 1], pads = [0, 0, 0, 0], strides = [1, 1]](%block17_19_mixed/concat:0, %block17_19_conv/kernel:0, %block17_19_conv/bias:0)
  %transpose_output54 = Transpose[perm = [0, 2, 3, 1]](%convolution_output54)
  %TFNodes11/block17_19/mul:0 = Mul(%transpose_output54, %TFNodes11/block17_19/mul/y:0)
  %TFNodes11/block17_19/add:0 = Add(%block17_18_ac/Relu:0, %TFNodes11/block17_19/mul:0)
  %block17_19_ac/Relu:0 = Relu(%TFNodes11/block17_19/add:0)
  %adjusted_input74 = Transpose[perm = [0, 3, 1, 2]](%block17_19_ac/Relu:0)
  %convolution_output74 = Conv[auto_pad = 'NOTSET', dilations = [1, 1], group = 1, kernel_shape = [1, 1], pads = [0, 0, 0, 0], strides = [1, 1]](%adjusted_input74, %conv2d_248/kernel:0)
  %batch_norm_output_buffer58 = BatchNormalization[epsilon = 9.99999997475243e-07, momentum = 0.990000009536743](%convolution_output74, %scale58, %bias58, %mean58, %var58)
  %activation_248/Relu:0 = Relu(%batch_norm_output_buffer58)
  %convolution_output66 = Conv[auto_pad = 'NOTSET', dilations = [1, 1], group = 1, kernel_shape = [1, 7], pads = [0, 3, 0, 3], strides = [1, 1]](%activation_248/Relu:0, %conv2d_249/kernel:0)
  %batch_norm_output_buffer52 = BatchNormalization[epsilon = 9.99999997475243e-07, momentum = 0.990000009536743](%convolution_output66, %scale52, %bias52, %mean52, %var52)
  %activation_249/Relu:0 = Relu(%batch_norm_output_buffer52)
  %convolution_output59 = Conv[auto_pad = 'NOTSET', dilations = [1, 1], group = 1, kernel_shape = [7, 1], pads = [3, 0, 3, 0], strides = [1, 1]](%activation_249/Relu:0, %conv2d_250/kernel:0)
  %batch_norm_output_buffer46 = BatchNormalization[epsilon = 9.99999997475243e-07, momentum = 0.990000009536743](%convolution_output59, %scale46, %bias46, %mean46, %var46)
  %activation_250/Relu:0 = Relu(%batch_norm_output_buffer46)
  %adjusted_input58 = Transpose[perm = [0, 3, 1, 2]](%block17_19_ac/Relu:0)
  %convolution_output58 = Conv[auto_pad = 'NOTSET', dilations = [1, 1], group = 1, kernel_shape = [1, 1], pads = [0, 0, 0, 0], strides = [1, 1]](%adjusted_input58, %conv2d_247/kernel:0)
  %batch_norm_output_buffer45 = BatchNormalization[epsilon = 9.99999997475243e-07, momentum = 0.990000009536743](%convolution_output58, %scale45, %bias45, %mean45, %var45)
  %activation_247/Relu:0 = Relu(%batch_norm_output_buffer45)
  %block17_20_mixed/concat:0 = Concat[axis = 1](%activation_247/Relu:0, %activation_250/Relu:0)
  %convolution_output46 = Conv[auto_pad = 'NOTSET', dilations = [1, 1], group = 1, kernel_shape = [1, 1], pads = [0, 0, 0, 0], strides = [1, 1]](%block17_20_mixed/concat:0, %block17_20_conv/kernel:0, %block17_20_conv/bias:0)
  %transpose_output46 = Transpose[perm = [0, 2, 3, 1]](%convolution_output46)
  %TFNodes10/block17_20/mul:0 = Mul(%transpose_output46, %TFNodes10/block17_20/mul/y:0)
  %TFNodes10/block17_20/add:0 = Add(%block17_19_ac/Relu:0, %TFNodes10/block17_20/mul:0)
  %block17_20_ac/Relu:0 = Relu(%TFNodes10/block17_20/add:0)
  %adjusted_input61 = Transpose[perm = [0, 3, 1, 2]](%block17_20_ac/Relu:0)
  %convolution_output61 = Conv[auto_pad = 'NOTSET', dilations = [1, 1], group = 1, kernel_shape = [1, 1], pads = [0, 0, 0, 0], strides = [1, 1]](%adjusted_input61, %conv2d_255/kernel:0)
  %batch_norm_output_buffer48 = BatchNormalization[epsilon = 9.99999997475243e-07, momentum = 0.990000009536743](%convolution_output61, %scale48, %bias48, %mean48, %var48)
  %activation_255/Relu:0 = Relu(%batch_norm_output_buffer48)
  %convolution_output53 = Conv[auto_pad = 'NOTSET', dilations = [1, 1], group = 1, kernel_shape = [3, 3], pads = [1, 1, 1, 1], strides = [1, 1]](%activation_255/Relu:0, %conv2d_256/kernel:0)
  %batch_norm_output_buffer42 = BatchNormalization[epsilon = 9.99999997475243e-07, momentum = 0.990000009536743](%convolution_output53, %scale42, %bias42, %mean42, %var42)
  %activation_256/Relu:0 = Relu(%batch_norm_output_buffer42)
  %convolution_output44 = Conv[auto_pad = 'VALID', dilations = [1, 1], group = 1, kernel_shape = [3, 3], strides = [2, 2]](%activation_256/Relu:0, %conv2d_257/kernel:0)
  %adjusted_input52 = Transpose[perm = [0, 3, 1, 2]](%block17_20_ac/Relu:0)
  %convolution_output52 = Conv[auto_pad = 'NOTSET', dilations = [1, 1], group = 1, kernel_shape = [1, 1], pads = [0, 0, 0, 0], strides = [1, 1]](%adjusted_input52, %conv2d_253/kernel:0)
  %batch_norm_output_buffer41 = BatchNormalization[epsilon = 9.99999997475243e-07, momentum = 0.990000009536743](%convolution_output52, %scale41, %bias41, %mean41, %var41)
  %activation_253/Relu:0 = Relu(%batch_norm_output_buffer41)
  %convolution_output43 = Conv[auto_pad = 'VALID', dilations = [1, 1], group = 1, kernel_shape = [3, 3], strides = [2, 2]](%activation_253/Relu:0, %conv2d_254/kernel:0)
  %adjusted_input51 = Transpose[perm = [0, 3, 1, 2]](%block17_20_ac/Relu:0)
  %convolution_output51 = Conv[auto_pad = 'NOTSET', dilations = [1, 1], group = 1, kernel_shape = [1, 1], pads = [0, 0, 0, 0], strides = [1, 1]](%adjusted_input51, %conv2d_251/kernel:0)
  %batch_norm_output_buffer40 = BatchNormalization[epsilon = 9.99999997475243e-07, momentum = 0.990000009536743](%convolution_output51, %scale40, %bias40, %mean40, %var40)
  %activation_251/Relu:0 = Relu(%batch_norm_output_buffer40)
  %convolution_output42 = Conv[auto_pad = 'VALID', dilations = [1, 1], group = 1, kernel_shape = [3, 3], strides = [2, 2]](%activation_251/Relu:0, %conv2d_252/kernel:0)
  %batch_norm_output_buffer34 = BatchNormalization[epsilon = 9.99999997475243e-07, momentum = 0.990000009536743](%convolution_output44, %scale34, %bias34, %mean34, %var34)
  %batch_norm_output_buffer33 = BatchNormalization[epsilon = 9.99999997475243e-07, momentum = 0.990000009536743](%convolution_output43, %scale33, %bias33, %mean33, %var33)
  %batch_norm_output_buffer32 = BatchNormalization[epsilon = 9.99999997475243e-07, momentum = 0.990000009536743](%convolution_output42, %scale32, %bias32, %mean32, %var32)
  %input_transposed1 = Transpose[perm = [0, 3, 1, 2]](%block17_20_ac/Relu:0)
  %block17_20_ac/Relu:0_pooling0 = MaxPool[auto_pad = 'VALID', ceil_mode = 0, kernel_shape = [3, 3], strides = [2, 2]](%input_transposed1)
  %activation_257/Relu:0 = Relu(%batch_norm_output_buffer34)
  %activation_254/Relu:0 = Relu(%batch_norm_output_buffer33)
  %activation_252/Relu:0 = Relu(%batch_norm_output_buffer32)
  %mixed_7a/concat:0 = Concat[axis = 1](%activation_252/Relu:0, %activation_254/Relu:0, %activation_257/Relu:0, %block17_20_ac/Relu:0_pooling0)
  %convolution_output65 = Conv[auto_pad = 'NOTSET', dilations = [1, 1], group = 1, kernel_shape = [1, 1], pads = [0, 0, 0, 0], strides = [1, 1]](%mixed_7a/concat:0, %conv2d_259/kernel:0)
  %batch_norm_output_buffer51 = BatchNormalization[epsilon = 9.99999997475243e-07, momentum = 0.990000009536743](%convolution_output65, %scale51, %bias51, %mean51, %var51)
  %activation_259/Relu:0 = Relu(%batch_norm_output_buffer51)
  %convolution_output56 = Conv[auto_pad = 'NOTSET', dilations = [1, 1], group = 1, kernel_shape = [1, 3], pads = [0, 1, 0, 1], strides = [1, 1]](%activation_259/Relu:0, %conv2d_260/kernel:0)
  %batch_norm_output_buffer44 = BatchNormalization[epsilon = 9.99999997475243e-07, momentum = 0.990000009536743](%convolution_output56, %scale44, %bias44, %mean44, %var44)
  %activation_260/Relu:0 = Relu(%batch_norm_output_buffer44)
  %convolution_output48 = Conv[auto_pad = 'NOTSET', dilations = [1, 1], group = 1, kernel_shape = [3, 1], pads = [1, 0, 1, 0], strides = [1, 1]](%activation_260/Relu:0, %conv2d_261/kernel:0)
  %batch_norm_output_buffer37 = BatchNormalization[epsilon = 9.99999997475243e-07, momentum = 0.990000009536743](%convolution_output48, %scale37, %bias37, %mean37, %var37)
  %activation_261/Relu:0 = Relu(%batch_norm_output_buffer37)
  %convolution_output47 = Conv[auto_pad = 'NOTSET', dilations = [1, 1], group = 1, kernel_shape = [1, 1], pads = [0, 0, 0, 0], strides = [1, 1]](%mixed_7a/concat:0, %conv2d_258/kernel:0)
  %batch_norm_output_buffer36 = BatchNormalization[epsilon = 9.99999997475243e-07, momentum = 0.990000009536743](%convolution_output47, %scale36, %bias36, %mean36, %var36)
  %activation_258/Relu:0 = Relu(%batch_norm_output_buffer36)
  %block8_1_mixed/concat:0 = Concat[axis = 1](%activation_258/Relu:0, %activation_261/Relu:0)
  %convolution_output34 = Conv[auto_pad = 'NOTSET', dilations = [1, 1], group = 1, kernel_shape = [1, 1], pads = [0, 0, 0, 0], strides = [1, 1]](%block8_1_mixed/concat:0, %block8_1_conv/kernel:0, %block8_1_conv/bias:0)
  %transpose_output34 = Transpose[perm = [0, 2, 3, 1]](%convolution_output34)
  %fan_out_adjustment_out64 = Transpose[perm = [0, 2, 3, 1]](%mixed_7a/concat:0)
  %TFNodes9/block8_1/mul:0 = Mul(%transpose_output34, %TFNodes9/block8_1/mul/y:0)
  %TFNodes9/block8_1/add:0 = Add(%fan_out_adjustment_out64, %TFNodes9/block8_1/mul:0)
  %block8_1_ac/Relu:0 = Relu(%TFNodes9/block8_1/add:0)
  %adjusted_input60 = Transpose[perm = [0, 3, 1, 2]](%block8_1_ac/Relu:0)
  %convolution_output60 = Conv[auto_pad = 'NOTSET', dilations = [1, 1], group = 1, kernel_shape = [1, 1], pads = [0, 0, 0, 0], strides = [1, 1]](%adjusted_input60, %conv2d_263/kernel:0)
  %batch_norm_output_buffer47 = BatchNormalization[epsilon = 9.99999997475243e-07, momentum = 0.990000009536743](%convolution_output60, %scale47, %bias47, %mean47, %var47)
  %activation_263/Relu:0 = Relu(%batch_norm_output_buffer47)
  %convolution_output50 = Conv[auto_pad = 'NOTSET', dilations = [1, 1], group = 1, kernel_shape = [1, 3], pads = [0, 1, 0, 1], strides = [1, 1]](%activation_263/Relu:0, %conv2d_264/kernel:0)
  %batch_norm_output_buffer39 = BatchNormalization[epsilon = 9.99999997475243e-07, momentum = 0.990000009536743](%convolution_output50, %scale39, %bias39, %mean39, %var39)
  %activation_264/Relu:0 = Relu(%batch_norm_output_buffer39)
  %convolution_output40 = Conv[auto_pad = 'NOTSET', dilations = [1, 1], group = 1, kernel_shape = [3, 1], pads = [1, 0, 1, 0], strides = [1, 1]](%activation_264/Relu:0, %conv2d_265/kernel:0)
  %batch_norm_output_buffer30 = BatchNormalization[epsilon = 9.99999997475243e-07, momentum = 0.990000009536743](%convolution_output40, %scale30, %bias30, %mean30, %var30)
  %activation_265/Relu:0 = Relu(%batch_norm_output_buffer30)
  %adjusted_input39 = Transpose[perm = [0, 3, 1, 2]](%block8_1_ac/Relu:0)
  %convolution_output39 = Conv[auto_pad = 'NOTSET', dilations = [1, 1], group = 1, kernel_shape = [1, 1], pads = [0, 0, 0, 0], strides = [1, 1]](%adjusted_input39, %conv2d_262/kernel:0)
  %batch_norm_output_buffer29 = BatchNormalization[epsilon = 9.99999997475243e-07, momentum = 0.990000009536743](%convolution_output39, %scale29, %bias29, %mean29, %var29)
  %activation_262/Relu:0 = Relu(%batch_norm_output_buffer29)
  %block8_2_mixed/concat:0 = Concat[axis = 1](%activation_262/Relu:0, %activation_265/Relu:0)
  %convolution_output29 = Conv[auto_pad = 'NOTSET', dilations = [1, 1], group = 1, kernel_shape = [1, 1], pads = [0, 0, 0, 0], strides = [1, 1]](%block8_2_mixed/concat:0, %block8_2_conv/kernel:0, %block8_2_conv/bias:0)
  %transpose_output29 = Transpose[perm = [0, 2, 3, 1]](%convolution_output29)
  %TFNodes8/block8_2/mul:0 = Mul(%transpose_output29, %TFNodes8/block8_2/mul/y:0)
  %TFNodes8/block8_2/add:0 = Add(%block8_1_ac/Relu:0, %TFNodes8/block8_2/mul:0)
  %block8_2_ac/Relu:0 = Relu(%TFNodes8/block8_2/add:0)
  %adjusted_input55 = Transpose[perm = [0, 3, 1, 2]](%block8_2_ac/Relu:0)
  %convolution_output55 = Conv[auto_pad = 'NOTSET', dilations = [1, 1], group = 1, kernel_shape = [1, 1], pads = [0, 0, 0, 0], strides = [1, 1]](%adjusted_input55, %conv2d_267/kernel:0)
  %batch_norm_output_buffer43 = BatchNormalization[epsilon = 9.99999997475243e-07, momentum = 0.990000009536743](%convolution_output55, %scale43, %bias43, %mean43, %var43)
  %activation_267/Relu:0 = Relu(%batch_norm_output_buffer43)
  %convolution_output45 = Conv[auto_pad = 'NOTSET', dilations = [1, 1], group = 1, kernel_shape = [1, 3], pads = [0, 1, 0, 1], strides = [1, 1]](%activation_267/Relu:0, %conv2d_268/kernel:0)
  %batch_norm_output_buffer35 = BatchNormalization[epsilon = 9.99999997475243e-07, momentum = 0.990000009536743](%convolution_output45, %scale35, %bias35, %mean35, %var35)
  %activation_268/Relu:0 = Relu(%batch_norm_output_buffer35)
  %convolution_output36 = Conv[auto_pad = 'NOTSET', dilations = [1, 1], group = 1, kernel_shape = [3, 1], pads = [1, 0, 1, 0], strides = [1, 1]](%activation_268/Relu:0, %conv2d_269/kernel:0)
  %batch_norm_output_buffer26 = BatchNormalization[epsilon = 9.99999997475243e-07, momentum = 0.990000009536743](%convolution_output36, %scale26, %bias26, %mean26, %var26)
  %activation_269/Relu:0 = Relu(%batch_norm_output_buffer26)
  %adjusted_input35 = Transpose[perm = [0, 3, 1, 2]](%block8_2_ac/Relu:0)
  %convolution_output35 = Conv[auto_pad = 'NOTSET', dilations = [1, 1], group = 1, kernel_shape = [1, 1], pads = [0, 0, 0, 0], strides = [1, 1]](%adjusted_input35, %conv2d_266/kernel:0)
  %batch_norm_output_buffer25 = BatchNormalization[epsilon = 9.99999997475243e-07, momentum = 0.990000009536743](%convolution_output35, %scale25, %bias25, %mean25, %var25)
  %activation_266/Relu:0 = Relu(%batch_norm_output_buffer25)
  %block8_3_mixed/concat:0 = Concat[axis = 1](%activation_266/Relu:0, %activation_269/Relu:0)
  %convolution_output24 = Conv[auto_pad = 'NOTSET', dilations = [1, 1], group = 1, kernel_shape = [1, 1], pads = [0, 0, 0, 0], strides = [1, 1]](%block8_3_mixed/concat:0, %block8_3_conv/kernel:0, %block8_3_conv/bias:0)
  %transpose_output24 = Transpose[perm = [0, 2, 3, 1]](%convolution_output24)
  %TFNodes7/block8_3/mul:0 = Mul(%transpose_output24, %TFNodes7/block8_3/mul/y:0)
  %TFNodes7/block8_3/add:0 = Add(%block8_2_ac/Relu:0, %TFNodes7/block8_3/mul:0)
  %block8_3_ac/Relu:0 = Relu(%TFNodes7/block8_3/add:0)
  %adjusted_input49 = Transpose[perm = [0, 3, 1, 2]](%block8_3_ac/Relu:0)
  %convolution_output49 = Conv[auto_pad = 'NOTSET', dilations = [1, 1], group = 1, kernel_shape = [1, 1], pads = [0, 0, 0, 0], strides = [1, 1]](%adjusted_input49, %conv2d_271/kernel:0)
  %batch_norm_output_buffer38 = BatchNormalization[epsilon = 9.99999997475243e-07, momentum = 0.990000009536743](%convolution_output49, %scale38, %bias38, %mean38, %var38)
  %activation_271/Relu:0 = Relu(%batch_norm_output_buffer38)
  %convolution_output38 = Conv[auto_pad = 'NOTSET', dilations = [1, 1], group = 1, kernel_shape = [1, 3], pads = [0, 1, 0, 1], strides = [1, 1]](%activation_271/Relu:0, %conv2d_272/kernel:0)
  %batch_norm_output_buffer28 = BatchNormalization[epsilon = 9.99999997475243e-07, momentum = 0.990000009536743](%convolution_output38, %scale28, %bias28, %mean28, %var28)
  %activation_272/Relu:0 = Relu(%batch_norm_output_buffer28)
  %convolution_output31 = Conv[auto_pad = 'NOTSET', dilations = [1, 1], group = 1, kernel_shape = [3, 1], pads = [1, 0, 1, 0], strides = [1, 1]](%activation_272/Relu:0, %conv2d_273/kernel:0)
  %batch_norm_output_buffer22 = BatchNormalization[epsilon = 9.99999997475243e-07, momentum = 0.990000009536743](%convolution_output31, %scale22, %bias22, %mean22, %var22)
  %activation_273/Relu:0 = Relu(%batch_norm_output_buffer22)
  %adjusted_input30 = Transpose[perm = [0, 3, 1, 2]](%block8_3_ac/Relu:0)
  %convolution_output30 = Conv[auto_pad = 'NOTSET', dilations = [1, 1], group = 1, kernel_shape = [1, 1], pads = [0, 0, 0, 0], strides = [1, 1]](%adjusted_input30, %conv2d_270/kernel:0)
  %batch_norm_output_buffer21 = BatchNormalization[epsilon = 9.99999997475243e-07, momentum = 0.990000009536743](%convolution_output30, %scale21, %bias21, %mean21, %var21)
  %activation_270/Relu:0 = Relu(%batch_norm_output_buffer21)
  %block8_4_mixed/concat:0 = Concat[axis = 1](%activation_270/Relu:0, %activation_273/Relu:0)
  %convolution_output19 = Conv[auto_pad = 'NOTSET', dilations = [1, 1], group = 1, kernel_shape = [1, 1], pads = [0, 0, 0, 0], strides = [1, 1]](%block8_4_mixed/concat:0, %block8_4_conv/kernel:0, %block8_4_conv/bias:0)
  %transpose_output19 = Transpose[perm = [0, 2, 3, 1]](%convolution_output19)
  %TFNodes6/block8_4/mul:0 = Mul(%transpose_output19, %TFNodes6/block8_4/mul/y:0)
  %TFNodes6/block8_4/add:0 = Add(%block8_3_ac/Relu:0, %TFNodes6/block8_4/mul:0)
  %block8_4_ac/Relu:0 = Relu(%TFNodes6/block8_4/add:0)
  %adjusted_input41 = Transpose[perm = [0, 3, 1, 2]](%block8_4_ac/Relu:0)
  %convolution_output41 = Conv[auto_pad = 'NOTSET', dilations = [1, 1], group = 1, kernel_shape = [1, 1], pads = [0, 0, 0, 0], strides = [1, 1]](%adjusted_input41, %conv2d_275/kernel:0)
  %batch_norm_output_buffer31 = BatchNormalization[epsilon = 9.99999997475243e-07, momentum = 0.990000009536743](%convolution_output41, %scale31, %bias31, %mean31, %var31)
  %activation_275/Relu:0 = Relu(%batch_norm_output_buffer31)
  %convolution_output33 = Conv[auto_pad = 'NOTSET', dilations = [1, 1], group = 1, kernel_shape = [1, 3], pads = [0, 1, 0, 1], strides = [1, 1]](%activation_275/Relu:0, %conv2d_276/kernel:0)
  %batch_norm_output_buffer24 = BatchNormalization[epsilon = 9.99999997475243e-07, momentum = 0.990000009536743](%convolution_output33, %scale24, %bias24, %mean24, %var24)
  %activation_276/Relu:0 = Relu(%batch_norm_output_buffer24)
  %convolution_output26 = Conv[auto_pad = 'NOTSET', dilations = [1, 1], group = 1, kernel_shape = [3, 1], pads = [1, 0, 1, 0], strides = [1, 1]](%activation_276/Relu:0, %conv2d_277/kernel:0)
  %batch_norm_output_buffer18 = BatchNormalization[epsilon = 9.99999997475243e-07, momentum = 0.990000009536743](%convolution_output26, %scale18, %bias18, %mean18, %var18)
  %activation_277/Relu:0 = Relu(%batch_norm_output_buffer18)
  %adjusted_input25 = Transpose[perm = [0, 3, 1, 2]](%block8_4_ac/Relu:0)
  %convolution_output25 = Conv[auto_pad = 'NOTSET', dilations = [1, 1], group = 1, kernel_shape = [1, 1], pads = [0, 0, 0, 0], strides = [1, 1]](%adjusted_input25, %conv2d_274/kernel:0)
  %batch_norm_output_buffer17 = BatchNormalization[epsilon = 9.99999997475243e-07, momentum = 0.990000009536743](%convolution_output25, %scale17, %bias17, %mean17, %var17)
  %activation_274/Relu:0 = Relu(%batch_norm_output_buffer17)
  %block8_5_mixed/concat:0 = Concat[axis = 1](%activation_274/Relu:0, %activation_277/Relu:0)
  %convolution_output14 = Conv[auto_pad = 'NOTSET', dilations = [1, 1], group = 1, kernel_shape = [1, 1], pads = [0, 0, 0, 0], strides = [1, 1]](%block8_5_mixed/concat:0, %block8_5_conv/kernel:0, %block8_5_conv/bias:0)
  %transpose_output14 = Transpose[perm = [0, 2, 3, 1]](%convolution_output14)
  %TFNodes5/block8_5/mul:0 = Mul(%transpose_output14, %TFNodes5/block8_5/mul/y:0)
  %TFNodes5/block8_5/add:0 = Add(%block8_4_ac/Relu:0, %TFNodes5/block8_5/mul:0)
  %block8_5_ac/Relu:0 = Relu(%TFNodes5/block8_5/add:0)
  %adjusted_input37 = Transpose[perm = [0, 3, 1, 2]](%block8_5_ac/Relu:0)
  %convolution_output37 = Conv[auto_pad = 'NOTSET', dilations = [1, 1], group = 1, kernel_shape = [1, 1], pads = [0, 0, 0, 0], strides = [1, 1]](%adjusted_input37, %conv2d_279/kernel:0)
  %batch_norm_output_buffer27 = BatchNormalization[epsilon = 9.99999997475243e-07, momentum = 0.990000009536743](%convolution_output37, %scale27, %bias27, %mean27, %var27)
  %activation_279/Relu:0 = Relu(%batch_norm_output_buffer27)
  %convolution_output28 = Conv[auto_pad = 'NOTSET', dilations = [1, 1], group = 1, kernel_shape = [1, 3], pads = [0, 1, 0, 1], strides = [1, 1]](%activation_279/Relu:0, %conv2d_280/kernel:0)
  %batch_norm_output_buffer20 = BatchNormalization[epsilon = 9.99999997475243e-07, momentum = 0.990000009536743](%convolution_output28, %scale20, %bias20, %mean20, %var20)
  %activation_280/Relu:0 = Relu(%batch_norm_output_buffer20)
  %convolution_output21 = Conv[auto_pad = 'NOTSET', dilations = [1, 1], group = 1, kernel_shape = [3, 1], pads = [1, 0, 1, 0], strides = [1, 1]](%activation_280/Relu:0, %conv2d_281/kernel:0)
  %batch_norm_output_buffer14 = BatchNormalization[epsilon = 9.99999997475243e-07, momentum = 0.990000009536743](%convolution_output21, %scale14, %bias14, %mean14, %var14)
  %activation_281/Relu:0 = Relu(%batch_norm_output_buffer14)
  %adjusted_input20 = Transpose[perm = [0, 3, 1, 2]](%block8_5_ac/Relu:0)
  %convolution_output20 = Conv[auto_pad = 'NOTSET', dilations = [1, 1], group = 1, kernel_shape = [1, 1], pads = [0, 0, 0, 0], strides = [1, 1]](%adjusted_input20, %conv2d_278/kernel:0)
  %batch_norm_output_buffer13 = BatchNormalization[epsilon = 9.99999997475243e-07, momentum = 0.990000009536743](%convolution_output20, %scale13, %bias13, %mean13, %var13)
  %activation_278/Relu:0 = Relu(%batch_norm_output_buffer13)
  %block8_6_mixed/concat:0 = Concat[axis = 1](%activation_278/Relu:0, %activation_281/Relu:0)
  %convolution_output10 = Conv[auto_pad = 'NOTSET', dilations = [1, 1], group = 1, kernel_shape = [1, 1], pads = [0, 0, 0, 0], strides = [1, 1]](%block8_6_mixed/concat:0, %block8_6_conv/kernel:0, %block8_6_conv/bias:0)
  %transpose_output10 = Transpose[perm = [0, 2, 3, 1]](%convolution_output10)
  %TFNodes4/block8_6/mul:0 = Mul(%transpose_output10, %TFNodes4/block8_6/mul/y:0)
  %TFNodes4/block8_6/add:0 = Add(%block8_5_ac/Relu:0, %TFNodes4/block8_6/mul:0)
  %block8_6_ac/Relu:0 = Relu(%TFNodes4/block8_6/add:0)
  %adjusted_input32 = Transpose[perm = [0, 3, 1, 2]](%block8_6_ac/Relu:0)
  %convolution_output32 = Conv[auto_pad = 'NOTSET', dilations = [1, 1], group = 1, kernel_shape = [1, 1], pads = [0, 0, 0, 0], strides = [1, 1]](%adjusted_input32, %conv2d_283/kernel:0)
  %batch_norm_output_buffer23 = BatchNormalization[epsilon = 9.99999997475243e-07, momentum = 0.990000009536743](%convolution_output32, %scale23, %bias23, %mean23, %var23)
  %activation_283/Relu:0 = Relu(%batch_norm_output_buffer23)
  %convolution_output23 = Conv[auto_pad = 'NOTSET', dilations = [1, 1], group = 1, kernel_shape = [1, 3], pads = [0, 1, 0, 1], strides = [1, 1]](%activation_283/Relu:0, %conv2d_284/kernel:0)
  %batch_norm_output_buffer16 = BatchNormalization[epsilon = 9.99999997475243e-07, momentum = 0.990000009536743](%convolution_output23, %scale16, %bias16, %mean16, %var16)
  %activation_284/Relu:0 = Relu(%batch_norm_output_buffer16)
  %convolution_output16 = Conv[auto_pad = 'NOTSET', dilations = [1, 1], group = 1, kernel_shape = [3, 1], pads = [1, 0, 1, 0], strides = [1, 1]](%activation_284/Relu:0, %conv2d_285/kernel:0)
  %batch_norm_output_buffer10 = BatchNormalization[epsilon = 9.99999997475243e-07, momentum = 0.990000009536743](%convolution_output16, %scale10, %bias10, %mean10, %var10)
  %activation_285/Relu:0 = Relu(%batch_norm_output_buffer10)
  %adjusted_input15 = Transpose[perm = [0, 3, 1, 2]](%block8_6_ac/Relu:0)
  %convolution_output15 = Conv[auto_pad = 'NOTSET', dilations = [1, 1], group = 1, kernel_shape = [1, 1], pads = [0, 0, 0, 0], strides = [1, 1]](%adjusted_input15, %conv2d_282/kernel:0)
  %batch_norm_output_buffer9 = BatchNormalization[epsilon = 9.99999997475243e-07, momentum = 0.990000009536743](%convolution_output15, %scale9, %bias9, %mean9, %var9)
  %activation_282/Relu:0 = Relu(%batch_norm_output_buffer9)
  %block8_7_mixed/concat:0 = Concat[axis = 1](%activation_282/Relu:0, %activation_285/Relu:0)
  %convolution_output6 = Conv[auto_pad = 'NOTSET', dilations = [1, 1], group = 1, kernel_shape = [1, 1], pads = [0, 0, 0, 0], strides = [1, 1]](%block8_7_mixed/concat:0, %block8_7_conv/kernel:0, %block8_7_conv/bias:0)
  %transpose_output6 = Transpose[perm = [0, 2, 3, 1]](%convolution_output6)
  %TFNodes3/block8_7/mul:0 = Mul(%transpose_output6, %TFNodes3/block8_7/mul/y:0)
  %TFNodes3/block8_7/add:0 = Add(%block8_6_ac/Relu:0, %TFNodes3/block8_7/mul:0)
  %block8_7_ac/Relu:0 = Relu(%TFNodes3/block8_7/add:0)
  %adjusted_input27 = Transpose[perm = [0, 3, 1, 2]](%block8_7_ac/Relu:0)
  %convolution_output27 = Conv[auto_pad = 'NOTSET', dilations = [1, 1], group = 1, kernel_shape = [1, 1], pads = [0, 0, 0, 0], strides = [1, 1]](%adjusted_input27, %conv2d_287/kernel:0)
  %batch_norm_output_buffer19 = BatchNormalization[epsilon = 9.99999997475243e-07, momentum = 0.990000009536743](%convolution_output27, %scale19, %bias19, %mean19, %var19)
  %activation_287/Relu:0 = Relu(%batch_norm_output_buffer19)
  %convolution_output18 = Conv[auto_pad = 'NOTSET', dilations = [1, 1], group = 1, kernel_shape = [1, 3], pads = [0, 1, 0, 1], strides = [1, 1]](%activation_287/Relu:0, %conv2d_288/kernel:0)
  %batch_norm_output_buffer12 = BatchNormalization[epsilon = 9.99999997475243e-07, momentum = 0.990000009536743](%convolution_output18, %scale12, %bias12, %mean12, %var12)
  %activation_288/Relu:0 = Relu(%batch_norm_output_buffer12)
  %convolution_output12 = Conv[auto_pad = 'NOTSET', dilations = [1, 1], group = 1, kernel_shape = [3, 1], pads = [1, 0, 1, 0], strides = [1, 1]](%activation_288/Relu:0, %conv2d_289/kernel:0)
  %batch_norm_output_buffer7 = BatchNormalization[epsilon = 9.99999997475243e-07, momentum = 0.990000009536743](%convolution_output12, %scale7, %bias7, %mean7, %var7)
  %activation_289/Relu:0 = Relu(%batch_norm_output_buffer7)
  %adjusted_input11 = Transpose[perm = [0, 3, 1, 2]](%block8_7_ac/Relu:0)
  %convolution_output11 = Conv[auto_pad = 'NOTSET', dilations = [1, 1], group = 1, kernel_shape = [1, 1], pads = [0, 0, 0, 0], strides = [1, 1]](%adjusted_input11, %conv2d_286/kernel:0)
  %batch_norm_output_buffer6 = BatchNormalization[epsilon = 9.99999997475243e-07, momentum = 0.990000009536743](%convolution_output11, %scale6, %bias6, %mean6, %var6)
  %activation_286/Relu:0 = Relu(%batch_norm_output_buffer6)
  %block8_8_mixed/concat:0 = Concat[axis = 1](%activation_286/Relu:0, %activation_289/Relu:0)
  %convolution_output3 = Conv[auto_pad = 'NOTSET', dilations = [1, 1], group = 1, kernel_shape = [1, 1], pads = [0, 0, 0, 0], strides = [1, 1]](%block8_8_mixed/concat:0, %block8_8_conv/kernel:0, %block8_8_conv/bias:0)
  %transpose_output3 = Transpose[perm = [0, 2, 3, 1]](%convolution_output3)
  %TFNodes2/block8_8/mul:0 = Mul(%transpose_output3, %TFNodes2/block8_8/mul/y:0)
  %TFNodes2/block8_8/add:0 = Add(%block8_7_ac/Relu:0, %TFNodes2/block8_8/mul:0)
  %block8_8_ac/Relu:0 = Relu(%TFNodes2/block8_8/add:0)
  %adjusted_input22 = Transpose[perm = [0, 3, 1, 2]](%block8_8_ac/Relu:0)
  %convolution_output22 = Conv[auto_pad = 'NOTSET', dilations = [1, 1], group = 1, kernel_shape = [1, 1], pads = [0, 0, 0, 0], strides = [1, 1]](%adjusted_input22, %conv2d_291/kernel:0)
  %batch_norm_output_buffer15 = BatchNormalization[epsilon = 9.99999997475243e-07, momentum = 0.990000009536743](%convolution_output22, %scale15, %bias15, %mean15, %var15)
  %activation_291/Relu:0 = Relu(%batch_norm_output_buffer15)
  %convolution_output13 = Conv[auto_pad = 'NOTSET', dilations = [1, 1], group = 1, kernel_shape = [1, 3], pads = [0, 1, 0, 1], strides = [1, 1]](%activation_291/Relu:0, %conv2d_292/kernel:0)
  %batch_norm_output_buffer8 = BatchNormalization[epsilon = 9.99999997475243e-07, momentum = 0.990000009536743](%convolution_output13, %scale8, %bias8, %mean8, %var8)
  %activation_292/Relu:0 = Relu(%batch_norm_output_buffer8)
  %convolution_output8 = Conv[auto_pad = 'NOTSET', dilations = [1, 1], group = 1, kernel_shape = [3, 1], pads = [1, 0, 1, 0], strides = [1, 1]](%activation_292/Relu:0, %conv2d_293/kernel:0)
  %batch_norm_output_buffer4 = BatchNormalization[epsilon = 9.99999997475243e-07, momentum = 0.990000009536743](%convolution_output8, %scale4, %bias4, %mean4, %var4)
  %activation_293/Relu:0 = Relu(%batch_norm_output_buffer4)
  %adjusted_input7 = Transpose[perm = [0, 3, 1, 2]](%block8_8_ac/Relu:0)
  %convolution_output7 = Conv[auto_pad = 'NOTSET', dilations = [1, 1], group = 1, kernel_shape = [1, 1], pads = [0, 0, 0, 0], strides = [1, 1]](%adjusted_input7, %conv2d_290/kernel:0)
  %batch_norm_output_buffer3 = BatchNormalization[epsilon = 9.99999997475243e-07, momentum = 0.990000009536743](%convolution_output7, %scale3, %bias3, %mean3, %var3)
  %activation_290/Relu:0 = Relu(%batch_norm_output_buffer3)
  %block8_9_mixed/concat:0 = Concat[axis = 1](%activation_290/Relu:0, %activation_293/Relu:0)
  %convolution_output2 = Conv[auto_pad = 'NOTSET', dilations = [1, 1], group = 1, kernel_shape = [1, 1], pads = [0, 0, 0, 0], strides = [1, 1]](%block8_9_mixed/concat:0, %block8_9_conv/kernel:0, %block8_9_conv/bias:0)
  %transpose_output2 = Transpose[perm = [0, 2, 3, 1]](%convolution_output2)
  %TFNodes1/block8_9/mul:0 = Mul(%transpose_output2, %TFNodes1/block8_9/mul/y:0)
  %TFNodes1/block8_9/add:0 = Add(%block8_8_ac/Relu:0, %TFNodes1/block8_9/mul:0)
  %block8_9_ac/Relu:0 = Relu(%TFNodes1/block8_9/add:0)
  %adjusted_input17 = Transpose[perm = [0, 3, 1, 2]](%block8_9_ac/Relu:0)
  %convolution_output17 = Conv[auto_pad = 'NOTSET', dilations = [1, 1], group = 1, kernel_shape = [1, 1], pads = [0, 0, 0, 0], strides = [1, 1]](%adjusted_input17, %conv2d_295/kernel:0)
  %batch_norm_output_buffer11 = BatchNormalization[epsilon = 9.99999997475243e-07, momentum = 0.990000009536743](%convolution_output17, %scale11, %bias11, %mean11, %var11)
  %activation_295/Relu:0 = Relu(%batch_norm_output_buffer11)
  %convolution_output9 = Conv[auto_pad = 'NOTSET', dilations = [1, 1], group = 1, kernel_shape = [1, 3], pads = [0, 1, 0, 1], strides = [1, 1]](%activation_295/Relu:0, %conv2d_296/kernel:0)
  %batch_norm_output_buffer5 = BatchNormalization[epsilon = 9.99999997475243e-07, momentum = 0.990000009536743](%convolution_output9, %scale5, %bias5, %mean5, %var5)
  %activation_296/Relu:0 = Relu(%batch_norm_output_buffer5)
  %convolution_output5 = Conv[auto_pad = 'NOTSET', dilations = [1, 1], group = 1, kernel_shape = [3, 1], pads = [1, 0, 1, 0], strides = [1, 1]](%activation_296/Relu:0, %conv2d_297/kernel:0)
  %batch_norm_output_buffer2 = BatchNormalization[epsilon = 9.99999997475243e-07, momentum = 0.990000009536743](%convolution_output5, %scale2, %bias2, %mean2, %var2)
  %activation_297/Relu:0 = Relu(%batch_norm_output_buffer2)
  %adjusted_input4 = Transpose[perm = [0, 3, 1, 2]](%block8_9_ac/Relu:0)
  %convolution_output4 = Conv[auto_pad = 'NOTSET', dilations = [1, 1], group = 1, kernel_shape = [1, 1], pads = [0, 0, 0, 0], strides = [1, 1]](%adjusted_input4, %conv2d_294/kernel:0)
  %batch_norm_output_buffer1 = BatchNormalization[epsilon = 9.99999997475243e-07, momentum = 0.990000009536743](%convolution_output4, %scale1, %bias1, %mean1, %var1)
  %activation_294/Relu:0 = Relu(%batch_norm_output_buffer1)
  %block8_10_mixed/concat:0 = Concat[axis = 1](%activation_294/Relu:0, %activation_297/Relu:0)
  %convolution_output1 = Conv[auto_pad = 'NOTSET', dilations = [1, 1], group = 1, kernel_shape = [1, 1], pads = [0, 0, 0, 0], strides = [1, 1]](%block8_10_mixed/concat:0, %block8_10_conv/kernel:0, %block8_10_conv/bias:0)
  %transpose_output1 = Transpose[perm = [0, 2, 3, 1]](%convolution_output1)
  %TFNodes/block8_10/mul:0 = Mul(%transpose_output1, %TFNodes/block8_10/mul/y:0)
  %TFNodes/block8_10/add:0 = Add(%block8_9_ac/Relu:0, %TFNodes/block8_10/mul:0)
  %adjusted_input = Transpose[perm = [0, 3, 1, 2]](%TFNodes/block8_10/add:0)
  %convolution_output = Conv[auto_pad = 'NOTSET', dilations = [1, 1], group = 1, kernel_shape = [1, 1], pads = [0, 0, 0, 0], strides = [1, 1]](%adjusted_input, %conv_7b/kernel:0)
  %batch_norm_output_buffer = BatchNormalization[epsilon = 9.99999997475243e-07, momentum = 0.990000009536743](%convolution_output, %scale, %bias, %mean, %var)
  %conv_7b_ac/Relu:0 = Relu(%batch_norm_output_buffer)
  %conv_7b_ac/Relu:0_pooling0 = GlobalAveragePool(%conv_7b_ac/Relu:0)
  %conv_7b_ac/Relu:0_transpose0 = Transpose[perm = [0, 2, 3, 1]](%conv_7b_ac/Relu:0_pooling0)
  %conv_7b_ac/Relu:0_reshape0 = Reshape(%conv_7b_ac/Relu:0_transpose0, %conv_7b_ac/Relu:0_reshape_start)
  %transformed_tensor = MatMul(%conv_7b_ac/Relu:0_reshape0, %predictions_1/kernel:0)
  %biased_tensor_name = Add(%transformed_tensor, %predictions_1/bias:0)
  %predictions_1/Softmax:01 = Softmax[axis = -1](%biased_tensor_name)
  %predictions = Identity(%predictions_1/Softmax:01)
  return %predictions
}